ir_version: 10
producer_name: "onnx.quantize"
producer_version: "0.1.0"
graph {
  node {
    input: "images"
    output: "images_quantized"
    output: "images_scale"
    output: "images_zero_point"
    name: "images_QuantizeLinear"
    op_type: "DynamicQuantizeLinear"
  }
  node {
    input: "model.0.conv.bias"
    input: "/model.0/conv/Conv_output_0_bias_reshape_shape"
    output: "/model.0/conv/Conv_output_0_bias_reshape_output"
    op_type: "Reshape"
  }
  node {
    input: "model.1.conv.bias"
    input: "/model.1/conv/Conv_output_0_bias_reshape_shape"
    output: "/model.1/conv/Conv_output_0_bias_reshape_output"
    op_type: "Reshape"
  }
  node {
    input: "model.12.cv1.conv.bias"
    input: "/model.12/cv1/conv/Conv_output_0_bias_reshape_shape"
    output: "/model.12/cv1/conv/Conv_output_0_bias_reshape_output"
    op_type: "Reshape"
  }
  node {
    input: "model.12.cv2.conv.bias"
    input: "/model.12/cv2/conv/Conv_output_0_bias_reshape_shape"
    output: "/model.12/cv2/conv/Conv_output_0_bias_reshape_output"
    op_type: "Reshape"
  }
  node {
    input: "model.12.m.0.cv1.conv.bias"
    input: "/model.12/m.0/cv1/conv/Conv_output_0_bias_reshape_shape"
    output: "/model.12/m.0/cv1/conv/Conv_output_0_bias_reshape_output"
    op_type: "Reshape"
  }
  node {
    input: "model.12.m.0.cv2.conv.bias"
    input: "/model.12/m.0/cv2/conv/Conv_output_0_bias_reshape_shape"
    output: "/model.12/m.0/cv2/conv/Conv_output_0_bias_reshape_output"
    op_type: "Reshape"
  }
  node {
    input: "model.15.cv1.conv.bias"
    input: "/model.15/cv1/conv/Conv_output_0_bias_reshape_shape"
    output: "/model.15/cv1/conv/Conv_output_0_bias_reshape_output"
    op_type: "Reshape"
  }
  node {
    input: "model.15.cv2.conv.bias"
    input: "/model.15/cv2/conv/Conv_output_0_bias_reshape_shape"
    output: "/model.15/cv2/conv/Conv_output_0_bias_reshape_output"
    op_type: "Reshape"
  }
  node {
    input: "model.15.m.0.cv1.conv.bias"
    input: "/model.15/m.0/cv1/conv/Conv_output_0_bias_reshape_shape"
    output: "/model.15/m.0/cv1/conv/Conv_output_0_bias_reshape_output"
    op_type: "Reshape"
  }
  node {
    input: "model.15.m.0.cv2.conv.bias"
    input: "/model.15/m.0/cv2/conv/Conv_output_0_bias_reshape_shape"
    output: "/model.15/m.0/cv2/conv/Conv_output_0_bias_reshape_output"
    op_type: "Reshape"
  }
  node {
    input: "model.16.conv.bias"
    input: "/model.16/conv/Conv_output_0_bias_reshape_shape"
    output: "/model.16/conv/Conv_output_0_bias_reshape_output"
    op_type: "Reshape"
  }
  node {
    input: "model.18.cv1.conv.bias"
    input: "/model.18/cv1/conv/Conv_output_0_bias_reshape_shape"
    output: "/model.18/cv1/conv/Conv_output_0_bias_reshape_output"
    op_type: "Reshape"
  }
  node {
    input: "model.18.cv2.conv.bias"
    input: "/model.18/cv2/conv/Conv_output_0_bias_reshape_shape"
    output: "/model.18/cv2/conv/Conv_output_0_bias_reshape_output"
    op_type: "Reshape"
  }
  node {
    input: "model.18.m.0.cv1.conv.bias"
    input: "/model.18/m.0/cv1/conv/Conv_output_0_bias_reshape_shape"
    output: "/model.18/m.0/cv1/conv/Conv_output_0_bias_reshape_output"
    op_type: "Reshape"
  }
  node {
    input: "model.18.m.0.cv2.conv.bias"
    input: "/model.18/m.0/cv2/conv/Conv_output_0_bias_reshape_shape"
    output: "/model.18/m.0/cv2/conv/Conv_output_0_bias_reshape_output"
    op_type: "Reshape"
  }
  node {
    input: "model.19.conv.bias"
    input: "/model.19/conv/Conv_output_0_bias_reshape_shape"
    output: "/model.19/conv/Conv_output_0_bias_reshape_output"
    op_type: "Reshape"
  }
  node {
    input: "model.2.cv1.conv.bias"
    input: "/model.2/cv1/conv/Conv_output_0_bias_reshape_shape"
    output: "/model.2/cv1/conv/Conv_output_0_bias_reshape_output"
    op_type: "Reshape"
  }
  node {
    input: "model.2.cv2.conv.bias"
    input: "/model.2/cv2/conv/Conv_output_0_bias_reshape_shape"
    output: "/model.2/cv2/conv/Conv_output_0_bias_reshape_output"
    op_type: "Reshape"
  }
  node {
    input: "model.2.m.0.cv1.conv.bias"
    input: "/model.2/m.0/cv1/conv/Conv_output_0_bias_reshape_shape"
    output: "/model.2/m.0/cv1/conv/Conv_output_0_bias_reshape_output"
    op_type: "Reshape"
  }
  node {
    input: "model.2.m.0.cv2.conv.bias"
    input: "/model.2/m.0/cv2/conv/Conv_output_0_bias_reshape_shape"
    output: "/model.2/m.0/cv2/conv/Conv_output_0_bias_reshape_output"
    op_type: "Reshape"
  }
  node {
    input: "model.21.cv1.conv.bias"
    input: "/model.21/cv1/conv/Conv_output_0_bias_reshape_shape"
    output: "/model.21/cv1/conv/Conv_output_0_bias_reshape_output"
    op_type: "Reshape"
  }
  node {
    input: "model.21.cv2.conv.bias"
    input: "/model.21/cv2/conv/Conv_output_0_bias_reshape_shape"
    output: "/model.21/cv2/conv/Conv_output_0_bias_reshape_output"
    op_type: "Reshape"
  }
  node {
    input: "model.21.m.0.cv1.conv.bias"
    input: "/model.21/m.0/cv1/conv/Conv_output_0_bias_reshape_shape"
    output: "/model.21/m.0/cv1/conv/Conv_output_0_bias_reshape_output"
    op_type: "Reshape"
  }
  node {
    input: "model.21.m.0.cv2.conv.bias"
    input: "/model.21/m.0/cv2/conv/Conv_output_0_bias_reshape_shape"
    output: "/model.21/m.0/cv2/conv/Conv_output_0_bias_reshape_output"
    op_type: "Reshape"
  }
  node {
    input: "model.22.cv2.0.0.conv.bias"
    input: "/model.22/cv2.0/cv2.0.0/conv/Conv_output_0_bias_reshape_shape"
    output: "/model.22/cv2.0/cv2.0.0/conv/Conv_output_0_bias_reshape_output"
    op_type: "Reshape"
  }
  node {
    input: "model.22.cv2.0.1.conv.bias"
    input: "/model.22/cv2.0/cv2.0.1/conv/Conv_output_0_bias_reshape_shape"
    output: "/model.22/cv2.0/cv2.0.1/conv/Conv_output_0_bias_reshape_output"
    op_type: "Reshape"
  }
  node {
    input: "model.22.cv2.0.2.bias"
    input: "/model.22/cv2.0/cv2.0.2/Conv_output_0_bias_reshape_shape"
    output: "/model.22/cv2.0/cv2.0.2/Conv_output_0_bias_reshape_output"
    op_type: "Reshape"
  }
  node {
    input: "model.22.cv2.1.0.conv.bias"
    input: "/model.22/cv2.1/cv2.1.0/conv/Conv_output_0_bias_reshape_shape"
    output: "/model.22/cv2.1/cv2.1.0/conv/Conv_output_0_bias_reshape_output"
    op_type: "Reshape"
  }
  node {
    input: "model.22.cv2.1.1.conv.bias"
    input: "/model.22/cv2.1/cv2.1.1/conv/Conv_output_0_bias_reshape_shape"
    output: "/model.22/cv2.1/cv2.1.1/conv/Conv_output_0_bias_reshape_output"
    op_type: "Reshape"
  }
  node {
    input: "model.22.cv2.1.2.bias"
    input: "/model.22/cv2.1/cv2.1.2/Conv_output_0_bias_reshape_shape"
    output: "/model.22/cv2.1/cv2.1.2/Conv_output_0_bias_reshape_output"
    op_type: "Reshape"
  }
  node {
    input: "model.22.cv2.2.0.conv.bias"
    input: "/model.22/cv2.2/cv2.2.0/conv/Conv_output_0_bias_reshape_shape"
    output: "/model.22/cv2.2/cv2.2.0/conv/Conv_output_0_bias_reshape_output"
    op_type: "Reshape"
  }
  node {
    input: "model.22.cv2.2.1.conv.bias"
    input: "/model.22/cv2.2/cv2.2.1/conv/Conv_output_0_bias_reshape_shape"
    output: "/model.22/cv2.2/cv2.2.1/conv/Conv_output_0_bias_reshape_output"
    op_type: "Reshape"
  }
  node {
    input: "model.22.cv2.2.2.bias"
    input: "/model.22/cv2.2/cv2.2.2/Conv_output_0_bias_reshape_shape"
    output: "/model.22/cv2.2/cv2.2.2/Conv_output_0_bias_reshape_output"
    op_type: "Reshape"
  }
  node {
    input: "model.22.cv3.0.0.conv.bias"
    input: "/model.22/cv3.0/cv3.0.0/conv/Conv_output_0_bias_reshape_shape"
    output: "/model.22/cv3.0/cv3.0.0/conv/Conv_output_0_bias_reshape_output"
    op_type: "Reshape"
  }
  node {
    input: "model.22.cv3.0.1.conv.bias"
    input: "/model.22/cv3.0/cv3.0.1/conv/Conv_output_0_bias_reshape_shape"
    output: "/model.22/cv3.0/cv3.0.1/conv/Conv_output_0_bias_reshape_output"
    op_type: "Reshape"
  }
  node {
    input: "model.22.cv3.0.2.bias"
    input: "/model.22/cv3.0/cv3.0.2/Conv_output_0_bias_reshape_shape"
    output: "/model.22/cv3.0/cv3.0.2/Conv_output_0_bias_reshape_output"
    op_type: "Reshape"
  }
  node {
    input: "model.22.cv3.1.0.conv.bias"
    input: "/model.22/cv3.1/cv3.1.0/conv/Conv_output_0_bias_reshape_shape"
    output: "/model.22/cv3.1/cv3.1.0/conv/Conv_output_0_bias_reshape_output"
    op_type: "Reshape"
  }
  node {
    input: "model.22.cv3.1.1.conv.bias"
    input: "/model.22/cv3.1/cv3.1.1/conv/Conv_output_0_bias_reshape_shape"
    output: "/model.22/cv3.1/cv3.1.1/conv/Conv_output_0_bias_reshape_output"
    op_type: "Reshape"
  }
  node {
    input: "model.22.cv3.1.2.bias"
    input: "/model.22/cv3.1/cv3.1.2/Conv_output_0_bias_reshape_shape"
    output: "/model.22/cv3.1/cv3.1.2/Conv_output_0_bias_reshape_output"
    op_type: "Reshape"
  }
  node {
    input: "model.22.cv3.2.0.conv.bias"
    input: "/model.22/cv3.2/cv3.2.0/conv/Conv_output_0_bias_reshape_shape"
    output: "/model.22/cv3.2/cv3.2.0/conv/Conv_output_0_bias_reshape_output"
    op_type: "Reshape"
  }
  node {
    input: "model.22.cv3.2.1.conv.bias"
    input: "/model.22/cv3.2/cv3.2.1/conv/Conv_output_0_bias_reshape_shape"
    output: "/model.22/cv3.2/cv3.2.1/conv/Conv_output_0_bias_reshape_output"
    op_type: "Reshape"
  }
  node {
    input: "model.22.cv3.2.2.bias"
    input: "/model.22/cv3.2/cv3.2.2/Conv_output_0_bias_reshape_shape"
    output: "/model.22/cv3.2/cv3.2.2/Conv_output_0_bias_reshape_output"
    op_type: "Reshape"
  }
  node {
    input: "model.3.conv.bias"
    input: "/model.3/conv/Conv_output_0_bias_reshape_shape"
    output: "/model.3/conv/Conv_output_0_bias_reshape_output"
    op_type: "Reshape"
  }
  node {
    input: "model.4.cv1.conv.bias"
    input: "/model.4/cv1/conv/Conv_output_0_bias_reshape_shape"
    output: "/model.4/cv1/conv/Conv_output_0_bias_reshape_output"
    op_type: "Reshape"
  }
  node {
    input: "model.4.cv2.conv.bias"
    input: "/model.4/cv2/conv/Conv_output_0_bias_reshape_shape"
    output: "/model.4/cv2/conv/Conv_output_0_bias_reshape_output"
    op_type: "Reshape"
  }
  node {
    input: "model.4.m.0.cv1.conv.bias"
    input: "/model.4/m.0/cv1/conv/Conv_output_0_bias_reshape_shape"
    output: "/model.4/m.0/cv1/conv/Conv_output_0_bias_reshape_output"
    op_type: "Reshape"
  }
  node {
    input: "model.4.m.0.cv2.conv.bias"
    input: "/model.4/m.0/cv2/conv/Conv_output_0_bias_reshape_shape"
    output: "/model.4/m.0/cv2/conv/Conv_output_0_bias_reshape_output"
    op_type: "Reshape"
  }
  node {
    input: "model.4.m.1.cv1.conv.bias"
    input: "/model.4/m.1/cv1/conv/Conv_output_0_bias_reshape_shape"
    output: "/model.4/m.1/cv1/conv/Conv_output_0_bias_reshape_output"
    op_type: "Reshape"
  }
  node {
    input: "model.4.m.1.cv2.conv.bias"
    input: "/model.4/m.1/cv2/conv/Conv_output_0_bias_reshape_shape"
    output: "/model.4/m.1/cv2/conv/Conv_output_0_bias_reshape_output"
    op_type: "Reshape"
  }
  node {
    input: "model.5.conv.bias"
    input: "/model.5/conv/Conv_output_0_bias_reshape_shape"
    output: "/model.5/conv/Conv_output_0_bias_reshape_output"
    op_type: "Reshape"
  }
  node {
    input: "model.6.cv1.conv.bias"
    input: "/model.6/cv1/conv/Conv_output_0_bias_reshape_shape"
    output: "/model.6/cv1/conv/Conv_output_0_bias_reshape_output"
    op_type: "Reshape"
  }
  node {
    input: "model.6.cv2.conv.bias"
    input: "/model.6/cv2/conv/Conv_output_0_bias_reshape_shape"
    output: "/model.6/cv2/conv/Conv_output_0_bias_reshape_output"
    op_type: "Reshape"
  }
  node {
    input: "model.6.m.0.cv1.conv.bias"
    input: "/model.6/m.0/cv1/conv/Conv_output_0_bias_reshape_shape"
    output: "/model.6/m.0/cv1/conv/Conv_output_0_bias_reshape_output"
    op_type: "Reshape"
  }
  node {
    input: "model.6.m.0.cv2.conv.bias"
    input: "/model.6/m.0/cv2/conv/Conv_output_0_bias_reshape_shape"
    output: "/model.6/m.0/cv2/conv/Conv_output_0_bias_reshape_output"
    op_type: "Reshape"
  }
  node {
    input: "model.6.m.1.cv1.conv.bias"
    input: "/model.6/m.1/cv1/conv/Conv_output_0_bias_reshape_shape"
    output: "/model.6/m.1/cv1/conv/Conv_output_0_bias_reshape_output"
    op_type: "Reshape"
  }
  node {
    input: "model.6.m.1.cv2.conv.bias"
    input: "/model.6/m.1/cv2/conv/Conv_output_0_bias_reshape_shape"
    output: "/model.6/m.1/cv2/conv/Conv_output_0_bias_reshape_output"
    op_type: "Reshape"
  }
  node {
    input: "model.7.conv.bias"
    input: "/model.7/conv/Conv_output_0_bias_reshape_shape"
    output: "/model.7/conv/Conv_output_0_bias_reshape_output"
    op_type: "Reshape"
  }
  node {
    input: "model.8.cv1.conv.bias"
    input: "/model.8/cv1/conv/Conv_output_0_bias_reshape_shape"
    output: "/model.8/cv1/conv/Conv_output_0_bias_reshape_output"
    op_type: "Reshape"
  }
  node {
    input: "model.8.cv2.conv.bias"
    input: "/model.8/cv2/conv/Conv_output_0_bias_reshape_shape"
    output: "/model.8/cv2/conv/Conv_output_0_bias_reshape_output"
    op_type: "Reshape"
  }
  node {
    input: "model.8.m.0.cv1.conv.bias"
    input: "/model.8/m.0/cv1/conv/Conv_output_0_bias_reshape_shape"
    output: "/model.8/m.0/cv1/conv/Conv_output_0_bias_reshape_output"
    op_type: "Reshape"
  }
  node {
    input: "model.8.m.0.cv2.conv.bias"
    input: "/model.8/m.0/cv2/conv/Conv_output_0_bias_reshape_shape"
    output: "/model.8/m.0/cv2/conv/Conv_output_0_bias_reshape_output"
    op_type: "Reshape"
  }
  node {
    input: "model.9.cv1.conv.bias"
    input: "/model.9/cv1/conv/Conv_output_0_bias_reshape_shape"
    output: "/model.9/cv1/conv/Conv_output_0_bias_reshape_output"
    op_type: "Reshape"
  }
  node {
    input: "model.9.cv2.conv.bias"
    input: "/model.9/cv2/conv/Conv_output_0_bias_reshape_shape"
    output: "/model.9/cv2/conv/Conv_output_0_bias_reshape_output"
    op_type: "Reshape"
  }
  node {
    input: "images_scale"
    input: "model.0.conv.weight_scale"
    output: "/model.0/conv/Conv_quant_scales_mul:0"
    name: "/model.0/conv/Conv_quant_scales_mul"
    op_type: "Mul"
  }
  node {
    input: "images_quantized"
    input: "model.0.conv.weight_quantized"
    input: "images_zero_point"
    input: "model.0.conv.weight_zero_point"
    output: "/model.0/conv/Conv_output_0_output_quantized"
    name: "/model.0/conv/Conv_quant"
    op_type: "Conv"
    attribute {
      name: "dilations"
      ints: 1
      ints: 1
      type: INTS
    }
    attribute {
      name: "group"
      i: 1
      type: INT
    }
    attribute {
      name: "kernel_shape"
      ints: 3
      ints: 3
      type: INTS
    }
    attribute {
      name: "pads"
      ints: 1
      ints: 1
      ints: 1
      ints: 1
      type: INTS
    }
    attribute {
      name: "strides"
      ints: 2
      ints: 2
      type: INTS
    }
  }
  node {
    input: "/model.0/conv/Conv_output_0_output_quantized"
    output: "/model.0/conv/Conv_output_0_output_quantized_cast_output"
    name: "/model.0/conv/Conv_output_0_output_quantized_cast"
    op_type: "Cast"
    attribute {
      name: "to"
      i: 1
      type: INT
    }
  }
  node {
    input: "/model.0/conv/Conv_output_0_output_quantized_cast_output"
    input: "/model.0/conv/Conv_quant_scales_mul:0"
    output: "/model.0/conv/Conv_output_0quant_scaled_output"
    name: "/model.0/conv/Conv_quant_output_scale_mul"
    op_type: "Mul"
  }
  node {
    input: "/model.0/conv/Conv_output_0quant_scaled_output"
    input: "/model.0/conv/Conv_output_0_bias_reshape_output"
    output: "/model.0/conv/Conv_output_0"
    name: "/model.0/conv/Conv_output_0_bias_add"
    op_type: "Add"
  }
  node {
    input: "/model.0/conv/Conv_output_0"
    output: "/model.0/act/Sigmoid_output_0"
    name: "/model.0/act/Sigmoid"
    op_type: "Sigmoid"
  }
  node {
    input: "/model.0/conv/Conv_output_0"
    input: "/model.0/act/Sigmoid_output_0"
    output: "/model.0/act/Mul_output_0"
    name: "/model.0/act/Mul"
    op_type: "Mul"
  }
  node {
    input: "/model.0/act/Mul_output_0"
    output: "/model.0/act/Mul_output_0_quantized"
    output: "/model.0/act/Mul_output_0_scale"
    output: "/model.0/act/Mul_output_0_zero_point"
    name: "/model.0/act/Mul_output_0_QuantizeLinear"
    op_type: "DynamicQuantizeLinear"
  }
  node {
    input: "/model.0/act/Mul_output_0_scale"
    input: "model.1.conv.weight_scale"
    output: "/model.1/conv/Conv_quant_scales_mul:0"
    name: "/model.1/conv/Conv_quant_scales_mul"
    op_type: "Mul"
  }
  node {
    input: "/model.0/act/Mul_output_0_quantized"
    input: "model.1.conv.weight_quantized"
    input: "/model.0/act/Mul_output_0_zero_point"
    input: "model.1.conv.weight_zero_point"
    output: "/model.1/conv/Conv_output_0_output_quantized"
    name: "/model.1/conv/Conv_quant"
    op_type: "Conv"
    attribute {
      name: "dilations"
      ints: 1
      ints: 1
      type: INTS
    }
    attribute {
      name: "group"
      i: 1
      type: INT
    }
    attribute {
      name: "kernel_shape"
      ints: 3
      ints: 3
      type: INTS
    }
    attribute {
      name: "pads"
      ints: 1
      ints: 1
      ints: 1
      ints: 1
      type: INTS
    }
    attribute {
      name: "strides"
      ints: 2
      ints: 2
      type: INTS
    }
  }
  node {
    input: "/model.1/conv/Conv_output_0_output_quantized"
    output: "/model.1/conv/Conv_output_0_output_quantized_cast_output"
    name: "/model.1/conv/Conv_output_0_output_quantized_cast"
    op_type: "Cast"
    attribute {
      name: "to"
      i: 1
      type: INT
    }
  }
  node {
    input: "/model.1/conv/Conv_output_0_output_quantized_cast_output"
    input: "/model.1/conv/Conv_quant_scales_mul:0"
    output: "/model.1/conv/Conv_output_0quant_scaled_output"
    name: "/model.1/conv/Conv_quant_output_scale_mul"
    op_type: "Mul"
  }
  node {
    input: "/model.1/conv/Conv_output_0quant_scaled_output"
    input: "/model.1/conv/Conv_output_0_bias_reshape_output"
    output: "/model.1/conv/Conv_output_0"
    name: "/model.1/conv/Conv_output_0_bias_add"
    op_type: "Add"
  }
  node {
    input: "/model.1/conv/Conv_output_0"
    output: "/model.1/act/Sigmoid_output_0"
    name: "/model.1/act/Sigmoid"
    op_type: "Sigmoid"
  }
  node {
    input: "/model.1/conv/Conv_output_0"
    input: "/model.1/act/Sigmoid_output_0"
    output: "/model.1/act/Mul_output_0"
    name: "/model.1/act/Mul"
    op_type: "Mul"
  }
  node {
    input: "/model.1/act/Mul_output_0"
    output: "/model.1/act/Mul_output_0_quantized"
    output: "/model.1/act/Mul_output_0_scale"
    output: "/model.1/act/Mul_output_0_zero_point"
    name: "/model.1/act/Mul_output_0_QuantizeLinear"
    op_type: "DynamicQuantizeLinear"
  }
  node {
    input: "/model.1/act/Mul_output_0_scale"
    input: "model.2.cv1.conv.weight_scale"
    output: "/model.2/cv1/conv/Conv_quant_scales_mul:0"
    name: "/model.2/cv1/conv/Conv_quant_scales_mul"
    op_type: "Mul"
  }
  node {
    input: "/model.1/act/Mul_output_0_quantized"
    input: "model.2.cv1.conv.weight_quantized"
    input: "/model.1/act/Mul_output_0_zero_point"
    input: "model.2.cv1.conv.weight_zero_point"
    output: "/model.2/cv1/conv/Conv_output_0_output_quantized"
    name: "/model.2/cv1/conv/Conv_quant"
    op_type: "Conv"
    attribute {
      name: "dilations"
      ints: 1
      ints: 1
      type: INTS
    }
    attribute {
      name: "group"
      i: 1
      type: INT
    }
    attribute {
      name: "kernel_shape"
      ints: 1
      ints: 1
      type: INTS
    }
    attribute {
      name: "pads"
      ints: 0
      ints: 0
      ints: 0
      ints: 0
      type: INTS
    }
    attribute {
      name: "strides"
      ints: 1
      ints: 1
      type: INTS
    }
  }
  node {
    input: "/model.2/cv1/conv/Conv_output_0_output_quantized"
    output: "/model.2/cv1/conv/Conv_output_0_output_quantized_cast_output"
    name: "/model.2/cv1/conv/Conv_output_0_output_quantized_cast"
    op_type: "Cast"
    attribute {
      name: "to"
      i: 1
      type: INT
    }
  }
  node {
    input: "/model.2/cv1/conv/Conv_output_0_output_quantized_cast_output"
    input: "/model.2/cv1/conv/Conv_quant_scales_mul:0"
    output: "/model.2/cv1/conv/Conv_output_0quant_scaled_output"
    name: "/model.2/cv1/conv/Conv_quant_output_scale_mul"
    op_type: "Mul"
  }
  node {
    input: "/model.2/cv1/conv/Conv_output_0quant_scaled_output"
    input: "/model.2/cv1/conv/Conv_output_0_bias_reshape_output"
    output: "/model.2/cv1/conv/Conv_output_0"
    name: "/model.2/cv1/conv/Conv_output_0_bias_add"
    op_type: "Add"
  }
  node {
    input: "/model.2/cv1/conv/Conv_output_0"
    output: "/model.2/cv1/act/Sigmoid_output_0"
    name: "/model.2/cv1/act/Sigmoid"
    op_type: "Sigmoid"
  }
  node {
    input: "/model.2/cv1/conv/Conv_output_0"
    input: "/model.2/cv1/act/Sigmoid_output_0"
    output: "/model.2/cv1/act/Mul_output_0"
    name: "/model.2/cv1/act/Mul"
    op_type: "Mul"
  }
  node {
    input: "/model.2/cv1/act/Mul_output_0"
    input: "onnx::Split_137"
    output: "/model.2/Split_output_0"
    output: "/model.2/Split_output_1"
    name: "/model.2/Split"
    op_type: "Split"
    attribute {
      name: "axis"
      i: 1
      type: INT
    }
  }
  node {
    input: "/model.2/Split_output_1"
    output: "/model.2/Split_output_1_quantized"
    output: "/model.2/Split_output_1_scale"
    output: "/model.2/Split_output_1_zero_point"
    name: "/model.2/Split_output_1_QuantizeLinear"
    op_type: "DynamicQuantizeLinear"
  }
  node {
    input: "/model.2/Split_output_1_scale"
    input: "model.2.m.0.cv1.conv.weight_scale"
    output: "/model.2/m.0/cv1/conv/Conv_quant_scales_mul:0"
    name: "/model.2/m.0/cv1/conv/Conv_quant_scales_mul"
    op_type: "Mul"
  }
  node {
    input: "/model.2/Split_output_1_quantized"
    input: "model.2.m.0.cv1.conv.weight_quantized"
    input: "/model.2/Split_output_1_zero_point"
    input: "model.2.m.0.cv1.conv.weight_zero_point"
    output: "/model.2/m.0/cv1/conv/Conv_output_0_output_quantized"
    name: "/model.2/m.0/cv1/conv/Conv_quant"
    op_type: "Conv"
    attribute {
      name: "dilations"
      ints: 1
      ints: 1
      type: INTS
    }
    attribute {
      name: "group"
      i: 1
      type: INT
    }
    attribute {
      name: "kernel_shape"
      ints: 3
      ints: 3
      type: INTS
    }
    attribute {
      name: "pads"
      ints: 1
      ints: 1
      ints: 1
      ints: 1
      type: INTS
    }
    attribute {
      name: "strides"
      ints: 1
      ints: 1
      type: INTS
    }
  }
  node {
    input: "/model.2/m.0/cv1/conv/Conv_output_0_output_quantized"
    output: "/model.2/m.0/cv1/conv/Conv_output_0_output_quantized_cast_output"
    name: "/model.2/m.0/cv1/conv/Conv_output_0_output_quantized_cast"
    op_type: "Cast"
    attribute {
      name: "to"
      i: 1
      type: INT
    }
  }
  node {
    input: "/model.2/m.0/cv1/conv/Conv_output_0_output_quantized_cast_output"
    input: "/model.2/m.0/cv1/conv/Conv_quant_scales_mul:0"
    output: "/model.2/m.0/cv1/conv/Conv_output_0quant_scaled_output"
    name: "/model.2/m.0/cv1/conv/Conv_quant_output_scale_mul"
    op_type: "Mul"
  }
  node {
    input: "/model.2/m.0/cv1/conv/Conv_output_0quant_scaled_output"
    input: "/model.2/m.0/cv1/conv/Conv_output_0_bias_reshape_output"
    output: "/model.2/m.0/cv1/conv/Conv_output_0"
    name: "/model.2/m.0/cv1/conv/Conv_output_0_bias_add"
    op_type: "Add"
  }
  node {
    input: "/model.2/m.0/cv1/conv/Conv_output_0"
    output: "/model.2/m.0/cv1/act/Sigmoid_output_0"
    name: "/model.2/m.0/cv1/act/Sigmoid"
    op_type: "Sigmoid"
  }
  node {
    input: "/model.2/m.0/cv1/conv/Conv_output_0"
    input: "/model.2/m.0/cv1/act/Sigmoid_output_0"
    output: "/model.2/m.0/cv1/act/Mul_output_0"
    name: "/model.2/m.0/cv1/act/Mul"
    op_type: "Mul"
  }
  node {
    input: "/model.2/m.0/cv1/act/Mul_output_0"
    output: "/model.2/m.0/cv1/act/Mul_output_0_quantized"
    output: "/model.2/m.0/cv1/act/Mul_output_0_scale"
    output: "/model.2/m.0/cv1/act/Mul_output_0_zero_point"
    name: "/model.2/m.0/cv1/act/Mul_output_0_QuantizeLinear"
    op_type: "DynamicQuantizeLinear"
  }
  node {
    input: "/model.2/m.0/cv1/act/Mul_output_0_scale"
    input: "model.2.m.0.cv2.conv.weight_scale"
    output: "/model.2/m.0/cv2/conv/Conv_quant_scales_mul:0"
    name: "/model.2/m.0/cv2/conv/Conv_quant_scales_mul"
    op_type: "Mul"
  }
  node {
    input: "/model.2/m.0/cv1/act/Mul_output_0_quantized"
    input: "model.2.m.0.cv2.conv.weight_quantized"
    input: "/model.2/m.0/cv1/act/Mul_output_0_zero_point"
    input: "model.2.m.0.cv2.conv.weight_zero_point"
    output: "/model.2/m.0/cv2/conv/Conv_output_0_output_quantized"
    name: "/model.2/m.0/cv2/conv/Conv_quant"
    op_type: "Conv"
    attribute {
      name: "dilations"
      ints: 1
      ints: 1
      type: INTS
    }
    attribute {
      name: "group"
      i: 1
      type: INT
    }
    attribute {
      name: "kernel_shape"
      ints: 3
      ints: 3
      type: INTS
    }
    attribute {
      name: "pads"
      ints: 1
      ints: 1
      ints: 1
      ints: 1
      type: INTS
    }
    attribute {
      name: "strides"
      ints: 1
      ints: 1
      type: INTS
    }
  }
  node {
    input: "/model.2/m.0/cv2/conv/Conv_output_0_output_quantized"
    output: "/model.2/m.0/cv2/conv/Conv_output_0_output_quantized_cast_output"
    name: "/model.2/m.0/cv2/conv/Conv_output_0_output_quantized_cast"
    op_type: "Cast"
    attribute {
      name: "to"
      i: 1
      type: INT
    }
  }
  node {
    input: "/model.2/m.0/cv2/conv/Conv_output_0_output_quantized_cast_output"
    input: "/model.2/m.0/cv2/conv/Conv_quant_scales_mul:0"
    output: "/model.2/m.0/cv2/conv/Conv_output_0quant_scaled_output"
    name: "/model.2/m.0/cv2/conv/Conv_quant_output_scale_mul"
    op_type: "Mul"
  }
  node {
    input: "/model.2/m.0/cv2/conv/Conv_output_0quant_scaled_output"
    input: "/model.2/m.0/cv2/conv/Conv_output_0_bias_reshape_output"
    output: "/model.2/m.0/cv2/conv/Conv_output_0"
    name: "/model.2/m.0/cv2/conv/Conv_output_0_bias_add"
    op_type: "Add"
  }
  node {
    input: "/model.2/m.0/cv2/conv/Conv_output_0"
    output: "/model.2/m.0/cv2/act/Sigmoid_output_0"
    name: "/model.2/m.0/cv2/act/Sigmoid"
    op_type: "Sigmoid"
  }
  node {
    input: "/model.2/m.0/cv2/conv/Conv_output_0"
    input: "/model.2/m.0/cv2/act/Sigmoid_output_0"
    output: "/model.2/m.0/cv2/act/Mul_output_0"
    name: "/model.2/m.0/cv2/act/Mul"
    op_type: "Mul"
  }
  node {
    input: "/model.2/Split_output_1"
    input: "/model.2/m.0/cv2/act/Mul_output_0"
    output: "/model.2/m.0/Add_output_0"
    name: "/model.2/m.0/Add"
    op_type: "Add"
  }
  node {
    input: "/model.2/Split_output_0"
    input: "/model.2/Split_output_1"
    input: "/model.2/m.0/Add_output_0"
    output: "/model.2/Concat_output_0"
    name: "/model.2/Concat"
    op_type: "Concat"
    attribute {
      name: "axis"
      i: 1
      type: INT
    }
  }
  node {
    input: "/model.2/Concat_output_0"
    output: "/model.2/Concat_output_0_quantized"
    output: "/model.2/Concat_output_0_scale"
    output: "/model.2/Concat_output_0_zero_point"
    name: "/model.2/Concat_output_0_QuantizeLinear"
    op_type: "DynamicQuantizeLinear"
  }
  node {
    input: "/model.2/Concat_output_0_scale"
    input: "model.2.cv2.conv.weight_scale"
    output: "/model.2/cv2/conv/Conv_quant_scales_mul:0"
    name: "/model.2/cv2/conv/Conv_quant_scales_mul"
    op_type: "Mul"
  }
  node {
    input: "/model.2/Concat_output_0_quantized"
    input: "model.2.cv2.conv.weight_quantized"
    input: "/model.2/Concat_output_0_zero_point"
    input: "model.2.cv2.conv.weight_zero_point"
    output: "/model.2/cv2/conv/Conv_output_0_output_quantized"
    name: "/model.2/cv2/conv/Conv_quant"
    op_type: "Conv"
    attribute {
      name: "dilations"
      ints: 1
      ints: 1
      type: INTS
    }
    attribute {
      name: "group"
      i: 1
      type: INT
    }
    attribute {
      name: "kernel_shape"
      ints: 1
      ints: 1
      type: INTS
    }
    attribute {
      name: "pads"
      ints: 0
      ints: 0
      ints: 0
      ints: 0
      type: INTS
    }
    attribute {
      name: "strides"
      ints: 1
      ints: 1
      type: INTS
    }
  }
  node {
    input: "/model.2/cv2/conv/Conv_output_0_output_quantized"
    output: "/model.2/cv2/conv/Conv_output_0_output_quantized_cast_output"
    name: "/model.2/cv2/conv/Conv_output_0_output_quantized_cast"
    op_type: "Cast"
    attribute {
      name: "to"
      i: 1
      type: INT
    }
  }
  node {
    input: "/model.2/cv2/conv/Conv_output_0_output_quantized_cast_output"
    input: "/model.2/cv2/conv/Conv_quant_scales_mul:0"
    output: "/model.2/cv2/conv/Conv_output_0quant_scaled_output"
    name: "/model.2/cv2/conv/Conv_quant_output_scale_mul"
    op_type: "Mul"
  }
  node {
    input: "/model.2/cv2/conv/Conv_output_0quant_scaled_output"
    input: "/model.2/cv2/conv/Conv_output_0_bias_reshape_output"
    output: "/model.2/cv2/conv/Conv_output_0"
    name: "/model.2/cv2/conv/Conv_output_0_bias_add"
    op_type: "Add"
  }
  node {
    input: "/model.2/cv2/conv/Conv_output_0"
    output: "/model.2/cv2/act/Sigmoid_output_0"
    name: "/model.2/cv2/act/Sigmoid"
    op_type: "Sigmoid"
  }
  node {
    input: "/model.2/cv2/conv/Conv_output_0"
    input: "/model.2/cv2/act/Sigmoid_output_0"
    output: "/model.2/cv2/act/Mul_output_0"
    name: "/model.2/cv2/act/Mul"
    op_type: "Mul"
  }
  node {
    input: "/model.2/cv2/act/Mul_output_0"
    output: "/model.2/cv2/act/Mul_output_0_quantized"
    output: "/model.2/cv2/act/Mul_output_0_scale"
    output: "/model.2/cv2/act/Mul_output_0_zero_point"
    name: "/model.2/cv2/act/Mul_output_0_QuantizeLinear"
    op_type: "DynamicQuantizeLinear"
  }
  node {
    input: "/model.2/cv2/act/Mul_output_0_scale"
    input: "model.3.conv.weight_scale"
    output: "/model.3/conv/Conv_quant_scales_mul:0"
    name: "/model.3/conv/Conv_quant_scales_mul"
    op_type: "Mul"
  }
  node {
    input: "/model.2/cv2/act/Mul_output_0_quantized"
    input: "model.3.conv.weight_quantized"
    input: "/model.2/cv2/act/Mul_output_0_zero_point"
    input: "model.3.conv.weight_zero_point"
    output: "/model.3/conv/Conv_output_0_output_quantized"
    name: "/model.3/conv/Conv_quant"
    op_type: "Conv"
    attribute {
      name: "dilations"
      ints: 1
      ints: 1
      type: INTS
    }
    attribute {
      name: "group"
      i: 1
      type: INT
    }
    attribute {
      name: "kernel_shape"
      ints: 3
      ints: 3
      type: INTS
    }
    attribute {
      name: "pads"
      ints: 1
      ints: 1
      ints: 1
      ints: 1
      type: INTS
    }
    attribute {
      name: "strides"
      ints: 2
      ints: 2
      type: INTS
    }
  }
  node {
    input: "/model.3/conv/Conv_output_0_output_quantized"
    output: "/model.3/conv/Conv_output_0_output_quantized_cast_output"
    name: "/model.3/conv/Conv_output_0_output_quantized_cast"
    op_type: "Cast"
    attribute {
      name: "to"
      i: 1
      type: INT
    }
  }
  node {
    input: "/model.3/conv/Conv_output_0_output_quantized_cast_output"
    input: "/model.3/conv/Conv_quant_scales_mul:0"
    output: "/model.3/conv/Conv_output_0quant_scaled_output"
    name: "/model.3/conv/Conv_quant_output_scale_mul"
    op_type: "Mul"
  }
  node {
    input: "/model.3/conv/Conv_output_0quant_scaled_output"
    input: "/model.3/conv/Conv_output_0_bias_reshape_output"
    output: "/model.3/conv/Conv_output_0"
    name: "/model.3/conv/Conv_output_0_bias_add"
    op_type: "Add"
  }
  node {
    input: "/model.3/conv/Conv_output_0"
    output: "/model.3/act/Sigmoid_output_0"
    name: "/model.3/act/Sigmoid"
    op_type: "Sigmoid"
  }
  node {
    input: "/model.3/conv/Conv_output_0"
    input: "/model.3/act/Sigmoid_output_0"
    output: "/model.3/act/Mul_output_0"
    name: "/model.3/act/Mul"
    op_type: "Mul"
  }
  node {
    input: "/model.3/act/Mul_output_0"
    output: "/model.3/act/Mul_output_0_quantized"
    output: "/model.3/act/Mul_output_0_scale"
    output: "/model.3/act/Mul_output_0_zero_point"
    name: "/model.3/act/Mul_output_0_QuantizeLinear"
    op_type: "DynamicQuantizeLinear"
  }
  node {
    input: "/model.3/act/Mul_output_0_scale"
    input: "model.4.cv1.conv.weight_scale"
    output: "/model.4/cv1/conv/Conv_quant_scales_mul:0"
    name: "/model.4/cv1/conv/Conv_quant_scales_mul"
    op_type: "Mul"
  }
  node {
    input: "/model.3/act/Mul_output_0_quantized"
    input: "model.4.cv1.conv.weight_quantized"
    input: "/model.3/act/Mul_output_0_zero_point"
    input: "model.4.cv1.conv.weight_zero_point"
    output: "/model.4/cv1/conv/Conv_output_0_output_quantized"
    name: "/model.4/cv1/conv/Conv_quant"
    op_type: "Conv"
    attribute {
      name: "dilations"
      ints: 1
      ints: 1
      type: INTS
    }
    attribute {
      name: "group"
      i: 1
      type: INT
    }
    attribute {
      name: "kernel_shape"
      ints: 1
      ints: 1
      type: INTS
    }
    attribute {
      name: "pads"
      ints: 0
      ints: 0
      ints: 0
      ints: 0
      type: INTS
    }
    attribute {
      name: "strides"
      ints: 1
      ints: 1
      type: INTS
    }
  }
  node {
    input: "/model.4/cv1/conv/Conv_output_0_output_quantized"
    output: "/model.4/cv1/conv/Conv_output_0_output_quantized_cast_output"
    name: "/model.4/cv1/conv/Conv_output_0_output_quantized_cast"
    op_type: "Cast"
    attribute {
      name: "to"
      i: 1
      type: INT
    }
  }
  node {
    input: "/model.4/cv1/conv/Conv_output_0_output_quantized_cast_output"
    input: "/model.4/cv1/conv/Conv_quant_scales_mul:0"
    output: "/model.4/cv1/conv/Conv_output_0quant_scaled_output"
    name: "/model.4/cv1/conv/Conv_quant_output_scale_mul"
    op_type: "Mul"
  }
  node {
    input: "/model.4/cv1/conv/Conv_output_0quant_scaled_output"
    input: "/model.4/cv1/conv/Conv_output_0_bias_reshape_output"
    output: "/model.4/cv1/conv/Conv_output_0"
    name: "/model.4/cv1/conv/Conv_output_0_bias_add"
    op_type: "Add"
  }
  node {
    input: "/model.4/cv1/conv/Conv_output_0"
    output: "/model.4/cv1/act/Sigmoid_output_0"
    name: "/model.4/cv1/act/Sigmoid"
    op_type: "Sigmoid"
  }
  node {
    input: "/model.4/cv1/conv/Conv_output_0"
    input: "/model.4/cv1/act/Sigmoid_output_0"
    output: "/model.4/cv1/act/Mul_output_0"
    name: "/model.4/cv1/act/Mul"
    op_type: "Mul"
  }
  node {
    input: "/model.4/cv1/act/Mul_output_0"
    input: "onnx::Split_157"
    output: "/model.4/Split_output_0"
    output: "/model.4/Split_output_1"
    name: "/model.4/Split"
    op_type: "Split"
    attribute {
      name: "axis"
      i: 1
      type: INT
    }
  }
  node {
    input: "/model.4/Split_output_1"
    output: "/model.4/Split_output_1_quantized"
    output: "/model.4/Split_output_1_scale"
    output: "/model.4/Split_output_1_zero_point"
    name: "/model.4/Split_output_1_QuantizeLinear"
    op_type: "DynamicQuantizeLinear"
  }
  node {
    input: "/model.4/Split_output_1_scale"
    input: "model.4.m.0.cv1.conv.weight_scale"
    output: "/model.4/m.0/cv1/conv/Conv_quant_scales_mul:0"
    name: "/model.4/m.0/cv1/conv/Conv_quant_scales_mul"
    op_type: "Mul"
  }
  node {
    input: "/model.4/Split_output_1_quantized"
    input: "model.4.m.0.cv1.conv.weight_quantized"
    input: "/model.4/Split_output_1_zero_point"
    input: "model.4.m.0.cv1.conv.weight_zero_point"
    output: "/model.4/m.0/cv1/conv/Conv_output_0_output_quantized"
    name: "/model.4/m.0/cv1/conv/Conv_quant"
    op_type: "Conv"
    attribute {
      name: "dilations"
      ints: 1
      ints: 1
      type: INTS
    }
    attribute {
      name: "group"
      i: 1
      type: INT
    }
    attribute {
      name: "kernel_shape"
      ints: 3
      ints: 3
      type: INTS
    }
    attribute {
      name: "pads"
      ints: 1
      ints: 1
      ints: 1
      ints: 1
      type: INTS
    }
    attribute {
      name: "strides"
      ints: 1
      ints: 1
      type: INTS
    }
  }
  node {
    input: "/model.4/m.0/cv1/conv/Conv_output_0_output_quantized"
    output: "/model.4/m.0/cv1/conv/Conv_output_0_output_quantized_cast_output"
    name: "/model.4/m.0/cv1/conv/Conv_output_0_output_quantized_cast"
    op_type: "Cast"
    attribute {
      name: "to"
      i: 1
      type: INT
    }
  }
  node {
    input: "/model.4/m.0/cv1/conv/Conv_output_0_output_quantized_cast_output"
    input: "/model.4/m.0/cv1/conv/Conv_quant_scales_mul:0"
    output: "/model.4/m.0/cv1/conv/Conv_output_0quant_scaled_output"
    name: "/model.4/m.0/cv1/conv/Conv_quant_output_scale_mul"
    op_type: "Mul"
  }
  node {
    input: "/model.4/m.0/cv1/conv/Conv_output_0quant_scaled_output"
    input: "/model.4/m.0/cv1/conv/Conv_output_0_bias_reshape_output"
    output: "/model.4/m.0/cv1/conv/Conv_output_0"
    name: "/model.4/m.0/cv1/conv/Conv_output_0_bias_add"
    op_type: "Add"
  }
  node {
    input: "/model.4/m.0/cv1/conv/Conv_output_0"
    output: "/model.4/m.0/cv1/act/Sigmoid_output_0"
    name: "/model.4/m.0/cv1/act/Sigmoid"
    op_type: "Sigmoid"
  }
  node {
    input: "/model.4/m.0/cv1/conv/Conv_output_0"
    input: "/model.4/m.0/cv1/act/Sigmoid_output_0"
    output: "/model.4/m.0/cv1/act/Mul_output_0"
    name: "/model.4/m.0/cv1/act/Mul"
    op_type: "Mul"
  }
  node {
    input: "/model.4/m.0/cv1/act/Mul_output_0"
    output: "/model.4/m.0/cv1/act/Mul_output_0_quantized"
    output: "/model.4/m.0/cv1/act/Mul_output_0_scale"
    output: "/model.4/m.0/cv1/act/Mul_output_0_zero_point"
    name: "/model.4/m.0/cv1/act/Mul_output_0_QuantizeLinear"
    op_type: "DynamicQuantizeLinear"
  }
  node {
    input: "/model.4/m.0/cv1/act/Mul_output_0_scale"
    input: "model.4.m.0.cv2.conv.weight_scale"
    output: "/model.4/m.0/cv2/conv/Conv_quant_scales_mul:0"
    name: "/model.4/m.0/cv2/conv/Conv_quant_scales_mul"
    op_type: "Mul"
  }
  node {
    input: "/model.4/m.0/cv1/act/Mul_output_0_quantized"
    input: "model.4.m.0.cv2.conv.weight_quantized"
    input: "/model.4/m.0/cv1/act/Mul_output_0_zero_point"
    input: "model.4.m.0.cv2.conv.weight_zero_point"
    output: "/model.4/m.0/cv2/conv/Conv_output_0_output_quantized"
    name: "/model.4/m.0/cv2/conv/Conv_quant"
    op_type: "Conv"
    attribute {
      name: "dilations"
      ints: 1
      ints: 1
      type: INTS
    }
    attribute {
      name: "group"
      i: 1
      type: INT
    }
    attribute {
      name: "kernel_shape"
      ints: 3
      ints: 3
      type: INTS
    }
    attribute {
      name: "pads"
      ints: 1
      ints: 1
      ints: 1
      ints: 1
      type: INTS
    }
    attribute {
      name: "strides"
      ints: 1
      ints: 1
      type: INTS
    }
  }
  node {
    input: "/model.4/m.0/cv2/conv/Conv_output_0_output_quantized"
    output: "/model.4/m.0/cv2/conv/Conv_output_0_output_quantized_cast_output"
    name: "/model.4/m.0/cv2/conv/Conv_output_0_output_quantized_cast"
    op_type: "Cast"
    attribute {
      name: "to"
      i: 1
      type: INT
    }
  }
  node {
    input: "/model.4/m.0/cv2/conv/Conv_output_0_output_quantized_cast_output"
    input: "/model.4/m.0/cv2/conv/Conv_quant_scales_mul:0"
    output: "/model.4/m.0/cv2/conv/Conv_output_0quant_scaled_output"
    name: "/model.4/m.0/cv2/conv/Conv_quant_output_scale_mul"
    op_type: "Mul"
  }
  node {
    input: "/model.4/m.0/cv2/conv/Conv_output_0quant_scaled_output"
    input: "/model.4/m.0/cv2/conv/Conv_output_0_bias_reshape_output"
    output: "/model.4/m.0/cv2/conv/Conv_output_0"
    name: "/model.4/m.0/cv2/conv/Conv_output_0_bias_add"
    op_type: "Add"
  }
  node {
    input: "/model.4/m.0/cv2/conv/Conv_output_0"
    output: "/model.4/m.0/cv2/act/Sigmoid_output_0"
    name: "/model.4/m.0/cv2/act/Sigmoid"
    op_type: "Sigmoid"
  }
  node {
    input: "/model.4/m.0/cv2/conv/Conv_output_0"
    input: "/model.4/m.0/cv2/act/Sigmoid_output_0"
    output: "/model.4/m.0/cv2/act/Mul_output_0"
    name: "/model.4/m.0/cv2/act/Mul"
    op_type: "Mul"
  }
  node {
    input: "/model.4/Split_output_1"
    input: "/model.4/m.0/cv2/act/Mul_output_0"
    output: "/model.4/m.0/Add_output_0"
    name: "/model.4/m.0/Add"
    op_type: "Add"
  }
  node {
    input: "/model.4/m.0/Add_output_0"
    output: "/model.4/m.0/Add_output_0_quantized"
    output: "/model.4/m.0/Add_output_0_scale"
    output: "/model.4/m.0/Add_output_0_zero_point"
    name: "/model.4/m.0/Add_output_0_QuantizeLinear"
    op_type: "DynamicQuantizeLinear"
  }
  node {
    input: "/model.4/m.0/Add_output_0_scale"
    input: "model.4.m.1.cv1.conv.weight_scale"
    output: "/model.4/m.1/cv1/conv/Conv_quant_scales_mul:0"
    name: "/model.4/m.1/cv1/conv/Conv_quant_scales_mul"
    op_type: "Mul"
  }
  node {
    input: "/model.4/m.0/Add_output_0_quantized"
    input: "model.4.m.1.cv1.conv.weight_quantized"
    input: "/model.4/m.0/Add_output_0_zero_point"
    input: "model.4.m.1.cv1.conv.weight_zero_point"
    output: "/model.4/m.1/cv1/conv/Conv_output_0_output_quantized"
    name: "/model.4/m.1/cv1/conv/Conv_quant"
    op_type: "Conv"
    attribute {
      name: "dilations"
      ints: 1
      ints: 1
      type: INTS
    }
    attribute {
      name: "group"
      i: 1
      type: INT
    }
    attribute {
      name: "kernel_shape"
      ints: 3
      ints: 3
      type: INTS
    }
    attribute {
      name: "pads"
      ints: 1
      ints: 1
      ints: 1
      ints: 1
      type: INTS
    }
    attribute {
      name: "strides"
      ints: 1
      ints: 1
      type: INTS
    }
  }
  node {
    input: "/model.4/m.1/cv1/conv/Conv_output_0_output_quantized"
    output: "/model.4/m.1/cv1/conv/Conv_output_0_output_quantized_cast_output"
    name: "/model.4/m.1/cv1/conv/Conv_output_0_output_quantized_cast"
    op_type: "Cast"
    attribute {
      name: "to"
      i: 1
      type: INT
    }
  }
  node {
    input: "/model.4/m.1/cv1/conv/Conv_output_0_output_quantized_cast_output"
    input: "/model.4/m.1/cv1/conv/Conv_quant_scales_mul:0"
    output: "/model.4/m.1/cv1/conv/Conv_output_0quant_scaled_output"
    name: "/model.4/m.1/cv1/conv/Conv_quant_output_scale_mul"
    op_type: "Mul"
  }
  node {
    input: "/model.4/m.1/cv1/conv/Conv_output_0quant_scaled_output"
    input: "/model.4/m.1/cv1/conv/Conv_output_0_bias_reshape_output"
    output: "/model.4/m.1/cv1/conv/Conv_output_0"
    name: "/model.4/m.1/cv1/conv/Conv_output_0_bias_add"
    op_type: "Add"
  }
  node {
    input: "/model.4/m.1/cv1/conv/Conv_output_0"
    output: "/model.4/m.1/cv1/act/Sigmoid_output_0"
    name: "/model.4/m.1/cv1/act/Sigmoid"
    op_type: "Sigmoid"
  }
  node {
    input: "/model.4/m.1/cv1/conv/Conv_output_0"
    input: "/model.4/m.1/cv1/act/Sigmoid_output_0"
    output: "/model.4/m.1/cv1/act/Mul_output_0"
    name: "/model.4/m.1/cv1/act/Mul"
    op_type: "Mul"
  }
  node {
    input: "/model.4/m.1/cv1/act/Mul_output_0"
    output: "/model.4/m.1/cv1/act/Mul_output_0_quantized"
    output: "/model.4/m.1/cv1/act/Mul_output_0_scale"
    output: "/model.4/m.1/cv1/act/Mul_output_0_zero_point"
    name: "/model.4/m.1/cv1/act/Mul_output_0_QuantizeLinear"
    op_type: "DynamicQuantizeLinear"
  }
  node {
    input: "/model.4/m.1/cv1/act/Mul_output_0_scale"
    input: "model.4.m.1.cv2.conv.weight_scale"
    output: "/model.4/m.1/cv2/conv/Conv_quant_scales_mul:0"
    name: "/model.4/m.1/cv2/conv/Conv_quant_scales_mul"
    op_type: "Mul"
  }
  node {
    input: "/model.4/m.1/cv1/act/Mul_output_0_quantized"
    input: "model.4.m.1.cv2.conv.weight_quantized"
    input: "/model.4/m.1/cv1/act/Mul_output_0_zero_point"
    input: "model.4.m.1.cv2.conv.weight_zero_point"
    output: "/model.4/m.1/cv2/conv/Conv_output_0_output_quantized"
    name: "/model.4/m.1/cv2/conv/Conv_quant"
    op_type: "Conv"
    attribute {
      name: "dilations"
      ints: 1
      ints: 1
      type: INTS
    }
    attribute {
      name: "group"
      i: 1
      type: INT
    }
    attribute {
      name: "kernel_shape"
      ints: 3
      ints: 3
      type: INTS
    }
    attribute {
      name: "pads"
      ints: 1
      ints: 1
      ints: 1
      ints: 1
      type: INTS
    }
    attribute {
      name: "strides"
      ints: 1
      ints: 1
      type: INTS
    }
  }
  node {
    input: "/model.4/m.1/cv2/conv/Conv_output_0_output_quantized"
    output: "/model.4/m.1/cv2/conv/Conv_output_0_output_quantized_cast_output"
    name: "/model.4/m.1/cv2/conv/Conv_output_0_output_quantized_cast"
    op_type: "Cast"
    attribute {
      name: "to"
      i: 1
      type: INT
    }
  }
  node {
    input: "/model.4/m.1/cv2/conv/Conv_output_0_output_quantized_cast_output"
    input: "/model.4/m.1/cv2/conv/Conv_quant_scales_mul:0"
    output: "/model.4/m.1/cv2/conv/Conv_output_0quant_scaled_output"
    name: "/model.4/m.1/cv2/conv/Conv_quant_output_scale_mul"
    op_type: "Mul"
  }
  node {
    input: "/model.4/m.1/cv2/conv/Conv_output_0quant_scaled_output"
    input: "/model.4/m.1/cv2/conv/Conv_output_0_bias_reshape_output"
    output: "/model.4/m.1/cv2/conv/Conv_output_0"
    name: "/model.4/m.1/cv2/conv/Conv_output_0_bias_add"
    op_type: "Add"
  }
  node {
    input: "/model.4/m.1/cv2/conv/Conv_output_0"
    output: "/model.4/m.1/cv2/act/Sigmoid_output_0"
    name: "/model.4/m.1/cv2/act/Sigmoid"
    op_type: "Sigmoid"
  }
  node {
    input: "/model.4/m.1/cv2/conv/Conv_output_0"
    input: "/model.4/m.1/cv2/act/Sigmoid_output_0"
    output: "/model.4/m.1/cv2/act/Mul_output_0"
    name: "/model.4/m.1/cv2/act/Mul"
    op_type: "Mul"
  }
  node {
    input: "/model.4/m.0/Add_output_0"
    input: "/model.4/m.1/cv2/act/Mul_output_0"
    output: "/model.4/m.1/Add_output_0"
    name: "/model.4/m.1/Add"
    op_type: "Add"
  }
  node {
    input: "/model.4/Split_output_0"
    input: "/model.4/Split_output_1"
    input: "/model.4/m.0/Add_output_0"
    input: "/model.4/m.1/Add_output_0"
    output: "/model.4/Concat_output_0"
    name: "/model.4/Concat"
    op_type: "Concat"
    attribute {
      name: "axis"
      i: 1
      type: INT
    }
  }
  node {
    input: "/model.4/Concat_output_0"
    output: "/model.4/Concat_output_0_quantized"
    output: "/model.4/Concat_output_0_scale"
    output: "/model.4/Concat_output_0_zero_point"
    name: "/model.4/Concat_output_0_QuantizeLinear"
    op_type: "DynamicQuantizeLinear"
  }
  node {
    input: "/model.4/Concat_output_0_scale"
    input: "model.4.cv2.conv.weight_scale"
    output: "/model.4/cv2/conv/Conv_quant_scales_mul:0"
    name: "/model.4/cv2/conv/Conv_quant_scales_mul"
    op_type: "Mul"
  }
  node {
    input: "/model.4/Concat_output_0_quantized"
    input: "model.4.cv2.conv.weight_quantized"
    input: "/model.4/Concat_output_0_zero_point"
    input: "model.4.cv2.conv.weight_zero_point"
    output: "/model.4/cv2/conv/Conv_output_0_output_quantized"
    name: "/model.4/cv2/conv/Conv_quant"
    op_type: "Conv"
    attribute {
      name: "dilations"
      ints: 1
      ints: 1
      type: INTS
    }
    attribute {
      name: "group"
      i: 1
      type: INT
    }
    attribute {
      name: "kernel_shape"
      ints: 1
      ints: 1
      type: INTS
    }
    attribute {
      name: "pads"
      ints: 0
      ints: 0
      ints: 0
      ints: 0
      type: INTS
    }
    attribute {
      name: "strides"
      ints: 1
      ints: 1
      type: INTS
    }
  }
  node {
    input: "/model.4/cv2/conv/Conv_output_0_output_quantized"
    output: "/model.4/cv2/conv/Conv_output_0_output_quantized_cast_output"
    name: "/model.4/cv2/conv/Conv_output_0_output_quantized_cast"
    op_type: "Cast"
    attribute {
      name: "to"
      i: 1
      type: INT
    }
  }
  node {
    input: "/model.4/cv2/conv/Conv_output_0_output_quantized_cast_output"
    input: "/model.4/cv2/conv/Conv_quant_scales_mul:0"
    output: "/model.4/cv2/conv/Conv_output_0quant_scaled_output"
    name: "/model.4/cv2/conv/Conv_quant_output_scale_mul"
    op_type: "Mul"
  }
  node {
    input: "/model.4/cv2/conv/Conv_output_0quant_scaled_output"
    input: "/model.4/cv2/conv/Conv_output_0_bias_reshape_output"
    output: "/model.4/cv2/conv/Conv_output_0"
    name: "/model.4/cv2/conv/Conv_output_0_bias_add"
    op_type: "Add"
  }
  node {
    input: "/model.4/cv2/conv/Conv_output_0"
    output: "/model.4/cv2/act/Sigmoid_output_0"
    name: "/model.4/cv2/act/Sigmoid"
    op_type: "Sigmoid"
  }
  node {
    input: "/model.4/cv2/conv/Conv_output_0"
    input: "/model.4/cv2/act/Sigmoid_output_0"
    output: "/model.4/cv2/act/Mul_output_0"
    name: "/model.4/cv2/act/Mul"
    op_type: "Mul"
  }
  node {
    input: "/model.4/cv2/act/Mul_output_0"
    output: "/model.4/cv2/act/Mul_output_0_quantized"
    output: "/model.4/cv2/act/Mul_output_0_scale"
    output: "/model.4/cv2/act/Mul_output_0_zero_point"
    name: "/model.4/cv2/act/Mul_output_0_QuantizeLinear"
    op_type: "DynamicQuantizeLinear"
  }
  node {
    input: "/model.4/cv2/act/Mul_output_0_scale"
    input: "model.5.conv.weight_scale"
    output: "/model.5/conv/Conv_quant_scales_mul:0"
    name: "/model.5/conv/Conv_quant_scales_mul"
    op_type: "Mul"
  }
  node {
    input: "/model.4/cv2/act/Mul_output_0_quantized"
    input: "model.5.conv.weight_quantized"
    input: "/model.4/cv2/act/Mul_output_0_zero_point"
    input: "model.5.conv.weight_zero_point"
    output: "/model.5/conv/Conv_output_0_output_quantized"
    name: "/model.5/conv/Conv_quant"
    op_type: "Conv"
    attribute {
      name: "dilations"
      ints: 1
      ints: 1
      type: INTS
    }
    attribute {
      name: "group"
      i: 1
      type: INT
    }
    attribute {
      name: "kernel_shape"
      ints: 3
      ints: 3
      type: INTS
    }
    attribute {
      name: "pads"
      ints: 1
      ints: 1
      ints: 1
      ints: 1
      type: INTS
    }
    attribute {
      name: "strides"
      ints: 2
      ints: 2
      type: INTS
    }
  }
  node {
    input: "/model.5/conv/Conv_output_0_output_quantized"
    output: "/model.5/conv/Conv_output_0_output_quantized_cast_output"
    name: "/model.5/conv/Conv_output_0_output_quantized_cast"
    op_type: "Cast"
    attribute {
      name: "to"
      i: 1
      type: INT
    }
  }
  node {
    input: "/model.5/conv/Conv_output_0_output_quantized_cast_output"
    input: "/model.5/conv/Conv_quant_scales_mul:0"
    output: "/model.5/conv/Conv_output_0quant_scaled_output"
    name: "/model.5/conv/Conv_quant_output_scale_mul"
    op_type: "Mul"
  }
  node {
    input: "/model.5/conv/Conv_output_0quant_scaled_output"
    input: "/model.5/conv/Conv_output_0_bias_reshape_output"
    output: "/model.5/conv/Conv_output_0"
    name: "/model.5/conv/Conv_output_0_bias_add"
    op_type: "Add"
  }
  node {
    input: "/model.5/conv/Conv_output_0"
    output: "/model.5/act/Sigmoid_output_0"
    name: "/model.5/act/Sigmoid"
    op_type: "Sigmoid"
  }
  node {
    input: "/model.5/conv/Conv_output_0"
    input: "/model.5/act/Sigmoid_output_0"
    output: "/model.5/act/Mul_output_0"
    name: "/model.5/act/Mul"
    op_type: "Mul"
  }
  node {
    input: "/model.5/act/Mul_output_0"
    output: "/model.5/act/Mul_output_0_quantized"
    output: "/model.5/act/Mul_output_0_scale"
    output: "/model.5/act/Mul_output_0_zero_point"
    name: "/model.5/act/Mul_output_0_QuantizeLinear"
    op_type: "DynamicQuantizeLinear"
  }
  node {
    input: "/model.5/act/Mul_output_0_scale"
    input: "model.6.cv1.conv.weight_scale"
    output: "/model.6/cv1/conv/Conv_quant_scales_mul:0"
    name: "/model.6/cv1/conv/Conv_quant_scales_mul"
    op_type: "Mul"
  }
  node {
    input: "/model.5/act/Mul_output_0_quantized"
    input: "model.6.cv1.conv.weight_quantized"
    input: "/model.5/act/Mul_output_0_zero_point"
    input: "model.6.cv1.conv.weight_zero_point"
    output: "/model.6/cv1/conv/Conv_output_0_output_quantized"
    name: "/model.6/cv1/conv/Conv_quant"
    op_type: "Conv"
    attribute {
      name: "dilations"
      ints: 1
      ints: 1
      type: INTS
    }
    attribute {
      name: "group"
      i: 1
      type: INT
    }
    attribute {
      name: "kernel_shape"
      ints: 1
      ints: 1
      type: INTS
    }
    attribute {
      name: "pads"
      ints: 0
      ints: 0
      ints: 0
      ints: 0
      type: INTS
    }
    attribute {
      name: "strides"
      ints: 1
      ints: 1
      type: INTS
    }
  }
  node {
    input: "/model.6/cv1/conv/Conv_output_0_output_quantized"
    output: "/model.6/cv1/conv/Conv_output_0_output_quantized_cast_output"
    name: "/model.6/cv1/conv/Conv_output_0_output_quantized_cast"
    op_type: "Cast"
    attribute {
      name: "to"
      i: 1
      type: INT
    }
  }
  node {
    input: "/model.6/cv1/conv/Conv_output_0_output_quantized_cast_output"
    input: "/model.6/cv1/conv/Conv_quant_scales_mul:0"
    output: "/model.6/cv1/conv/Conv_output_0quant_scaled_output"
    name: "/model.6/cv1/conv/Conv_quant_output_scale_mul"
    op_type: "Mul"
  }
  node {
    input: "/model.6/cv1/conv/Conv_output_0quant_scaled_output"
    input: "/model.6/cv1/conv/Conv_output_0_bias_reshape_output"
    output: "/model.6/cv1/conv/Conv_output_0"
    name: "/model.6/cv1/conv/Conv_output_0_bias_add"
    op_type: "Add"
  }
  node {
    input: "/model.6/cv1/conv/Conv_output_0"
    output: "/model.6/cv1/act/Sigmoid_output_0"
    name: "/model.6/cv1/act/Sigmoid"
    op_type: "Sigmoid"
  }
  node {
    input: "/model.6/cv1/conv/Conv_output_0"
    input: "/model.6/cv1/act/Sigmoid_output_0"
    output: "/model.6/cv1/act/Mul_output_0"
    name: "/model.6/cv1/act/Mul"
    op_type: "Mul"
  }
  node {
    input: "/model.6/cv1/act/Mul_output_0"
    input: "onnx::Split_184"
    output: "/model.6/Split_output_0"
    output: "/model.6/Split_output_1"
    name: "/model.6/Split"
    op_type: "Split"
    attribute {
      name: "axis"
      i: 1
      type: INT
    }
  }
  node {
    input: "/model.6/Split_output_1"
    output: "/model.6/Split_output_1_quantized"
    output: "/model.6/Split_output_1_scale"
    output: "/model.6/Split_output_1_zero_point"
    name: "/model.6/Split_output_1_QuantizeLinear"
    op_type: "DynamicQuantizeLinear"
  }
  node {
    input: "/model.6/Split_output_1_scale"
    input: "model.6.m.0.cv1.conv.weight_scale"
    output: "/model.6/m.0/cv1/conv/Conv_quant_scales_mul:0"
    name: "/model.6/m.0/cv1/conv/Conv_quant_scales_mul"
    op_type: "Mul"
  }
  node {
    input: "/model.6/Split_output_1_quantized"
    input: "model.6.m.0.cv1.conv.weight_quantized"
    input: "/model.6/Split_output_1_zero_point"
    input: "model.6.m.0.cv1.conv.weight_zero_point"
    output: "/model.6/m.0/cv1/conv/Conv_output_0_output_quantized"
    name: "/model.6/m.0/cv1/conv/Conv_quant"
    op_type: "Conv"
    attribute {
      name: "dilations"
      ints: 1
      ints: 1
      type: INTS
    }
    attribute {
      name: "group"
      i: 1
      type: INT
    }
    attribute {
      name: "kernel_shape"
      ints: 3
      ints: 3
      type: INTS
    }
    attribute {
      name: "pads"
      ints: 1
      ints: 1
      ints: 1
      ints: 1
      type: INTS
    }
    attribute {
      name: "strides"
      ints: 1
      ints: 1
      type: INTS
    }
  }
  node {
    input: "/model.6/m.0/cv1/conv/Conv_output_0_output_quantized"
    output: "/model.6/m.0/cv1/conv/Conv_output_0_output_quantized_cast_output"
    name: "/model.6/m.0/cv1/conv/Conv_output_0_output_quantized_cast"
    op_type: "Cast"
    attribute {
      name: "to"
      i: 1
      type: INT
    }
  }
  node {
    input: "/model.6/m.0/cv1/conv/Conv_output_0_output_quantized_cast_output"
    input: "/model.6/m.0/cv1/conv/Conv_quant_scales_mul:0"
    output: "/model.6/m.0/cv1/conv/Conv_output_0quant_scaled_output"
    name: "/model.6/m.0/cv1/conv/Conv_quant_output_scale_mul"
    op_type: "Mul"
  }
  node {
    input: "/model.6/m.0/cv1/conv/Conv_output_0quant_scaled_output"
    input: "/model.6/m.0/cv1/conv/Conv_output_0_bias_reshape_output"
    output: "/model.6/m.0/cv1/conv/Conv_output_0"
    name: "/model.6/m.0/cv1/conv/Conv_output_0_bias_add"
    op_type: "Add"
  }
  node {
    input: "/model.6/m.0/cv1/conv/Conv_output_0"
    output: "/model.6/m.0/cv1/act/Sigmoid_output_0"
    name: "/model.6/m.0/cv1/act/Sigmoid"
    op_type: "Sigmoid"
  }
  node {
    input: "/model.6/m.0/cv1/conv/Conv_output_0"
    input: "/model.6/m.0/cv1/act/Sigmoid_output_0"
    output: "/model.6/m.0/cv1/act/Mul_output_0"
    name: "/model.6/m.0/cv1/act/Mul"
    op_type: "Mul"
  }
  node {
    input: "/model.6/m.0/cv1/act/Mul_output_0"
    output: "/model.6/m.0/cv1/act/Mul_output_0_quantized"
    output: "/model.6/m.0/cv1/act/Mul_output_0_scale"
    output: "/model.6/m.0/cv1/act/Mul_output_0_zero_point"
    name: "/model.6/m.0/cv1/act/Mul_output_0_QuantizeLinear"
    op_type: "DynamicQuantizeLinear"
  }
  node {
    input: "/model.6/m.0/cv1/act/Mul_output_0_scale"
    input: "model.6.m.0.cv2.conv.weight_scale"
    output: "/model.6/m.0/cv2/conv/Conv_quant_scales_mul:0"
    name: "/model.6/m.0/cv2/conv/Conv_quant_scales_mul"
    op_type: "Mul"
  }
  node {
    input: "/model.6/m.0/cv1/act/Mul_output_0_quantized"
    input: "model.6.m.0.cv2.conv.weight_quantized"
    input: "/model.6/m.0/cv1/act/Mul_output_0_zero_point"
    input: "model.6.m.0.cv2.conv.weight_zero_point"
    output: "/model.6/m.0/cv2/conv/Conv_output_0_output_quantized"
    name: "/model.6/m.0/cv2/conv/Conv_quant"
    op_type: "Conv"
    attribute {
      name: "dilations"
      ints: 1
      ints: 1
      type: INTS
    }
    attribute {
      name: "group"
      i: 1
      type: INT
    }
    attribute {
      name: "kernel_shape"
      ints: 3
      ints: 3
      type: INTS
    }
    attribute {
      name: "pads"
      ints: 1
      ints: 1
      ints: 1
      ints: 1
      type: INTS
    }
    attribute {
      name: "strides"
      ints: 1
      ints: 1
      type: INTS
    }
  }
  node {
    input: "/model.6/m.0/cv2/conv/Conv_output_0_output_quantized"
    output: "/model.6/m.0/cv2/conv/Conv_output_0_output_quantized_cast_output"
    name: "/model.6/m.0/cv2/conv/Conv_output_0_output_quantized_cast"
    op_type: "Cast"
    attribute {
      name: "to"
      i: 1
      type: INT
    }
  }
  node {
    input: "/model.6/m.0/cv2/conv/Conv_output_0_output_quantized_cast_output"
    input: "/model.6/m.0/cv2/conv/Conv_quant_scales_mul:0"
    output: "/model.6/m.0/cv2/conv/Conv_output_0quant_scaled_output"
    name: "/model.6/m.0/cv2/conv/Conv_quant_output_scale_mul"
    op_type: "Mul"
  }
  node {
    input: "/model.6/m.0/cv2/conv/Conv_output_0quant_scaled_output"
    input: "/model.6/m.0/cv2/conv/Conv_output_0_bias_reshape_output"
    output: "/model.6/m.0/cv2/conv/Conv_output_0"
    name: "/model.6/m.0/cv2/conv/Conv_output_0_bias_add"
    op_type: "Add"
  }
  node {
    input: "/model.6/m.0/cv2/conv/Conv_output_0"
    output: "/model.6/m.0/cv2/act/Sigmoid_output_0"
    name: "/model.6/m.0/cv2/act/Sigmoid"
    op_type: "Sigmoid"
  }
  node {
    input: "/model.6/m.0/cv2/conv/Conv_output_0"
    input: "/model.6/m.0/cv2/act/Sigmoid_output_0"
    output: "/model.6/m.0/cv2/act/Mul_output_0"
    name: "/model.6/m.0/cv2/act/Mul"
    op_type: "Mul"
  }
  node {
    input: "/model.6/Split_output_1"
    input: "/model.6/m.0/cv2/act/Mul_output_0"
    output: "/model.6/m.0/Add_output_0"
    name: "/model.6/m.0/Add"
    op_type: "Add"
  }
  node {
    input: "/model.6/m.0/Add_output_0"
    output: "/model.6/m.0/Add_output_0_quantized"
    output: "/model.6/m.0/Add_output_0_scale"
    output: "/model.6/m.0/Add_output_0_zero_point"
    name: "/model.6/m.0/Add_output_0_QuantizeLinear"
    op_type: "DynamicQuantizeLinear"
  }
  node {
    input: "/model.6/m.0/Add_output_0_scale"
    input: "model.6.m.1.cv1.conv.weight_scale"
    output: "/model.6/m.1/cv1/conv/Conv_quant_scales_mul:0"
    name: "/model.6/m.1/cv1/conv/Conv_quant_scales_mul"
    op_type: "Mul"
  }
  node {
    input: "/model.6/m.0/Add_output_0_quantized"
    input: "model.6.m.1.cv1.conv.weight_quantized"
    input: "/model.6/m.0/Add_output_0_zero_point"
    input: "model.6.m.1.cv1.conv.weight_zero_point"
    output: "/model.6/m.1/cv1/conv/Conv_output_0_output_quantized"
    name: "/model.6/m.1/cv1/conv/Conv_quant"
    op_type: "Conv"
    attribute {
      name: "dilations"
      ints: 1
      ints: 1
      type: INTS
    }
    attribute {
      name: "group"
      i: 1
      type: INT
    }
    attribute {
      name: "kernel_shape"
      ints: 3
      ints: 3
      type: INTS
    }
    attribute {
      name: "pads"
      ints: 1
      ints: 1
      ints: 1
      ints: 1
      type: INTS
    }
    attribute {
      name: "strides"
      ints: 1
      ints: 1
      type: INTS
    }
  }
  node {
    input: "/model.6/m.1/cv1/conv/Conv_output_0_output_quantized"
    output: "/model.6/m.1/cv1/conv/Conv_output_0_output_quantized_cast_output"
    name: "/model.6/m.1/cv1/conv/Conv_output_0_output_quantized_cast"
    op_type: "Cast"
    attribute {
      name: "to"
      i: 1
      type: INT
    }
  }
  node {
    input: "/model.6/m.1/cv1/conv/Conv_output_0_output_quantized_cast_output"
    input: "/model.6/m.1/cv1/conv/Conv_quant_scales_mul:0"
    output: "/model.6/m.1/cv1/conv/Conv_output_0quant_scaled_output"
    name: "/model.6/m.1/cv1/conv/Conv_quant_output_scale_mul"
    op_type: "Mul"
  }
  node {
    input: "/model.6/m.1/cv1/conv/Conv_output_0quant_scaled_output"
    input: "/model.6/m.1/cv1/conv/Conv_output_0_bias_reshape_output"
    output: "/model.6/m.1/cv1/conv/Conv_output_0"
    name: "/model.6/m.1/cv1/conv/Conv_output_0_bias_add"
    op_type: "Add"
  }
  node {
    input: "/model.6/m.1/cv1/conv/Conv_output_0"
    output: "/model.6/m.1/cv1/act/Sigmoid_output_0"
    name: "/model.6/m.1/cv1/act/Sigmoid"
    op_type: "Sigmoid"
  }
  node {
    input: "/model.6/m.1/cv1/conv/Conv_output_0"
    input: "/model.6/m.1/cv1/act/Sigmoid_output_0"
    output: "/model.6/m.1/cv1/act/Mul_output_0"
    name: "/model.6/m.1/cv1/act/Mul"
    op_type: "Mul"
  }
  node {
    input: "/model.6/m.1/cv1/act/Mul_output_0"
    output: "/model.6/m.1/cv1/act/Mul_output_0_quantized"
    output: "/model.6/m.1/cv1/act/Mul_output_0_scale"
    output: "/model.6/m.1/cv1/act/Mul_output_0_zero_point"
    name: "/model.6/m.1/cv1/act/Mul_output_0_QuantizeLinear"
    op_type: "DynamicQuantizeLinear"
  }
  node {
    input: "/model.6/m.1/cv1/act/Mul_output_0_scale"
    input: "model.6.m.1.cv2.conv.weight_scale"
    output: "/model.6/m.1/cv2/conv/Conv_quant_scales_mul:0"
    name: "/model.6/m.1/cv2/conv/Conv_quant_scales_mul"
    op_type: "Mul"
  }
  node {
    input: "/model.6/m.1/cv1/act/Mul_output_0_quantized"
    input: "model.6.m.1.cv2.conv.weight_quantized"
    input: "/model.6/m.1/cv1/act/Mul_output_0_zero_point"
    input: "model.6.m.1.cv2.conv.weight_zero_point"
    output: "/model.6/m.1/cv2/conv/Conv_output_0_output_quantized"
    name: "/model.6/m.1/cv2/conv/Conv_quant"
    op_type: "Conv"
    attribute {
      name: "dilations"
      ints: 1
      ints: 1
      type: INTS
    }
    attribute {
      name: "group"
      i: 1
      type: INT
    }
    attribute {
      name: "kernel_shape"
      ints: 3
      ints: 3
      type: INTS
    }
    attribute {
      name: "pads"
      ints: 1
      ints: 1
      ints: 1
      ints: 1
      type: INTS
    }
    attribute {
      name: "strides"
      ints: 1
      ints: 1
      type: INTS
    }
  }
  node {
    input: "/model.6/m.1/cv2/conv/Conv_output_0_output_quantized"
    output: "/model.6/m.1/cv2/conv/Conv_output_0_output_quantized_cast_output"
    name: "/model.6/m.1/cv2/conv/Conv_output_0_output_quantized_cast"
    op_type: "Cast"
    attribute {
      name: "to"
      i: 1
      type: INT
    }
  }
  node {
    input: "/model.6/m.1/cv2/conv/Conv_output_0_output_quantized_cast_output"
    input: "/model.6/m.1/cv2/conv/Conv_quant_scales_mul:0"
    output: "/model.6/m.1/cv2/conv/Conv_output_0quant_scaled_output"
    name: "/model.6/m.1/cv2/conv/Conv_quant_output_scale_mul"
    op_type: "Mul"
  }
  node {
    input: "/model.6/m.1/cv2/conv/Conv_output_0quant_scaled_output"
    input: "/model.6/m.1/cv2/conv/Conv_output_0_bias_reshape_output"
    output: "/model.6/m.1/cv2/conv/Conv_output_0"
    name: "/model.6/m.1/cv2/conv/Conv_output_0_bias_add"
    op_type: "Add"
  }
  node {
    input: "/model.6/m.1/cv2/conv/Conv_output_0"
    output: "/model.6/m.1/cv2/act/Sigmoid_output_0"
    name: "/model.6/m.1/cv2/act/Sigmoid"
    op_type: "Sigmoid"
  }
  node {
    input: "/model.6/m.1/cv2/conv/Conv_output_0"
    input: "/model.6/m.1/cv2/act/Sigmoid_output_0"
    output: "/model.6/m.1/cv2/act/Mul_output_0"
    name: "/model.6/m.1/cv2/act/Mul"
    op_type: "Mul"
  }
  node {
    input: "/model.6/m.0/Add_output_0"
    input: "/model.6/m.1/cv2/act/Mul_output_0"
    output: "/model.6/m.1/Add_output_0"
    name: "/model.6/m.1/Add"
    op_type: "Add"
  }
  node {
    input: "/model.6/Split_output_0"
    input: "/model.6/Split_output_1"
    input: "/model.6/m.0/Add_output_0"
    input: "/model.6/m.1/Add_output_0"
    output: "/model.6/Concat_output_0"
    name: "/model.6/Concat"
    op_type: "Concat"
    attribute {
      name: "axis"
      i: 1
      type: INT
    }
  }
  node {
    input: "/model.6/Concat_output_0"
    output: "/model.6/Concat_output_0_quantized"
    output: "/model.6/Concat_output_0_scale"
    output: "/model.6/Concat_output_0_zero_point"
    name: "/model.6/Concat_output_0_QuantizeLinear"
    op_type: "DynamicQuantizeLinear"
  }
  node {
    input: "/model.6/Concat_output_0_scale"
    input: "model.6.cv2.conv.weight_scale"
    output: "/model.6/cv2/conv/Conv_quant_scales_mul:0"
    name: "/model.6/cv2/conv/Conv_quant_scales_mul"
    op_type: "Mul"
  }
  node {
    input: "/model.6/Concat_output_0_quantized"
    input: "model.6.cv2.conv.weight_quantized"
    input: "/model.6/Concat_output_0_zero_point"
    input: "model.6.cv2.conv.weight_zero_point"
    output: "/model.6/cv2/conv/Conv_output_0_output_quantized"
    name: "/model.6/cv2/conv/Conv_quant"
    op_type: "Conv"
    attribute {
      name: "dilations"
      ints: 1
      ints: 1
      type: INTS
    }
    attribute {
      name: "group"
      i: 1
      type: INT
    }
    attribute {
      name: "kernel_shape"
      ints: 1
      ints: 1
      type: INTS
    }
    attribute {
      name: "pads"
      ints: 0
      ints: 0
      ints: 0
      ints: 0
      type: INTS
    }
    attribute {
      name: "strides"
      ints: 1
      ints: 1
      type: INTS
    }
  }
  node {
    input: "/model.6/cv2/conv/Conv_output_0_output_quantized"
    output: "/model.6/cv2/conv/Conv_output_0_output_quantized_cast_output"
    name: "/model.6/cv2/conv/Conv_output_0_output_quantized_cast"
    op_type: "Cast"
    attribute {
      name: "to"
      i: 1
      type: INT
    }
  }
  node {
    input: "/model.6/cv2/conv/Conv_output_0_output_quantized_cast_output"
    input: "/model.6/cv2/conv/Conv_quant_scales_mul:0"
    output: "/model.6/cv2/conv/Conv_output_0quant_scaled_output"
    name: "/model.6/cv2/conv/Conv_quant_output_scale_mul"
    op_type: "Mul"
  }
  node {
    input: "/model.6/cv2/conv/Conv_output_0quant_scaled_output"
    input: "/model.6/cv2/conv/Conv_output_0_bias_reshape_output"
    output: "/model.6/cv2/conv/Conv_output_0"
    name: "/model.6/cv2/conv/Conv_output_0_bias_add"
    op_type: "Add"
  }
  node {
    input: "/model.6/cv2/conv/Conv_output_0"
    output: "/model.6/cv2/act/Sigmoid_output_0"
    name: "/model.6/cv2/act/Sigmoid"
    op_type: "Sigmoid"
  }
  node {
    input: "/model.6/cv2/conv/Conv_output_0"
    input: "/model.6/cv2/act/Sigmoid_output_0"
    output: "/model.6/cv2/act/Mul_output_0"
    name: "/model.6/cv2/act/Mul"
    op_type: "Mul"
  }
  node {
    input: "/model.6/cv2/act/Mul_output_0"
    output: "/model.6/cv2/act/Mul_output_0_quantized"
    output: "/model.6/cv2/act/Mul_output_0_scale"
    output: "/model.6/cv2/act/Mul_output_0_zero_point"
    name: "/model.6/cv2/act/Mul_output_0_QuantizeLinear"
    op_type: "DynamicQuantizeLinear"
  }
  node {
    input: "/model.6/cv2/act/Mul_output_0_scale"
    input: "model.7.conv.weight_scale"
    output: "/model.7/conv/Conv_quant_scales_mul:0"
    name: "/model.7/conv/Conv_quant_scales_mul"
    op_type: "Mul"
  }
  node {
    input: "/model.6/cv2/act/Mul_output_0_quantized"
    input: "model.7.conv.weight_quantized"
    input: "/model.6/cv2/act/Mul_output_0_zero_point"
    input: "model.7.conv.weight_zero_point"
    output: "/model.7/conv/Conv_output_0_output_quantized"
    name: "/model.7/conv/Conv_quant"
    op_type: "Conv"
    attribute {
      name: "dilations"
      ints: 1
      ints: 1
      type: INTS
    }
    attribute {
      name: "group"
      i: 1
      type: INT
    }
    attribute {
      name: "kernel_shape"
      ints: 3
      ints: 3
      type: INTS
    }
    attribute {
      name: "pads"
      ints: 1
      ints: 1
      ints: 1
      ints: 1
      type: INTS
    }
    attribute {
      name: "strides"
      ints: 2
      ints: 2
      type: INTS
    }
  }
  node {
    input: "/model.7/conv/Conv_output_0_output_quantized"
    output: "/model.7/conv/Conv_output_0_output_quantized_cast_output"
    name: "/model.7/conv/Conv_output_0_output_quantized_cast"
    op_type: "Cast"
    attribute {
      name: "to"
      i: 1
      type: INT
    }
  }
  node {
    input: "/model.7/conv/Conv_output_0_output_quantized_cast_output"
    input: "/model.7/conv/Conv_quant_scales_mul:0"
    output: "/model.7/conv/Conv_output_0quant_scaled_output"
    name: "/model.7/conv/Conv_quant_output_scale_mul"
    op_type: "Mul"
  }
  node {
    input: "/model.7/conv/Conv_output_0quant_scaled_output"
    input: "/model.7/conv/Conv_output_0_bias_reshape_output"
    output: "/model.7/conv/Conv_output_0"
    name: "/model.7/conv/Conv_output_0_bias_add"
    op_type: "Add"
  }
  node {
    input: "/model.7/conv/Conv_output_0"
    output: "/model.7/act/Sigmoid_output_0"
    name: "/model.7/act/Sigmoid"
    op_type: "Sigmoid"
  }
  node {
    input: "/model.7/conv/Conv_output_0"
    input: "/model.7/act/Sigmoid_output_0"
    output: "/model.7/act/Mul_output_0"
    name: "/model.7/act/Mul"
    op_type: "Mul"
  }
  node {
    input: "/model.7/act/Mul_output_0"
    output: "/model.7/act/Mul_output_0_quantized"
    output: "/model.7/act/Mul_output_0_scale"
    output: "/model.7/act/Mul_output_0_zero_point"
    name: "/model.7/act/Mul_output_0_QuantizeLinear"
    op_type: "DynamicQuantizeLinear"
  }
  node {
    input: "/model.7/act/Mul_output_0_scale"
    input: "model.8.cv1.conv.weight_scale"
    output: "/model.8/cv1/conv/Conv_quant_scales_mul:0"
    name: "/model.8/cv1/conv/Conv_quant_scales_mul"
    op_type: "Mul"
  }
  node {
    input: "/model.7/act/Mul_output_0_quantized"
    input: "model.8.cv1.conv.weight_quantized"
    input: "/model.7/act/Mul_output_0_zero_point"
    input: "model.8.cv1.conv.weight_zero_point"
    output: "/model.8/cv1/conv/Conv_output_0_output_quantized"
    name: "/model.8/cv1/conv/Conv_quant"
    op_type: "Conv"
    attribute {
      name: "dilations"
      ints: 1
      ints: 1
      type: INTS
    }
    attribute {
      name: "group"
      i: 1
      type: INT
    }
    attribute {
      name: "kernel_shape"
      ints: 1
      ints: 1
      type: INTS
    }
    attribute {
      name: "pads"
      ints: 0
      ints: 0
      ints: 0
      ints: 0
      type: INTS
    }
    attribute {
      name: "strides"
      ints: 1
      ints: 1
      type: INTS
    }
  }
  node {
    input: "/model.8/cv1/conv/Conv_output_0_output_quantized"
    output: "/model.8/cv1/conv/Conv_output_0_output_quantized_cast_output"
    name: "/model.8/cv1/conv/Conv_output_0_output_quantized_cast"
    op_type: "Cast"
    attribute {
      name: "to"
      i: 1
      type: INT
    }
  }
  node {
    input: "/model.8/cv1/conv/Conv_output_0_output_quantized_cast_output"
    input: "/model.8/cv1/conv/Conv_quant_scales_mul:0"
    output: "/model.8/cv1/conv/Conv_output_0quant_scaled_output"
    name: "/model.8/cv1/conv/Conv_quant_output_scale_mul"
    op_type: "Mul"
  }
  node {
    input: "/model.8/cv1/conv/Conv_output_0quant_scaled_output"
    input: "/model.8/cv1/conv/Conv_output_0_bias_reshape_output"
    output: "/model.8/cv1/conv/Conv_output_0"
    name: "/model.8/cv1/conv/Conv_output_0_bias_add"
    op_type: "Add"
  }
  node {
    input: "/model.8/cv1/conv/Conv_output_0"
    output: "/model.8/cv1/act/Sigmoid_output_0"
    name: "/model.8/cv1/act/Sigmoid"
    op_type: "Sigmoid"
  }
  node {
    input: "/model.8/cv1/conv/Conv_output_0"
    input: "/model.8/cv1/act/Sigmoid_output_0"
    output: "/model.8/cv1/act/Mul_output_0"
    name: "/model.8/cv1/act/Mul"
    op_type: "Mul"
  }
  node {
    input: "/model.8/cv1/act/Mul_output_0"
    input: "onnx::Split_211"
    output: "/model.8/Split_output_0"
    output: "/model.8/Split_output_1"
    name: "/model.8/Split"
    op_type: "Split"
    attribute {
      name: "axis"
      i: 1
      type: INT
    }
  }
  node {
    input: "/model.8/Split_output_1"
    output: "/model.8/Split_output_1_quantized"
    output: "/model.8/Split_output_1_scale"
    output: "/model.8/Split_output_1_zero_point"
    name: "/model.8/Split_output_1_QuantizeLinear"
    op_type: "DynamicQuantizeLinear"
  }
  node {
    input: "/model.8/Split_output_1_scale"
    input: "model.8.m.0.cv1.conv.weight_scale"
    output: "/model.8/m.0/cv1/conv/Conv_quant_scales_mul:0"
    name: "/model.8/m.0/cv1/conv/Conv_quant_scales_mul"
    op_type: "Mul"
  }
  node {
    input: "/model.8/Split_output_1_quantized"
    input: "model.8.m.0.cv1.conv.weight_quantized"
    input: "/model.8/Split_output_1_zero_point"
    input: "model.8.m.0.cv1.conv.weight_zero_point"
    output: "/model.8/m.0/cv1/conv/Conv_output_0_output_quantized"
    name: "/model.8/m.0/cv1/conv/Conv_quant"
    op_type: "Conv"
    attribute {
      name: "dilations"
      ints: 1
      ints: 1
      type: INTS
    }
    attribute {
      name: "group"
      i: 1
      type: INT
    }
    attribute {
      name: "kernel_shape"
      ints: 3
      ints: 3
      type: INTS
    }
    attribute {
      name: "pads"
      ints: 1
      ints: 1
      ints: 1
      ints: 1
      type: INTS
    }
    attribute {
      name: "strides"
      ints: 1
      ints: 1
      type: INTS
    }
  }
  node {
    input: "/model.8/m.0/cv1/conv/Conv_output_0_output_quantized"
    output: "/model.8/m.0/cv1/conv/Conv_output_0_output_quantized_cast_output"
    name: "/model.8/m.0/cv1/conv/Conv_output_0_output_quantized_cast"
    op_type: "Cast"
    attribute {
      name: "to"
      i: 1
      type: INT
    }
  }
  node {
    input: "/model.8/m.0/cv1/conv/Conv_output_0_output_quantized_cast_output"
    input: "/model.8/m.0/cv1/conv/Conv_quant_scales_mul:0"
    output: "/model.8/m.0/cv1/conv/Conv_output_0quant_scaled_output"
    name: "/model.8/m.0/cv1/conv/Conv_quant_output_scale_mul"
    op_type: "Mul"
  }
  node {
    input: "/model.8/m.0/cv1/conv/Conv_output_0quant_scaled_output"
    input: "/model.8/m.0/cv1/conv/Conv_output_0_bias_reshape_output"
    output: "/model.8/m.0/cv1/conv/Conv_output_0"
    name: "/model.8/m.0/cv1/conv/Conv_output_0_bias_add"
    op_type: "Add"
  }
  node {
    input: "/model.8/m.0/cv1/conv/Conv_output_0"
    output: "/model.8/m.0/cv1/act/Sigmoid_output_0"
    name: "/model.8/m.0/cv1/act/Sigmoid"
    op_type: "Sigmoid"
  }
  node {
    input: "/model.8/m.0/cv1/conv/Conv_output_0"
    input: "/model.8/m.0/cv1/act/Sigmoid_output_0"
    output: "/model.8/m.0/cv1/act/Mul_output_0"
    name: "/model.8/m.0/cv1/act/Mul"
    op_type: "Mul"
  }
  node {
    input: "/model.8/m.0/cv1/act/Mul_output_0"
    output: "/model.8/m.0/cv1/act/Mul_output_0_quantized"
    output: "/model.8/m.0/cv1/act/Mul_output_0_scale"
    output: "/model.8/m.0/cv1/act/Mul_output_0_zero_point"
    name: "/model.8/m.0/cv1/act/Mul_output_0_QuantizeLinear"
    op_type: "DynamicQuantizeLinear"
  }
  node {
    input: "/model.8/m.0/cv1/act/Mul_output_0_scale"
    input: "model.8.m.0.cv2.conv.weight_scale"
    output: "/model.8/m.0/cv2/conv/Conv_quant_scales_mul:0"
    name: "/model.8/m.0/cv2/conv/Conv_quant_scales_mul"
    op_type: "Mul"
  }
  node {
    input: "/model.8/m.0/cv1/act/Mul_output_0_quantized"
    input: "model.8.m.0.cv2.conv.weight_quantized"
    input: "/model.8/m.0/cv1/act/Mul_output_0_zero_point"
    input: "model.8.m.0.cv2.conv.weight_zero_point"
    output: "/model.8/m.0/cv2/conv/Conv_output_0_output_quantized"
    name: "/model.8/m.0/cv2/conv/Conv_quant"
    op_type: "Conv"
    attribute {
      name: "dilations"
      ints: 1
      ints: 1
      type: INTS
    }
    attribute {
      name: "group"
      i: 1
      type: INT
    }
    attribute {
      name: "kernel_shape"
      ints: 3
      ints: 3
      type: INTS
    }
    attribute {
      name: "pads"
      ints: 1
      ints: 1
      ints: 1
      ints: 1
      type: INTS
    }
    attribute {
      name: "strides"
      ints: 1
      ints: 1
      type: INTS
    }
  }
  node {
    input: "/model.8/m.0/cv2/conv/Conv_output_0_output_quantized"
    output: "/model.8/m.0/cv2/conv/Conv_output_0_output_quantized_cast_output"
    name: "/model.8/m.0/cv2/conv/Conv_output_0_output_quantized_cast"
    op_type: "Cast"
    attribute {
      name: "to"
      i: 1
      type: INT
    }
  }
  node {
    input: "/model.8/m.0/cv2/conv/Conv_output_0_output_quantized_cast_output"
    input: "/model.8/m.0/cv2/conv/Conv_quant_scales_mul:0"
    output: "/model.8/m.0/cv2/conv/Conv_output_0quant_scaled_output"
    name: "/model.8/m.0/cv2/conv/Conv_quant_output_scale_mul"
    op_type: "Mul"
  }
  node {
    input: "/model.8/m.0/cv2/conv/Conv_output_0quant_scaled_output"
    input: "/model.8/m.0/cv2/conv/Conv_output_0_bias_reshape_output"
    output: "/model.8/m.0/cv2/conv/Conv_output_0"
    name: "/model.8/m.0/cv2/conv/Conv_output_0_bias_add"
    op_type: "Add"
  }
  node {
    input: "/model.8/m.0/cv2/conv/Conv_output_0"
    output: "/model.8/m.0/cv2/act/Sigmoid_output_0"
    name: "/model.8/m.0/cv2/act/Sigmoid"
    op_type: "Sigmoid"
  }
  node {
    input: "/model.8/m.0/cv2/conv/Conv_output_0"
    input: "/model.8/m.0/cv2/act/Sigmoid_output_0"
    output: "/model.8/m.0/cv2/act/Mul_output_0"
    name: "/model.8/m.0/cv2/act/Mul"
    op_type: "Mul"
  }
  node {
    input: "/model.8/Split_output_1"
    input: "/model.8/m.0/cv2/act/Mul_output_0"
    output: "/model.8/m.0/Add_output_0"
    name: "/model.8/m.0/Add"
    op_type: "Add"
  }
  node {
    input: "/model.8/Split_output_0"
    input: "/model.8/Split_output_1"
    input: "/model.8/m.0/Add_output_0"
    output: "/model.8/Concat_output_0"
    name: "/model.8/Concat"
    op_type: "Concat"
    attribute {
      name: "axis"
      i: 1
      type: INT
    }
  }
  node {
    input: "/model.8/Concat_output_0"
    output: "/model.8/Concat_output_0_quantized"
    output: "/model.8/Concat_output_0_scale"
    output: "/model.8/Concat_output_0_zero_point"
    name: "/model.8/Concat_output_0_QuantizeLinear"
    op_type: "DynamicQuantizeLinear"
  }
  node {
    input: "/model.8/Concat_output_0_scale"
    input: "model.8.cv2.conv.weight_scale"
    output: "/model.8/cv2/conv/Conv_quant_scales_mul:0"
    name: "/model.8/cv2/conv/Conv_quant_scales_mul"
    op_type: "Mul"
  }
  node {
    input: "/model.8/Concat_output_0_quantized"
    input: "model.8.cv2.conv.weight_quantized"
    input: "/model.8/Concat_output_0_zero_point"
    input: "model.8.cv2.conv.weight_zero_point"
    output: "/model.8/cv2/conv/Conv_output_0_output_quantized"
    name: "/model.8/cv2/conv/Conv_quant"
    op_type: "Conv"
    attribute {
      name: "dilations"
      ints: 1
      ints: 1
      type: INTS
    }
    attribute {
      name: "group"
      i: 1
      type: INT
    }
    attribute {
      name: "kernel_shape"
      ints: 1
      ints: 1
      type: INTS
    }
    attribute {
      name: "pads"
      ints: 0
      ints: 0
      ints: 0
      ints: 0
      type: INTS
    }
    attribute {
      name: "strides"
      ints: 1
      ints: 1
      type: INTS
    }
  }
  node {
    input: "/model.8/cv2/conv/Conv_output_0_output_quantized"
    output: "/model.8/cv2/conv/Conv_output_0_output_quantized_cast_output"
    name: "/model.8/cv2/conv/Conv_output_0_output_quantized_cast"
    op_type: "Cast"
    attribute {
      name: "to"
      i: 1
      type: INT
    }
  }
  node {
    input: "/model.8/cv2/conv/Conv_output_0_output_quantized_cast_output"
    input: "/model.8/cv2/conv/Conv_quant_scales_mul:0"
    output: "/model.8/cv2/conv/Conv_output_0quant_scaled_output"
    name: "/model.8/cv2/conv/Conv_quant_output_scale_mul"
    op_type: "Mul"
  }
  node {
    input: "/model.8/cv2/conv/Conv_output_0quant_scaled_output"
    input: "/model.8/cv2/conv/Conv_output_0_bias_reshape_output"
    output: "/model.8/cv2/conv/Conv_output_0"
    name: "/model.8/cv2/conv/Conv_output_0_bias_add"
    op_type: "Add"
  }
  node {
    input: "/model.8/cv2/conv/Conv_output_0"
    output: "/model.8/cv2/act/Sigmoid_output_0"
    name: "/model.8/cv2/act/Sigmoid"
    op_type: "Sigmoid"
  }
  node {
    input: "/model.8/cv2/conv/Conv_output_0"
    input: "/model.8/cv2/act/Sigmoid_output_0"
    output: "/model.8/cv2/act/Mul_output_0"
    name: "/model.8/cv2/act/Mul"
    op_type: "Mul"
  }
  node {
    input: "/model.8/cv2/act/Mul_output_0"
    output: "/model.8/cv2/act/Mul_output_0_quantized"
    output: "/model.8/cv2/act/Mul_output_0_scale"
    output: "/model.8/cv2/act/Mul_output_0_zero_point"
    name: "/model.8/cv2/act/Mul_output_0_QuantizeLinear"
    op_type: "DynamicQuantizeLinear"
  }
  node {
    input: "/model.8/cv2/act/Mul_output_0_scale"
    input: "model.9.cv1.conv.weight_scale"
    output: "/model.9/cv1/conv/Conv_quant_scales_mul:0"
    name: "/model.9/cv1/conv/Conv_quant_scales_mul"
    op_type: "Mul"
  }
  node {
    input: "/model.8/cv2/act/Mul_output_0_quantized"
    input: "model.9.cv1.conv.weight_quantized"
    input: "/model.8/cv2/act/Mul_output_0_zero_point"
    input: "model.9.cv1.conv.weight_zero_point"
    output: "/model.9/cv1/conv/Conv_output_0_output_quantized"
    name: "/model.9/cv1/conv/Conv_quant"
    op_type: "Conv"
    attribute {
      name: "dilations"
      ints: 1
      ints: 1
      type: INTS
    }
    attribute {
      name: "group"
      i: 1
      type: INT
    }
    attribute {
      name: "kernel_shape"
      ints: 1
      ints: 1
      type: INTS
    }
    attribute {
      name: "pads"
      ints: 0
      ints: 0
      ints: 0
      ints: 0
      type: INTS
    }
    attribute {
      name: "strides"
      ints: 1
      ints: 1
      type: INTS
    }
  }
  node {
    input: "/model.9/cv1/conv/Conv_output_0_output_quantized"
    output: "/model.9/cv1/conv/Conv_output_0_output_quantized_cast_output"
    name: "/model.9/cv1/conv/Conv_output_0_output_quantized_cast"
    op_type: "Cast"
    attribute {
      name: "to"
      i: 1
      type: INT
    }
  }
  node {
    input: "/model.9/cv1/conv/Conv_output_0_output_quantized_cast_output"
    input: "/model.9/cv1/conv/Conv_quant_scales_mul:0"
    output: "/model.9/cv1/conv/Conv_output_0quant_scaled_output"
    name: "/model.9/cv1/conv/Conv_quant_output_scale_mul"
    op_type: "Mul"
  }
  node {
    input: "/model.9/cv1/conv/Conv_output_0quant_scaled_output"
    input: "/model.9/cv1/conv/Conv_output_0_bias_reshape_output"
    output: "/model.9/cv1/conv/Conv_output_0"
    name: "/model.9/cv1/conv/Conv_output_0_bias_add"
    op_type: "Add"
  }
  node {
    input: "/model.9/cv1/conv/Conv_output_0"
    output: "/model.9/cv1/act/Sigmoid_output_0"
    name: "/model.9/cv1/act/Sigmoid"
    op_type: "Sigmoid"
  }
  node {
    input: "/model.9/cv1/conv/Conv_output_0"
    input: "/model.9/cv1/act/Sigmoid_output_0"
    output: "/model.9/cv1/act/Mul_output_0"
    name: "/model.9/cv1/act/Mul"
    op_type: "Mul"
  }
  node {
    input: "/model.9/cv1/act/Mul_output_0"
    output: "/model.9/m/MaxPool_output_0"
    name: "/model.9/m/MaxPool"
    op_type: "MaxPool"
    attribute {
      name: "ceil_mode"
      i: 0
      type: INT
    }
    attribute {
      name: "dilations"
      ints: 1
      ints: 1
      type: INTS
    }
    attribute {
      name: "kernel_shape"
      ints: 5
      ints: 5
      type: INTS
    }
    attribute {
      name: "pads"
      ints: 2
      ints: 2
      ints: 2
      ints: 2
      type: INTS
    }
    attribute {
      name: "strides"
      ints: 1
      ints: 1
      type: INTS
    }
  }
  node {
    input: "/model.9/m/MaxPool_output_0"
    output: "/model.9/m_1/MaxPool_output_0"
    name: "/model.9/m_1/MaxPool"
    op_type: "MaxPool"
    attribute {
      name: "ceil_mode"
      i: 0
      type: INT
    }
    attribute {
      name: "dilations"
      ints: 1
      ints: 1
      type: INTS
    }
    attribute {
      name: "kernel_shape"
      ints: 5
      ints: 5
      type: INTS
    }
    attribute {
      name: "pads"
      ints: 2
      ints: 2
      ints: 2
      ints: 2
      type: INTS
    }
    attribute {
      name: "strides"
      ints: 1
      ints: 1
      type: INTS
    }
  }
  node {
    input: "/model.9/m_1/MaxPool_output_0"
    output: "/model.9/m_2/MaxPool_output_0"
    name: "/model.9/m_2/MaxPool"
    op_type: "MaxPool"
    attribute {
      name: "ceil_mode"
      i: 0
      type: INT
    }
    attribute {
      name: "dilations"
      ints: 1
      ints: 1
      type: INTS
    }
    attribute {
      name: "kernel_shape"
      ints: 5
      ints: 5
      type: INTS
    }
    attribute {
      name: "pads"
      ints: 2
      ints: 2
      ints: 2
      ints: 2
      type: INTS
    }
    attribute {
      name: "strides"
      ints: 1
      ints: 1
      type: INTS
    }
  }
  node {
    input: "/model.9/cv1/act/Mul_output_0"
    input: "/model.9/m/MaxPool_output_0"
    input: "/model.9/m_1/MaxPool_output_0"
    input: "/model.9/m_2/MaxPool_output_0"
    output: "/model.9/Concat_output_0"
    name: "/model.9/Concat"
    op_type: "Concat"
    attribute {
      name: "axis"
      i: 1
      type: INT
    }
  }
  node {
    input: "/model.9/Concat_output_0"
    output: "/model.9/Concat_output_0_quantized"
    output: "/model.9/Concat_output_0_scale"
    output: "/model.9/Concat_output_0_zero_point"
    name: "/model.9/Concat_output_0_QuantizeLinear"
    op_type: "DynamicQuantizeLinear"
  }
  node {
    input: "/model.9/Concat_output_0_scale"
    input: "model.9.cv2.conv.weight_scale"
    output: "/model.9/cv2/conv/Conv_quant_scales_mul:0"
    name: "/model.9/cv2/conv/Conv_quant_scales_mul"
    op_type: "Mul"
  }
  node {
    input: "/model.9/Concat_output_0_quantized"
    input: "model.9.cv2.conv.weight_quantized"
    input: "/model.9/Concat_output_0_zero_point"
    input: "model.9.cv2.conv.weight_zero_point"
    output: "/model.9/cv2/conv/Conv_output_0_output_quantized"
    name: "/model.9/cv2/conv/Conv_quant"
    op_type: "Conv"
    attribute {
      name: "dilations"
      ints: 1
      ints: 1
      type: INTS
    }
    attribute {
      name: "group"
      i: 1
      type: INT
    }
    attribute {
      name: "kernel_shape"
      ints: 1
      ints: 1
      type: INTS
    }
    attribute {
      name: "pads"
      ints: 0
      ints: 0
      ints: 0
      ints: 0
      type: INTS
    }
    attribute {
      name: "strides"
      ints: 1
      ints: 1
      type: INTS
    }
  }
  node {
    input: "/model.9/cv2/conv/Conv_output_0_output_quantized"
    output: "/model.9/cv2/conv/Conv_output_0_output_quantized_cast_output"
    name: "/model.9/cv2/conv/Conv_output_0_output_quantized_cast"
    op_type: "Cast"
    attribute {
      name: "to"
      i: 1
      type: INT
    }
  }
  node {
    input: "/model.9/cv2/conv/Conv_output_0_output_quantized_cast_output"
    input: "/model.9/cv2/conv/Conv_quant_scales_mul:0"
    output: "/model.9/cv2/conv/Conv_output_0quant_scaled_output"
    name: "/model.9/cv2/conv/Conv_quant_output_scale_mul"
    op_type: "Mul"
  }
  node {
    input: "/model.9/cv2/conv/Conv_output_0quant_scaled_output"
    input: "/model.9/cv2/conv/Conv_output_0_bias_reshape_output"
    output: "/model.9/cv2/conv/Conv_output_0"
    name: "/model.9/cv2/conv/Conv_output_0_bias_add"
    op_type: "Add"
  }
  node {
    input: "/model.9/cv2/conv/Conv_output_0"
    output: "/model.9/cv2/act/Sigmoid_output_0"
    name: "/model.9/cv2/act/Sigmoid"
    op_type: "Sigmoid"
  }
  node {
    input: "/model.9/cv2/conv/Conv_output_0"
    input: "/model.9/cv2/act/Sigmoid_output_0"
    output: "/model.9/cv2/act/Mul_output_0"
    name: "/model.9/cv2/act/Mul"
    op_type: "Mul"
  }
  node {
    input: "/model.9/cv2/act/Mul_output_0"
    input: ""
    input: "/model.10/Constant_output_0"
    output: "/model.10/Resize_output_0"
    name: "/model.10/Resize"
    op_type: "Resize"
    attribute {
      name: "coordinate_transformation_mode"
      s: "asymmetric"
      type: STRING
    }
    attribute {
      name: "cubic_coeff_a"
      f: -0.75
      type: FLOAT
    }
    attribute {
      name: "mode"
      s: "nearest"
      type: STRING
    }
    attribute {
      name: "nearest_mode"
      s: "floor"
      type: STRING
    }
  }
  node {
    input: "/model.10/Resize_output_0"
    input: "/model.6/cv2/act/Mul_output_0"
    output: "/model.11/Concat_output_0"
    name: "/model.11/Concat"
    op_type: "Concat"
    attribute {
      name: "axis"
      i: 1
      type: INT
    }
  }
  node {
    input: "/model.11/Concat_output_0"
    output: "/model.11/Concat_output_0_quantized"
    output: "/model.11/Concat_output_0_scale"
    output: "/model.11/Concat_output_0_zero_point"
    name: "/model.11/Concat_output_0_QuantizeLinear"
    op_type: "DynamicQuantizeLinear"
  }
  node {
    input: "/model.11/Concat_output_0_scale"
    input: "model.12.cv1.conv.weight_scale"
    output: "/model.12/cv1/conv/Conv_quant_scales_mul:0"
    name: "/model.12/cv1/conv/Conv_quant_scales_mul"
    op_type: "Mul"
  }
  node {
    input: "/model.11/Concat_output_0_quantized"
    input: "model.12.cv1.conv.weight_quantized"
    input: "/model.11/Concat_output_0_zero_point"
    input: "model.12.cv1.conv.weight_zero_point"
    output: "/model.12/cv1/conv/Conv_output_0_output_quantized"
    name: "/model.12/cv1/conv/Conv_quant"
    op_type: "Conv"
    attribute {
      name: "dilations"
      ints: 1
      ints: 1
      type: INTS
    }
    attribute {
      name: "group"
      i: 1
      type: INT
    }
    attribute {
      name: "kernel_shape"
      ints: 1
      ints: 1
      type: INTS
    }
    attribute {
      name: "pads"
      ints: 0
      ints: 0
      ints: 0
      ints: 0
      type: INTS
    }
    attribute {
      name: "strides"
      ints: 1
      ints: 1
      type: INTS
    }
  }
  node {
    input: "/model.12/cv1/conv/Conv_output_0_output_quantized"
    output: "/model.12/cv1/conv/Conv_output_0_output_quantized_cast_output"
    name: "/model.12/cv1/conv/Conv_output_0_output_quantized_cast"
    op_type: "Cast"
    attribute {
      name: "to"
      i: 1
      type: INT
    }
  }
  node {
    input: "/model.12/cv1/conv/Conv_output_0_output_quantized_cast_output"
    input: "/model.12/cv1/conv/Conv_quant_scales_mul:0"
    output: "/model.12/cv1/conv/Conv_output_0quant_scaled_output"
    name: "/model.12/cv1/conv/Conv_quant_output_scale_mul"
    op_type: "Mul"
  }
  node {
    input: "/model.12/cv1/conv/Conv_output_0quant_scaled_output"
    input: "/model.12/cv1/conv/Conv_output_0_bias_reshape_output"
    output: "/model.12/cv1/conv/Conv_output_0"
    name: "/model.12/cv1/conv/Conv_output_0_bias_add"
    op_type: "Add"
  }
  node {
    input: "/model.12/cv1/conv/Conv_output_0"
    output: "/model.12/cv1/act/Sigmoid_output_0"
    name: "/model.12/cv1/act/Sigmoid"
    op_type: "Sigmoid"
  }
  node {
    input: "/model.12/cv1/conv/Conv_output_0"
    input: "/model.12/cv1/act/Sigmoid_output_0"
    output: "/model.12/cv1/act/Mul_output_0"
    name: "/model.12/cv1/act/Mul"
    op_type: "Mul"
  }
  node {
    input: "/model.12/cv1/act/Mul_output_0"
    input: "onnx::Split_184"
    output: "/model.12/Split_output_0"
    output: "/model.12/Split_output_1"
    name: "/model.12/Split"
    op_type: "Split"
    attribute {
      name: "axis"
      i: 1
      type: INT
    }
  }
  node {
    input: "/model.12/Split_output_1"
    output: "/model.12/Split_output_1_quantized"
    output: "/model.12/Split_output_1_scale"
    output: "/model.12/Split_output_1_zero_point"
    name: "/model.12/Split_output_1_QuantizeLinear"
    op_type: "DynamicQuantizeLinear"
  }
  node {
    input: "/model.12/Split_output_1_scale"
    input: "model.12.m.0.cv1.conv.weight_scale"
    output: "/model.12/m.0/cv1/conv/Conv_quant_scales_mul:0"
    name: "/model.12/m.0/cv1/conv/Conv_quant_scales_mul"
    op_type: "Mul"
  }
  node {
    input: "/model.12/Split_output_1_quantized"
    input: "model.12.m.0.cv1.conv.weight_quantized"
    input: "/model.12/Split_output_1_zero_point"
    input: "model.12.m.0.cv1.conv.weight_zero_point"
    output: "/model.12/m.0/cv1/conv/Conv_output_0_output_quantized"
    name: "/model.12/m.0/cv1/conv/Conv_quant"
    op_type: "Conv"
    attribute {
      name: "dilations"
      ints: 1
      ints: 1
      type: INTS
    }
    attribute {
      name: "group"
      i: 1
      type: INT
    }
    attribute {
      name: "kernel_shape"
      ints: 3
      ints: 3
      type: INTS
    }
    attribute {
      name: "pads"
      ints: 1
      ints: 1
      ints: 1
      ints: 1
      type: INTS
    }
    attribute {
      name: "strides"
      ints: 1
      ints: 1
      type: INTS
    }
  }
  node {
    input: "/model.12/m.0/cv1/conv/Conv_output_0_output_quantized"
    output: "/model.12/m.0/cv1/conv/Conv_output_0_output_quantized_cast_output"
    name: "/model.12/m.0/cv1/conv/Conv_output_0_output_quantized_cast"
    op_type: "Cast"
    attribute {
      name: "to"
      i: 1
      type: INT
    }
  }
  node {
    input: "/model.12/m.0/cv1/conv/Conv_output_0_output_quantized_cast_output"
    input: "/model.12/m.0/cv1/conv/Conv_quant_scales_mul:0"
    output: "/model.12/m.0/cv1/conv/Conv_output_0quant_scaled_output"
    name: "/model.12/m.0/cv1/conv/Conv_quant_output_scale_mul"
    op_type: "Mul"
  }
  node {
    input: "/model.12/m.0/cv1/conv/Conv_output_0quant_scaled_output"
    input: "/model.12/m.0/cv1/conv/Conv_output_0_bias_reshape_output"
    output: "/model.12/m.0/cv1/conv/Conv_output_0"
    name: "/model.12/m.0/cv1/conv/Conv_output_0_bias_add"
    op_type: "Add"
  }
  node {
    input: "/model.12/m.0/cv1/conv/Conv_output_0"
    output: "/model.12/m.0/cv1/act/Sigmoid_output_0"
    name: "/model.12/m.0/cv1/act/Sigmoid"
    op_type: "Sigmoid"
  }
  node {
    input: "/model.12/m.0/cv1/conv/Conv_output_0"
    input: "/model.12/m.0/cv1/act/Sigmoid_output_0"
    output: "/model.12/m.0/cv1/act/Mul_output_0"
    name: "/model.12/m.0/cv1/act/Mul"
    op_type: "Mul"
  }
  node {
    input: "/model.12/m.0/cv1/act/Mul_output_0"
    output: "/model.12/m.0/cv1/act/Mul_output_0_quantized"
    output: "/model.12/m.0/cv1/act/Mul_output_0_scale"
    output: "/model.12/m.0/cv1/act/Mul_output_0_zero_point"
    name: "/model.12/m.0/cv1/act/Mul_output_0_QuantizeLinear"
    op_type: "DynamicQuantizeLinear"
  }
  node {
    input: "/model.12/m.0/cv1/act/Mul_output_0_scale"
    input: "model.12.m.0.cv2.conv.weight_scale"
    output: "/model.12/m.0/cv2/conv/Conv_quant_scales_mul:0"
    name: "/model.12/m.0/cv2/conv/Conv_quant_scales_mul"
    op_type: "Mul"
  }
  node {
    input: "/model.12/m.0/cv1/act/Mul_output_0_quantized"
    input: "model.12.m.0.cv2.conv.weight_quantized"
    input: "/model.12/m.0/cv1/act/Mul_output_0_zero_point"
    input: "model.12.m.0.cv2.conv.weight_zero_point"
    output: "/model.12/m.0/cv2/conv/Conv_output_0_output_quantized"
    name: "/model.12/m.0/cv2/conv/Conv_quant"
    op_type: "Conv"
    attribute {
      name: "dilations"
      ints: 1
      ints: 1
      type: INTS
    }
    attribute {
      name: "group"
      i: 1
      type: INT
    }
    attribute {
      name: "kernel_shape"
      ints: 3
      ints: 3
      type: INTS
    }
    attribute {
      name: "pads"
      ints: 1
      ints: 1
      ints: 1
      ints: 1
      type: INTS
    }
    attribute {
      name: "strides"
      ints: 1
      ints: 1
      type: INTS
    }
  }
  node {
    input: "/model.12/m.0/cv2/conv/Conv_output_0_output_quantized"
    output: "/model.12/m.0/cv2/conv/Conv_output_0_output_quantized_cast_output"
    name: "/model.12/m.0/cv2/conv/Conv_output_0_output_quantized_cast"
    op_type: "Cast"
    attribute {
      name: "to"
      i: 1
      type: INT
    }
  }
  node {
    input: "/model.12/m.0/cv2/conv/Conv_output_0_output_quantized_cast_output"
    input: "/model.12/m.0/cv2/conv/Conv_quant_scales_mul:0"
    output: "/model.12/m.0/cv2/conv/Conv_output_0quant_scaled_output"
    name: "/model.12/m.0/cv2/conv/Conv_quant_output_scale_mul"
    op_type: "Mul"
  }
  node {
    input: "/model.12/m.0/cv2/conv/Conv_output_0quant_scaled_output"
    input: "/model.12/m.0/cv2/conv/Conv_output_0_bias_reshape_output"
    output: "/model.12/m.0/cv2/conv/Conv_output_0"
    name: "/model.12/m.0/cv2/conv/Conv_output_0_bias_add"
    op_type: "Add"
  }
  node {
    input: "/model.12/m.0/cv2/conv/Conv_output_0"
    output: "/model.12/m.0/cv2/act/Sigmoid_output_0"
    name: "/model.12/m.0/cv2/act/Sigmoid"
    op_type: "Sigmoid"
  }
  node {
    input: "/model.12/m.0/cv2/conv/Conv_output_0"
    input: "/model.12/m.0/cv2/act/Sigmoid_output_0"
    output: "/model.12/m.0/cv2/act/Mul_output_0"
    name: "/model.12/m.0/cv2/act/Mul"
    op_type: "Mul"
  }
  node {
    input: "/model.12/Split_output_0"
    input: "/model.12/Split_output_1"
    input: "/model.12/m.0/cv2/act/Mul_output_0"
    output: "/model.12/Concat_output_0"
    name: "/model.12/Concat"
    op_type: "Concat"
    attribute {
      name: "axis"
      i: 1
      type: INT
    }
  }
  node {
    input: "/model.12/Concat_output_0"
    output: "/model.12/Concat_output_0_quantized"
    output: "/model.12/Concat_output_0_scale"
    output: "/model.12/Concat_output_0_zero_point"
    name: "/model.12/Concat_output_0_QuantizeLinear"
    op_type: "DynamicQuantizeLinear"
  }
  node {
    input: "/model.12/Concat_output_0_scale"
    input: "model.12.cv2.conv.weight_scale"
    output: "/model.12/cv2/conv/Conv_quant_scales_mul:0"
    name: "/model.12/cv2/conv/Conv_quant_scales_mul"
    op_type: "Mul"
  }
  node {
    input: "/model.12/Concat_output_0_quantized"
    input: "model.12.cv2.conv.weight_quantized"
    input: "/model.12/Concat_output_0_zero_point"
    input: "model.12.cv2.conv.weight_zero_point"
    output: "/model.12/cv2/conv/Conv_output_0_output_quantized"
    name: "/model.12/cv2/conv/Conv_quant"
    op_type: "Conv"
    attribute {
      name: "dilations"
      ints: 1
      ints: 1
      type: INTS
    }
    attribute {
      name: "group"
      i: 1
      type: INT
    }
    attribute {
      name: "kernel_shape"
      ints: 1
      ints: 1
      type: INTS
    }
    attribute {
      name: "pads"
      ints: 0
      ints: 0
      ints: 0
      ints: 0
      type: INTS
    }
    attribute {
      name: "strides"
      ints: 1
      ints: 1
      type: INTS
    }
  }
  node {
    input: "/model.12/cv2/conv/Conv_output_0_output_quantized"
    output: "/model.12/cv2/conv/Conv_output_0_output_quantized_cast_output"
    name: "/model.12/cv2/conv/Conv_output_0_output_quantized_cast"
    op_type: "Cast"
    attribute {
      name: "to"
      i: 1
      type: INT
    }
  }
  node {
    input: "/model.12/cv2/conv/Conv_output_0_output_quantized_cast_output"
    input: "/model.12/cv2/conv/Conv_quant_scales_mul:0"
    output: "/model.12/cv2/conv/Conv_output_0quant_scaled_output"
    name: "/model.12/cv2/conv/Conv_quant_output_scale_mul"
    op_type: "Mul"
  }
  node {
    input: "/model.12/cv2/conv/Conv_output_0quant_scaled_output"
    input: "/model.12/cv2/conv/Conv_output_0_bias_reshape_output"
    output: "/model.12/cv2/conv/Conv_output_0"
    name: "/model.12/cv2/conv/Conv_output_0_bias_add"
    op_type: "Add"
  }
  node {
    input: "/model.12/cv2/conv/Conv_output_0"
    output: "/model.12/cv2/act/Sigmoid_output_0"
    name: "/model.12/cv2/act/Sigmoid"
    op_type: "Sigmoid"
  }
  node {
    input: "/model.12/cv2/conv/Conv_output_0"
    input: "/model.12/cv2/act/Sigmoid_output_0"
    output: "/model.12/cv2/act/Mul_output_0"
    name: "/model.12/cv2/act/Mul"
    op_type: "Mul"
  }
  node {
    input: "/model.12/cv2/act/Mul_output_0"
    input: ""
    input: "/model.10/Constant_output_0"
    output: "/model.13/Resize_output_0"
    name: "/model.13/Resize"
    op_type: "Resize"
    attribute {
      name: "coordinate_transformation_mode"
      s: "asymmetric"
      type: STRING
    }
    attribute {
      name: "cubic_coeff_a"
      f: -0.75
      type: FLOAT
    }
    attribute {
      name: "mode"
      s: "nearest"
      type: STRING
    }
    attribute {
      name: "nearest_mode"
      s: "floor"
      type: STRING
    }
  }
  node {
    input: "/model.13/Resize_output_0"
    input: "/model.4/cv2/act/Mul_output_0"
    output: "/model.14/Concat_output_0"
    name: "/model.14/Concat"
    op_type: "Concat"
    attribute {
      name: "axis"
      i: 1
      type: INT
    }
  }
  node {
    input: "/model.14/Concat_output_0"
    output: "/model.14/Concat_output_0_quantized"
    output: "/model.14/Concat_output_0_scale"
    output: "/model.14/Concat_output_0_zero_point"
    name: "/model.14/Concat_output_0_QuantizeLinear"
    op_type: "DynamicQuantizeLinear"
  }
  node {
    input: "/model.14/Concat_output_0_scale"
    input: "model.15.cv1.conv.weight_scale"
    output: "/model.15/cv1/conv/Conv_quant_scales_mul:0"
    name: "/model.15/cv1/conv/Conv_quant_scales_mul"
    op_type: "Mul"
  }
  node {
    input: "/model.14/Concat_output_0_quantized"
    input: "model.15.cv1.conv.weight_quantized"
    input: "/model.14/Concat_output_0_zero_point"
    input: "model.15.cv1.conv.weight_zero_point"
    output: "/model.15/cv1/conv/Conv_output_0_output_quantized"
    name: "/model.15/cv1/conv/Conv_quant"
    op_type: "Conv"
    attribute {
      name: "dilations"
      ints: 1
      ints: 1
      type: INTS
    }
    attribute {
      name: "group"
      i: 1
      type: INT
    }
    attribute {
      name: "kernel_shape"
      ints: 1
      ints: 1
      type: INTS
    }
    attribute {
      name: "pads"
      ints: 0
      ints: 0
      ints: 0
      ints: 0
      type: INTS
    }
    attribute {
      name: "strides"
      ints: 1
      ints: 1
      type: INTS
    }
  }
  node {
    input: "/model.15/cv1/conv/Conv_output_0_output_quantized"
    output: "/model.15/cv1/conv/Conv_output_0_output_quantized_cast_output"
    name: "/model.15/cv1/conv/Conv_output_0_output_quantized_cast"
    op_type: "Cast"
    attribute {
      name: "to"
      i: 1
      type: INT
    }
  }
  node {
    input: "/model.15/cv1/conv/Conv_output_0_output_quantized_cast_output"
    input: "/model.15/cv1/conv/Conv_quant_scales_mul:0"
    output: "/model.15/cv1/conv/Conv_output_0quant_scaled_output"
    name: "/model.15/cv1/conv/Conv_quant_output_scale_mul"
    op_type: "Mul"
  }
  node {
    input: "/model.15/cv1/conv/Conv_output_0quant_scaled_output"
    input: "/model.15/cv1/conv/Conv_output_0_bias_reshape_output"
    output: "/model.15/cv1/conv/Conv_output_0"
    name: "/model.15/cv1/conv/Conv_output_0_bias_add"
    op_type: "Add"
  }
  node {
    input: "/model.15/cv1/conv/Conv_output_0"
    output: "/model.15/cv1/act/Sigmoid_output_0"
    name: "/model.15/cv1/act/Sigmoid"
    op_type: "Sigmoid"
  }
  node {
    input: "/model.15/cv1/conv/Conv_output_0"
    input: "/model.15/cv1/act/Sigmoid_output_0"
    output: "/model.15/cv1/act/Mul_output_0"
    name: "/model.15/cv1/act/Mul"
    op_type: "Mul"
  }
  node {
    input: "/model.15/cv1/act/Mul_output_0"
    input: "onnx::Split_157"
    output: "/model.15/Split_output_0"
    output: "/model.15/Split_output_1"
    name: "/model.15/Split"
    op_type: "Split"
    attribute {
      name: "axis"
      i: 1
      type: INT
    }
  }
  node {
    input: "/model.15/Split_output_1"
    output: "/model.15/Split_output_1_quantized"
    output: "/model.15/Split_output_1_scale"
    output: "/model.15/Split_output_1_zero_point"
    name: "/model.15/Split_output_1_QuantizeLinear"
    op_type: "DynamicQuantizeLinear"
  }
  node {
    input: "/model.15/Split_output_1_scale"
    input: "model.15.m.0.cv1.conv.weight_scale"
    output: "/model.15/m.0/cv1/conv/Conv_quant_scales_mul:0"
    name: "/model.15/m.0/cv1/conv/Conv_quant_scales_mul"
    op_type: "Mul"
  }
  node {
    input: "/model.15/Split_output_1_quantized"
    input: "model.15.m.0.cv1.conv.weight_quantized"
    input: "/model.15/Split_output_1_zero_point"
    input: "model.15.m.0.cv1.conv.weight_zero_point"
    output: "/model.15/m.0/cv1/conv/Conv_output_0_output_quantized"
    name: "/model.15/m.0/cv1/conv/Conv_quant"
    op_type: "Conv"
    attribute {
      name: "dilations"
      ints: 1
      ints: 1
      type: INTS
    }
    attribute {
      name: "group"
      i: 1
      type: INT
    }
    attribute {
      name: "kernel_shape"
      ints: 3
      ints: 3
      type: INTS
    }
    attribute {
      name: "pads"
      ints: 1
      ints: 1
      ints: 1
      ints: 1
      type: INTS
    }
    attribute {
      name: "strides"
      ints: 1
      ints: 1
      type: INTS
    }
  }
  node {
    input: "/model.15/m.0/cv1/conv/Conv_output_0_output_quantized"
    output: "/model.15/m.0/cv1/conv/Conv_output_0_output_quantized_cast_output"
    name: "/model.15/m.0/cv1/conv/Conv_output_0_output_quantized_cast"
    op_type: "Cast"
    attribute {
      name: "to"
      i: 1
      type: INT
    }
  }
  node {
    input: "/model.15/m.0/cv1/conv/Conv_output_0_output_quantized_cast_output"
    input: "/model.15/m.0/cv1/conv/Conv_quant_scales_mul:0"
    output: "/model.15/m.0/cv1/conv/Conv_output_0quant_scaled_output"
    name: "/model.15/m.0/cv1/conv/Conv_quant_output_scale_mul"
    op_type: "Mul"
  }
  node {
    input: "/model.15/m.0/cv1/conv/Conv_output_0quant_scaled_output"
    input: "/model.15/m.0/cv1/conv/Conv_output_0_bias_reshape_output"
    output: "/model.15/m.0/cv1/conv/Conv_output_0"
    name: "/model.15/m.0/cv1/conv/Conv_output_0_bias_add"
    op_type: "Add"
  }
  node {
    input: "/model.15/m.0/cv1/conv/Conv_output_0"
    output: "/model.15/m.0/cv1/act/Sigmoid_output_0"
    name: "/model.15/m.0/cv1/act/Sigmoid"
    op_type: "Sigmoid"
  }
  node {
    input: "/model.15/m.0/cv1/conv/Conv_output_0"
    input: "/model.15/m.0/cv1/act/Sigmoid_output_0"
    output: "/model.15/m.0/cv1/act/Mul_output_0"
    name: "/model.15/m.0/cv1/act/Mul"
    op_type: "Mul"
  }
  node {
    input: "/model.15/m.0/cv1/act/Mul_output_0"
    output: "/model.15/m.0/cv1/act/Mul_output_0_quantized"
    output: "/model.15/m.0/cv1/act/Mul_output_0_scale"
    output: "/model.15/m.0/cv1/act/Mul_output_0_zero_point"
    name: "/model.15/m.0/cv1/act/Mul_output_0_QuantizeLinear"
    op_type: "DynamicQuantizeLinear"
  }
  node {
    input: "/model.15/m.0/cv1/act/Mul_output_0_scale"
    input: "model.15.m.0.cv2.conv.weight_scale"
    output: "/model.15/m.0/cv2/conv/Conv_quant_scales_mul:0"
    name: "/model.15/m.0/cv2/conv/Conv_quant_scales_mul"
    op_type: "Mul"
  }
  node {
    input: "/model.15/m.0/cv1/act/Mul_output_0_quantized"
    input: "model.15.m.0.cv2.conv.weight_quantized"
    input: "/model.15/m.0/cv1/act/Mul_output_0_zero_point"
    input: "model.15.m.0.cv2.conv.weight_zero_point"
    output: "/model.15/m.0/cv2/conv/Conv_output_0_output_quantized"
    name: "/model.15/m.0/cv2/conv/Conv_quant"
    op_type: "Conv"
    attribute {
      name: "dilations"
      ints: 1
      ints: 1
      type: INTS
    }
    attribute {
      name: "group"
      i: 1
      type: INT
    }
    attribute {
      name: "kernel_shape"
      ints: 3
      ints: 3
      type: INTS
    }
    attribute {
      name: "pads"
      ints: 1
      ints: 1
      ints: 1
      ints: 1
      type: INTS
    }
    attribute {
      name: "strides"
      ints: 1
      ints: 1
      type: INTS
    }
  }
  node {
    input: "/model.15/m.0/cv2/conv/Conv_output_0_output_quantized"
    output: "/model.15/m.0/cv2/conv/Conv_output_0_output_quantized_cast_output"
    name: "/model.15/m.0/cv2/conv/Conv_output_0_output_quantized_cast"
    op_type: "Cast"
    attribute {
      name: "to"
      i: 1
      type: INT
    }
  }
  node {
    input: "/model.15/m.0/cv2/conv/Conv_output_0_output_quantized_cast_output"
    input: "/model.15/m.0/cv2/conv/Conv_quant_scales_mul:0"
    output: "/model.15/m.0/cv2/conv/Conv_output_0quant_scaled_output"
    name: "/model.15/m.0/cv2/conv/Conv_quant_output_scale_mul"
    op_type: "Mul"
  }
  node {
    input: "/model.15/m.0/cv2/conv/Conv_output_0quant_scaled_output"
    input: "/model.15/m.0/cv2/conv/Conv_output_0_bias_reshape_output"
    output: "/model.15/m.0/cv2/conv/Conv_output_0"
    name: "/model.15/m.0/cv2/conv/Conv_output_0_bias_add"
    op_type: "Add"
  }
  node {
    input: "/model.15/m.0/cv2/conv/Conv_output_0"
    output: "/model.15/m.0/cv2/act/Sigmoid_output_0"
    name: "/model.15/m.0/cv2/act/Sigmoid"
    op_type: "Sigmoid"
  }
  node {
    input: "/model.15/m.0/cv2/conv/Conv_output_0"
    input: "/model.15/m.0/cv2/act/Sigmoid_output_0"
    output: "/model.15/m.0/cv2/act/Mul_output_0"
    name: "/model.15/m.0/cv2/act/Mul"
    op_type: "Mul"
  }
  node {
    input: "/model.15/Split_output_0"
    input: "/model.15/Split_output_1"
    input: "/model.15/m.0/cv2/act/Mul_output_0"
    output: "/model.15/Concat_output_0"
    name: "/model.15/Concat"
    op_type: "Concat"
    attribute {
      name: "axis"
      i: 1
      type: INT
    }
  }
  node {
    input: "/model.15/Concat_output_0"
    output: "/model.15/Concat_output_0_quantized"
    output: "/model.15/Concat_output_0_scale"
    output: "/model.15/Concat_output_0_zero_point"
    name: "/model.15/Concat_output_0_QuantizeLinear"
    op_type: "DynamicQuantizeLinear"
  }
  node {
    input: "/model.15/Concat_output_0_scale"
    input: "model.15.cv2.conv.weight_scale"
    output: "/model.15/cv2/conv/Conv_quant_scales_mul:0"
    name: "/model.15/cv2/conv/Conv_quant_scales_mul"
    op_type: "Mul"
  }
  node {
    input: "/model.15/Concat_output_0_quantized"
    input: "model.15.cv2.conv.weight_quantized"
    input: "/model.15/Concat_output_0_zero_point"
    input: "model.15.cv2.conv.weight_zero_point"
    output: "/model.15/cv2/conv/Conv_output_0_output_quantized"
    name: "/model.15/cv2/conv/Conv_quant"
    op_type: "Conv"
    attribute {
      name: "dilations"
      ints: 1
      ints: 1
      type: INTS
    }
    attribute {
      name: "group"
      i: 1
      type: INT
    }
    attribute {
      name: "kernel_shape"
      ints: 1
      ints: 1
      type: INTS
    }
    attribute {
      name: "pads"
      ints: 0
      ints: 0
      ints: 0
      ints: 0
      type: INTS
    }
    attribute {
      name: "strides"
      ints: 1
      ints: 1
      type: INTS
    }
  }
  node {
    input: "/model.15/cv2/conv/Conv_output_0_output_quantized"
    output: "/model.15/cv2/conv/Conv_output_0_output_quantized_cast_output"
    name: "/model.15/cv2/conv/Conv_output_0_output_quantized_cast"
    op_type: "Cast"
    attribute {
      name: "to"
      i: 1
      type: INT
    }
  }
  node {
    input: "/model.15/cv2/conv/Conv_output_0_output_quantized_cast_output"
    input: "/model.15/cv2/conv/Conv_quant_scales_mul:0"
    output: "/model.15/cv2/conv/Conv_output_0quant_scaled_output"
    name: "/model.15/cv2/conv/Conv_quant_output_scale_mul"
    op_type: "Mul"
  }
  node {
    input: "/model.15/cv2/conv/Conv_output_0quant_scaled_output"
    input: "/model.15/cv2/conv/Conv_output_0_bias_reshape_output"
    output: "/model.15/cv2/conv/Conv_output_0"
    name: "/model.15/cv2/conv/Conv_output_0_bias_add"
    op_type: "Add"
  }
  node {
    input: "/model.15/cv2/conv/Conv_output_0"
    output: "/model.15/cv2/act/Sigmoid_output_0"
    name: "/model.15/cv2/act/Sigmoid"
    op_type: "Sigmoid"
  }
  node {
    input: "/model.15/cv2/conv/Conv_output_0"
    input: "/model.15/cv2/act/Sigmoid_output_0"
    output: "/model.15/cv2/act/Mul_output_0"
    name: "/model.15/cv2/act/Mul"
    op_type: "Mul"
  }
  node {
    input: "/model.15/cv2/act/Mul_output_0"
    output: "/model.15/cv2/act/Mul_output_0_quantized"
    output: "/model.15/cv2/act/Mul_output_0_scale"
    output: "/model.15/cv2/act/Mul_output_0_zero_point"
    name: "/model.15/cv2/act/Mul_output_0_QuantizeLinear"
    op_type: "DynamicQuantizeLinear"
  }
  node {
    input: "/model.15/cv2/act/Mul_output_0_scale"
    input: "model.16.conv.weight_scale"
    output: "/model.16/conv/Conv_quant_scales_mul:0"
    name: "/model.16/conv/Conv_quant_scales_mul"
    op_type: "Mul"
  }
  node {
    input: "/model.15/cv2/act/Mul_output_0_scale"
    input: "model.22.cv2.0.0.conv.weight_scale"
    output: "/model.22/cv2.0/cv2.0.0/conv/Conv_quant_scales_mul:0"
    name: "/model.22/cv2.0/cv2.0.0/conv/Conv_quant_scales_mul"
    op_type: "Mul"
  }
  node {
    input: "/model.15/cv2/act/Mul_output_0_scale"
    input: "model.22.cv3.0.0.conv.weight_scale"
    output: "/model.22/cv3.0/cv3.0.0/conv/Conv_quant_scales_mul:0"
    name: "/model.22/cv3.0/cv3.0.0/conv/Conv_quant_scales_mul"
    op_type: "Mul"
  }
  node {
    input: "/model.15/cv2/act/Mul_output_0_quantized"
    input: "model.16.conv.weight_quantized"
    input: "/model.15/cv2/act/Mul_output_0_zero_point"
    input: "model.16.conv.weight_zero_point"
    output: "/model.16/conv/Conv_output_0_output_quantized"
    name: "/model.16/conv/Conv_quant"
    op_type: "Conv"
    attribute {
      name: "dilations"
      ints: 1
      ints: 1
      type: INTS
    }
    attribute {
      name: "group"
      i: 1
      type: INT
    }
    attribute {
      name: "kernel_shape"
      ints: 3
      ints: 3
      type: INTS
    }
    attribute {
      name: "pads"
      ints: 1
      ints: 1
      ints: 1
      ints: 1
      type: INTS
    }
    attribute {
      name: "strides"
      ints: 2
      ints: 2
      type: INTS
    }
  }
  node {
    input: "/model.15/cv2/act/Mul_output_0_quantized"
    input: "model.22.cv2.0.0.conv.weight_quantized"
    input: "/model.15/cv2/act/Mul_output_0_zero_point"
    input: "model.22.cv2.0.0.conv.weight_zero_point"
    output: "/model.22/cv2.0/cv2.0.0/conv/Conv_output_0_output_quantized"
    name: "/model.22/cv2.0/cv2.0.0/conv/Conv_quant"
    op_type: "Conv"
    attribute {
      name: "dilations"
      ints: 1
      ints: 1
      type: INTS
    }
    attribute {
      name: "group"
      i: 1
      type: INT
    }
    attribute {
      name: "kernel_shape"
      ints: 3
      ints: 3
      type: INTS
    }
    attribute {
      name: "pads"
      ints: 1
      ints: 1
      ints: 1
      ints: 1
      type: INTS
    }
    attribute {
      name: "strides"
      ints: 1
      ints: 1
      type: INTS
    }
  }
  node {
    input: "/model.15/cv2/act/Mul_output_0_quantized"
    input: "model.22.cv3.0.0.conv.weight_quantized"
    input: "/model.15/cv2/act/Mul_output_0_zero_point"
    input: "model.22.cv3.0.0.conv.weight_zero_point"
    output: "/model.22/cv3.0/cv3.0.0/conv/Conv_output_0_output_quantized"
    name: "/model.22/cv3.0/cv3.0.0/conv/Conv_quant"
    op_type: "Conv"
    attribute {
      name: "dilations"
      ints: 1
      ints: 1
      type: INTS
    }
    attribute {
      name: "group"
      i: 1
      type: INT
    }
    attribute {
      name: "kernel_shape"
      ints: 3
      ints: 3
      type: INTS
    }
    attribute {
      name: "pads"
      ints: 1
      ints: 1
      ints: 1
      ints: 1
      type: INTS
    }
    attribute {
      name: "strides"
      ints: 1
      ints: 1
      type: INTS
    }
  }
  node {
    input: "/model.16/conv/Conv_output_0_output_quantized"
    output: "/model.16/conv/Conv_output_0_output_quantized_cast_output"
    name: "/model.16/conv/Conv_output_0_output_quantized_cast"
    op_type: "Cast"
    attribute {
      name: "to"
      i: 1
      type: INT
    }
  }
  node {
    input: "/model.22/cv2.0/cv2.0.0/conv/Conv_output_0_output_quantized"
    output: "/model.22/cv2.0/cv2.0.0/conv/Conv_output_0_output_quantized_cast_output"
    name: "/model.22/cv2.0/cv2.0.0/conv/Conv_output_0_output_quantized_cast"
    op_type: "Cast"
    attribute {
      name: "to"
      i: 1
      type: INT
    }
  }
  node {
    input: "/model.22/cv3.0/cv3.0.0/conv/Conv_output_0_output_quantized"
    output: "/model.22/cv3.0/cv3.0.0/conv/Conv_output_0_output_quantized_cast_output"
    name: "/model.22/cv3.0/cv3.0.0/conv/Conv_output_0_output_quantized_cast"
    op_type: "Cast"
    attribute {
      name: "to"
      i: 1
      type: INT
    }
  }
  node {
    input: "/model.16/conv/Conv_output_0_output_quantized_cast_output"
    input: "/model.16/conv/Conv_quant_scales_mul:0"
    output: "/model.16/conv/Conv_output_0quant_scaled_output"
    name: "/model.16/conv/Conv_quant_output_scale_mul"
    op_type: "Mul"
  }
  node {
    input: "/model.22/cv2.0/cv2.0.0/conv/Conv_output_0_output_quantized_cast_output"
    input: "/model.22/cv2.0/cv2.0.0/conv/Conv_quant_scales_mul:0"
    output: "/model.22/cv2.0/cv2.0.0/conv/Conv_output_0quant_scaled_output"
    name: "/model.22/cv2.0/cv2.0.0/conv/Conv_quant_output_scale_mul"
    op_type: "Mul"
  }
  node {
    input: "/model.22/cv3.0/cv3.0.0/conv/Conv_output_0_output_quantized_cast_output"
    input: "/model.22/cv3.0/cv3.0.0/conv/Conv_quant_scales_mul:0"
    output: "/model.22/cv3.0/cv3.0.0/conv/Conv_output_0quant_scaled_output"
    name: "/model.22/cv3.0/cv3.0.0/conv/Conv_quant_output_scale_mul"
    op_type: "Mul"
  }
  node {
    input: "/model.16/conv/Conv_output_0quant_scaled_output"
    input: "/model.16/conv/Conv_output_0_bias_reshape_output"
    output: "/model.16/conv/Conv_output_0"
    name: "/model.16/conv/Conv_output_0_bias_add"
    op_type: "Add"
  }
  node {
    input: "/model.22/cv2.0/cv2.0.0/conv/Conv_output_0quant_scaled_output"
    input: "/model.22/cv2.0/cv2.0.0/conv/Conv_output_0_bias_reshape_output"
    output: "/model.22/cv2.0/cv2.0.0/conv/Conv_output_0"
    name: "/model.22/cv2.0/cv2.0.0/conv/Conv_output_0_bias_add"
    op_type: "Add"
  }
  node {
    input: "/model.22/cv3.0/cv3.0.0/conv/Conv_output_0quant_scaled_output"
    input: "/model.22/cv3.0/cv3.0.0/conv/Conv_output_0_bias_reshape_output"
    output: "/model.22/cv3.0/cv3.0.0/conv/Conv_output_0"
    name: "/model.22/cv3.0/cv3.0.0/conv/Conv_output_0_bias_add"
    op_type: "Add"
  }
  node {
    input: "/model.16/conv/Conv_output_0"
    output: "/model.16/act/Sigmoid_output_0"
    name: "/model.16/act/Sigmoid"
    op_type: "Sigmoid"
  }
  node {
    input: "/model.22/cv2.0/cv2.0.0/conv/Conv_output_0"
    output: "/model.22/cv2.0/cv2.0.0/act/Sigmoid_output_0"
    name: "/model.22/cv2.0/cv2.0.0/act/Sigmoid"
    op_type: "Sigmoid"
  }
  node {
    input: "/model.22/cv3.0/cv3.0.0/conv/Conv_output_0"
    output: "/model.22/cv3.0/cv3.0.0/act/Sigmoid_output_0"
    name: "/model.22/cv3.0/cv3.0.0/act/Sigmoid"
    op_type: "Sigmoid"
  }
  node {
    input: "/model.16/conv/Conv_output_0"
    input: "/model.16/act/Sigmoid_output_0"
    output: "/model.16/act/Mul_output_0"
    name: "/model.16/act/Mul"
    op_type: "Mul"
  }
  node {
    input: "/model.22/cv2.0/cv2.0.0/conv/Conv_output_0"
    input: "/model.22/cv2.0/cv2.0.0/act/Sigmoid_output_0"
    output: "/model.22/cv2.0/cv2.0.0/act/Mul_output_0"
    name: "/model.22/cv2.0/cv2.0.0/act/Mul"
    op_type: "Mul"
  }
  node {
    input: "/model.22/cv3.0/cv3.0.0/conv/Conv_output_0"
    input: "/model.22/cv3.0/cv3.0.0/act/Sigmoid_output_0"
    output: "/model.22/cv3.0/cv3.0.0/act/Mul_output_0"
    name: "/model.22/cv3.0/cv3.0.0/act/Mul"
    op_type: "Mul"
  }
  node {
    input: "/model.16/act/Mul_output_0"
    input: "/model.12/cv2/act/Mul_output_0"
    output: "/model.17/Concat_output_0"
    name: "/model.17/Concat"
    op_type: "Concat"
    attribute {
      name: "axis"
      i: 1
      type: INT
    }
  }
  node {
    input: "/model.22/cv2.0/cv2.0.0/act/Mul_output_0"
    output: "/model.22/cv2.0/cv2.0.0/act/Mul_output_0_quantized"
    output: "/model.22/cv2.0/cv2.0.0/act/Mul_output_0_scale"
    output: "/model.22/cv2.0/cv2.0.0/act/Mul_output_0_zero_point"
    name: "/model.22/cv2.0/cv2.0.0/act/Mul_output_0_QuantizeLinear"
    op_type: "DynamicQuantizeLinear"
  }
  node {
    input: "/model.22/cv3.0/cv3.0.0/act/Mul_output_0"
    output: "/model.22/cv3.0/cv3.0.0/act/Mul_output_0_quantized"
    output: "/model.22/cv3.0/cv3.0.0/act/Mul_output_0_scale"
    output: "/model.22/cv3.0/cv3.0.0/act/Mul_output_0_zero_point"
    name: "/model.22/cv3.0/cv3.0.0/act/Mul_output_0_QuantizeLinear"
    op_type: "DynamicQuantizeLinear"
  }
  node {
    input: "/model.17/Concat_output_0"
    output: "/model.17/Concat_output_0_quantized"
    output: "/model.17/Concat_output_0_scale"
    output: "/model.17/Concat_output_0_zero_point"
    name: "/model.17/Concat_output_0_QuantizeLinear"
    op_type: "DynamicQuantizeLinear"
  }
  node {
    input: "/model.22/cv2.0/cv2.0.0/act/Mul_output_0_scale"
    input: "model.22.cv2.0.1.conv.weight_scale"
    output: "/model.22/cv2.0/cv2.0.1/conv/Conv_quant_scales_mul:0"
    name: "/model.22/cv2.0/cv2.0.1/conv/Conv_quant_scales_mul"
    op_type: "Mul"
  }
  node {
    input: "/model.22/cv2.0/cv2.0.0/act/Mul_output_0_quantized"
    input: "model.22.cv2.0.1.conv.weight_quantized"
    input: "/model.22/cv2.0/cv2.0.0/act/Mul_output_0_zero_point"
    input: "model.22.cv2.0.1.conv.weight_zero_point"
    output: "/model.22/cv2.0/cv2.0.1/conv/Conv_output_0_output_quantized"
    name: "/model.22/cv2.0/cv2.0.1/conv/Conv_quant"
    op_type: "Conv"
    attribute {
      name: "dilations"
      ints: 1
      ints: 1
      type: INTS
    }
    attribute {
      name: "group"
      i: 1
      type: INT
    }
    attribute {
      name: "kernel_shape"
      ints: 3
      ints: 3
      type: INTS
    }
    attribute {
      name: "pads"
      ints: 1
      ints: 1
      ints: 1
      ints: 1
      type: INTS
    }
    attribute {
      name: "strides"
      ints: 1
      ints: 1
      type: INTS
    }
  }
  node {
    input: "/model.22/cv3.0/cv3.0.0/act/Mul_output_0_scale"
    input: "model.22.cv3.0.1.conv.weight_scale"
    output: "/model.22/cv3.0/cv3.0.1/conv/Conv_quant_scales_mul:0"
    name: "/model.22/cv3.0/cv3.0.1/conv/Conv_quant_scales_mul"
    op_type: "Mul"
  }
  node {
    input: "/model.22/cv3.0/cv3.0.0/act/Mul_output_0_quantized"
    input: "model.22.cv3.0.1.conv.weight_quantized"
    input: "/model.22/cv3.0/cv3.0.0/act/Mul_output_0_zero_point"
    input: "model.22.cv3.0.1.conv.weight_zero_point"
    output: "/model.22/cv3.0/cv3.0.1/conv/Conv_output_0_output_quantized"
    name: "/model.22/cv3.0/cv3.0.1/conv/Conv_quant"
    op_type: "Conv"
    attribute {
      name: "dilations"
      ints: 1
      ints: 1
      type: INTS
    }
    attribute {
      name: "group"
      i: 1
      type: INT
    }
    attribute {
      name: "kernel_shape"
      ints: 3
      ints: 3
      type: INTS
    }
    attribute {
      name: "pads"
      ints: 1
      ints: 1
      ints: 1
      ints: 1
      type: INTS
    }
    attribute {
      name: "strides"
      ints: 1
      ints: 1
      type: INTS
    }
  }
  node {
    input: "/model.17/Concat_output_0_scale"
    input: "model.18.cv1.conv.weight_scale"
    output: "/model.18/cv1/conv/Conv_quant_scales_mul:0"
    name: "/model.18/cv1/conv/Conv_quant_scales_mul"
    op_type: "Mul"
  }
  node {
    input: "/model.17/Concat_output_0_quantized"
    input: "model.18.cv1.conv.weight_quantized"
    input: "/model.17/Concat_output_0_zero_point"
    input: "model.18.cv1.conv.weight_zero_point"
    output: "/model.18/cv1/conv/Conv_output_0_output_quantized"
    name: "/model.18/cv1/conv/Conv_quant"
    op_type: "Conv"
    attribute {
      name: "dilations"
      ints: 1
      ints: 1
      type: INTS
    }
    attribute {
      name: "group"
      i: 1
      type: INT
    }
    attribute {
      name: "kernel_shape"
      ints: 1
      ints: 1
      type: INTS
    }
    attribute {
      name: "pads"
      ints: 0
      ints: 0
      ints: 0
      ints: 0
      type: INTS
    }
    attribute {
      name: "strides"
      ints: 1
      ints: 1
      type: INTS
    }
  }
  node {
    input: "/model.22/cv2.0/cv2.0.1/conv/Conv_output_0_output_quantized"
    output: "/model.22/cv2.0/cv2.0.1/conv/Conv_output_0_output_quantized_cast_output"
    name: "/model.22/cv2.0/cv2.0.1/conv/Conv_output_0_output_quantized_cast"
    op_type: "Cast"
    attribute {
      name: "to"
      i: 1
      type: INT
    }
  }
  node {
    input: "/model.22/cv3.0/cv3.0.1/conv/Conv_output_0_output_quantized"
    output: "/model.22/cv3.0/cv3.0.1/conv/Conv_output_0_output_quantized_cast_output"
    name: "/model.22/cv3.0/cv3.0.1/conv/Conv_output_0_output_quantized_cast"
    op_type: "Cast"
    attribute {
      name: "to"
      i: 1
      type: INT
    }
  }
  node {
    input: "/model.18/cv1/conv/Conv_output_0_output_quantized"
    output: "/model.18/cv1/conv/Conv_output_0_output_quantized_cast_output"
    name: "/model.18/cv1/conv/Conv_output_0_output_quantized_cast"
    op_type: "Cast"
    attribute {
      name: "to"
      i: 1
      type: INT
    }
  }
  node {
    input: "/model.22/cv2.0/cv2.0.1/conv/Conv_output_0_output_quantized_cast_output"
    input: "/model.22/cv2.0/cv2.0.1/conv/Conv_quant_scales_mul:0"
    output: "/model.22/cv2.0/cv2.0.1/conv/Conv_output_0quant_scaled_output"
    name: "/model.22/cv2.0/cv2.0.1/conv/Conv_quant_output_scale_mul"
    op_type: "Mul"
  }
  node {
    input: "/model.22/cv3.0/cv3.0.1/conv/Conv_output_0_output_quantized_cast_output"
    input: "/model.22/cv3.0/cv3.0.1/conv/Conv_quant_scales_mul:0"
    output: "/model.22/cv3.0/cv3.0.1/conv/Conv_output_0quant_scaled_output"
    name: "/model.22/cv3.0/cv3.0.1/conv/Conv_quant_output_scale_mul"
    op_type: "Mul"
  }
  node {
    input: "/model.18/cv1/conv/Conv_output_0_output_quantized_cast_output"
    input: "/model.18/cv1/conv/Conv_quant_scales_mul:0"
    output: "/model.18/cv1/conv/Conv_output_0quant_scaled_output"
    name: "/model.18/cv1/conv/Conv_quant_output_scale_mul"
    op_type: "Mul"
  }
  node {
    input: "/model.22/cv2.0/cv2.0.1/conv/Conv_output_0quant_scaled_output"
    input: "/model.22/cv2.0/cv2.0.1/conv/Conv_output_0_bias_reshape_output"
    output: "/model.22/cv2.0/cv2.0.1/conv/Conv_output_0"
    name: "/model.22/cv2.0/cv2.0.1/conv/Conv_output_0_bias_add"
    op_type: "Add"
  }
  node {
    input: "/model.22/cv3.0/cv3.0.1/conv/Conv_output_0quant_scaled_output"
    input: "/model.22/cv3.0/cv3.0.1/conv/Conv_output_0_bias_reshape_output"
    output: "/model.22/cv3.0/cv3.0.1/conv/Conv_output_0"
    name: "/model.22/cv3.0/cv3.0.1/conv/Conv_output_0_bias_add"
    op_type: "Add"
  }
  node {
    input: "/model.18/cv1/conv/Conv_output_0quant_scaled_output"
    input: "/model.18/cv1/conv/Conv_output_0_bias_reshape_output"
    output: "/model.18/cv1/conv/Conv_output_0"
    name: "/model.18/cv1/conv/Conv_output_0_bias_add"
    op_type: "Add"
  }
  node {
    input: "/model.22/cv2.0/cv2.0.1/conv/Conv_output_0"
    output: "/model.22/cv2.0/cv2.0.1/act/Sigmoid_output_0"
    name: "/model.22/cv2.0/cv2.0.1/act/Sigmoid"
    op_type: "Sigmoid"
  }
  node {
    input: "/model.22/cv3.0/cv3.0.1/conv/Conv_output_0"
    output: "/model.22/cv3.0/cv3.0.1/act/Sigmoid_output_0"
    name: "/model.22/cv3.0/cv3.0.1/act/Sigmoid"
    op_type: "Sigmoid"
  }
  node {
    input: "/model.18/cv1/conv/Conv_output_0"
    output: "/model.18/cv1/act/Sigmoid_output_0"
    name: "/model.18/cv1/act/Sigmoid"
    op_type: "Sigmoid"
  }
  node {
    input: "/model.22/cv2.0/cv2.0.1/conv/Conv_output_0"
    input: "/model.22/cv2.0/cv2.0.1/act/Sigmoid_output_0"
    output: "/model.22/cv2.0/cv2.0.1/act/Mul_output_0"
    name: "/model.22/cv2.0/cv2.0.1/act/Mul"
    op_type: "Mul"
  }
  node {
    input: "/model.22/cv3.0/cv3.0.1/conv/Conv_output_0"
    input: "/model.22/cv3.0/cv3.0.1/act/Sigmoid_output_0"
    output: "/model.22/cv3.0/cv3.0.1/act/Mul_output_0"
    name: "/model.22/cv3.0/cv3.0.1/act/Mul"
    op_type: "Mul"
  }
  node {
    input: "/model.18/cv1/conv/Conv_output_0"
    input: "/model.18/cv1/act/Sigmoid_output_0"
    output: "/model.18/cv1/act/Mul_output_0"
    name: "/model.18/cv1/act/Mul"
    op_type: "Mul"
  }
  node {
    input: "/model.22/cv2.0/cv2.0.1/act/Mul_output_0"
    output: "/model.22/cv2.0/cv2.0.1/act/Mul_output_0_quantized"
    output: "/model.22/cv2.0/cv2.0.1/act/Mul_output_0_scale"
    output: "/model.22/cv2.0/cv2.0.1/act/Mul_output_0_zero_point"
    name: "/model.22/cv2.0/cv2.0.1/act/Mul_output_0_QuantizeLinear"
    op_type: "DynamicQuantizeLinear"
  }
  node {
    input: "/model.22/cv3.0/cv3.0.1/act/Mul_output_0"
    output: "/model.22/cv3.0/cv3.0.1/act/Mul_output_0_quantized"
    output: "/model.22/cv3.0/cv3.0.1/act/Mul_output_0_scale"
    output: "/model.22/cv3.0/cv3.0.1/act/Mul_output_0_zero_point"
    name: "/model.22/cv3.0/cv3.0.1/act/Mul_output_0_QuantizeLinear"
    op_type: "DynamicQuantizeLinear"
  }
  node {
    input: "/model.18/cv1/act/Mul_output_0"
    input: "onnx::Split_184"
    output: "/model.18/Split_output_0"
    output: "/model.18/Split_output_1"
    name: "/model.18/Split"
    op_type: "Split"
    attribute {
      name: "axis"
      i: 1
      type: INT
    }
  }
  node {
    input: "/model.22/cv2.0/cv2.0.1/act/Mul_output_0_scale"
    input: "model.22.cv2.0.2.weight_scale"
    output: "/model.22/cv2.0/cv2.0.2/Conv_quant_scales_mul:0"
    name: "/model.22/cv2.0/cv2.0.2/Conv_quant_scales_mul"
    op_type: "Mul"
  }
  node {
    input: "/model.22/cv2.0/cv2.0.1/act/Mul_output_0_quantized"
    input: "model.22.cv2.0.2.weight_quantized"
    input: "/model.22/cv2.0/cv2.0.1/act/Mul_output_0_zero_point"
    input: "model.22.cv2.0.2.weight_zero_point"
    output: "/model.22/cv2.0/cv2.0.2/Conv_output_0_output_quantized"
    name: "/model.22/cv2.0/cv2.0.2/Conv_quant"
    op_type: "Conv"
    attribute {
      name: "dilations"
      ints: 1
      ints: 1
      type: INTS
    }
    attribute {
      name: "group"
      i: 1
      type: INT
    }
    attribute {
      name: "kernel_shape"
      ints: 1
      ints: 1
      type: INTS
    }
    attribute {
      name: "pads"
      ints: 0
      ints: 0
      ints: 0
      ints: 0
      type: INTS
    }
    attribute {
      name: "strides"
      ints: 1
      ints: 1
      type: INTS
    }
  }
  node {
    input: "/model.22/cv3.0/cv3.0.1/act/Mul_output_0_scale"
    input: "model.22.cv3.0.2.weight_scale"
    output: "/model.22/cv3.0/cv3.0.2/Conv_quant_scales_mul:0"
    name: "/model.22/cv3.0/cv3.0.2/Conv_quant_scales_mul"
    op_type: "Mul"
  }
  node {
    input: "/model.22/cv3.0/cv3.0.1/act/Mul_output_0_quantized"
    input: "model.22.cv3.0.2.weight_quantized"
    input: "/model.22/cv3.0/cv3.0.1/act/Mul_output_0_zero_point"
    input: "model.22.cv3.0.2.weight_zero_point"
    output: "/model.22/cv3.0/cv3.0.2/Conv_output_0_output_quantized"
    name: "/model.22/cv3.0/cv3.0.2/Conv_quant"
    op_type: "Conv"
    attribute {
      name: "dilations"
      ints: 1
      ints: 1
      type: INTS
    }
    attribute {
      name: "group"
      i: 1
      type: INT
    }
    attribute {
      name: "kernel_shape"
      ints: 1
      ints: 1
      type: INTS
    }
    attribute {
      name: "pads"
      ints: 0
      ints: 0
      ints: 0
      ints: 0
      type: INTS
    }
    attribute {
      name: "strides"
      ints: 1
      ints: 1
      type: INTS
    }
  }
  node {
    input: "/model.18/Split_output_1"
    output: "/model.18/Split_output_1_quantized"
    output: "/model.18/Split_output_1_scale"
    output: "/model.18/Split_output_1_zero_point"
    name: "/model.18/Split_output_1_QuantizeLinear"
    op_type: "DynamicQuantizeLinear"
  }
  node {
    input: "/model.22/cv2.0/cv2.0.2/Conv_output_0_output_quantized"
    output: "/model.22/cv2.0/cv2.0.2/Conv_output_0_output_quantized_cast_output"
    name: "/model.22/cv2.0/cv2.0.2/Conv_output_0_output_quantized_cast"
    op_type: "Cast"
    attribute {
      name: "to"
      i: 1
      type: INT
    }
  }
  node {
    input: "/model.22/cv3.0/cv3.0.2/Conv_output_0_output_quantized"
    output: "/model.22/cv3.0/cv3.0.2/Conv_output_0_output_quantized_cast_output"
    name: "/model.22/cv3.0/cv3.0.2/Conv_output_0_output_quantized_cast"
    op_type: "Cast"
    attribute {
      name: "to"
      i: 1
      type: INT
    }
  }
  node {
    input: "/model.18/Split_output_1_scale"
    input: "model.18.m.0.cv1.conv.weight_scale"
    output: "/model.18/m.0/cv1/conv/Conv_quant_scales_mul:0"
    name: "/model.18/m.0/cv1/conv/Conv_quant_scales_mul"
    op_type: "Mul"
  }
  node {
    input: "/model.18/Split_output_1_quantized"
    input: "model.18.m.0.cv1.conv.weight_quantized"
    input: "/model.18/Split_output_1_zero_point"
    input: "model.18.m.0.cv1.conv.weight_zero_point"
    output: "/model.18/m.0/cv1/conv/Conv_output_0_output_quantized"
    name: "/model.18/m.0/cv1/conv/Conv_quant"
    op_type: "Conv"
    attribute {
      name: "dilations"
      ints: 1
      ints: 1
      type: INTS
    }
    attribute {
      name: "group"
      i: 1
      type: INT
    }
    attribute {
      name: "kernel_shape"
      ints: 3
      ints: 3
      type: INTS
    }
    attribute {
      name: "pads"
      ints: 1
      ints: 1
      ints: 1
      ints: 1
      type: INTS
    }
    attribute {
      name: "strides"
      ints: 1
      ints: 1
      type: INTS
    }
  }
  node {
    input: "/model.22/cv2.0/cv2.0.2/Conv_output_0_output_quantized_cast_output"
    input: "/model.22/cv2.0/cv2.0.2/Conv_quant_scales_mul:0"
    output: "/model.22/cv2.0/cv2.0.2/Conv_output_0quant_scaled_output"
    name: "/model.22/cv2.0/cv2.0.2/Conv_quant_output_scale_mul"
    op_type: "Mul"
  }
  node {
    input: "/model.22/cv3.0/cv3.0.2/Conv_output_0_output_quantized_cast_output"
    input: "/model.22/cv3.0/cv3.0.2/Conv_quant_scales_mul:0"
    output: "/model.22/cv3.0/cv3.0.2/Conv_output_0quant_scaled_output"
    name: "/model.22/cv3.0/cv3.0.2/Conv_quant_output_scale_mul"
    op_type: "Mul"
  }
  node {
    input: "/model.18/m.0/cv1/conv/Conv_output_0_output_quantized"
    output: "/model.18/m.0/cv1/conv/Conv_output_0_output_quantized_cast_output"
    name: "/model.18/m.0/cv1/conv/Conv_output_0_output_quantized_cast"
    op_type: "Cast"
    attribute {
      name: "to"
      i: 1
      type: INT
    }
  }
  node {
    input: "/model.22/cv2.0/cv2.0.2/Conv_output_0quant_scaled_output"
    input: "/model.22/cv2.0/cv2.0.2/Conv_output_0_bias_reshape_output"
    output: "/model.22/cv2.0/cv2.0.2/Conv_output_0"
    name: "/model.22/cv2.0/cv2.0.2/Conv_output_0_bias_add"
    op_type: "Add"
  }
  node {
    input: "/model.22/cv3.0/cv3.0.2/Conv_output_0quant_scaled_output"
    input: "/model.22/cv3.0/cv3.0.2/Conv_output_0_bias_reshape_output"
    output: "/model.22/cv3.0/cv3.0.2/Conv_output_0"
    name: "/model.22/cv3.0/cv3.0.2/Conv_output_0_bias_add"
    op_type: "Add"
  }
  node {
    input: "/model.18/m.0/cv1/conv/Conv_output_0_output_quantized_cast_output"
    input: "/model.18/m.0/cv1/conv/Conv_quant_scales_mul:0"
    output: "/model.18/m.0/cv1/conv/Conv_output_0quant_scaled_output"
    name: "/model.18/m.0/cv1/conv/Conv_quant_output_scale_mul"
    op_type: "Mul"
  }
  node {
    input: "/model.22/cv2.0/cv2.0.2/Conv_output_0"
    input: "/model.22/cv3.0/cv3.0.2/Conv_output_0"
    output: "/model.22/Concat_output_0"
    name: "/model.22/Concat"
    op_type: "Concat"
    attribute {
      name: "axis"
      i: 1
      type: INT
    }
  }
  node {
    input: "/model.18/m.0/cv1/conv/Conv_output_0quant_scaled_output"
    input: "/model.18/m.0/cv1/conv/Conv_output_0_bias_reshape_output"
    output: "/model.18/m.0/cv1/conv/Conv_output_0"
    name: "/model.18/m.0/cv1/conv/Conv_output_0_bias_add"
    op_type: "Add"
  }
  node {
    input: "/model.22/Concat_output_0"
    input: "/model.22/Constant_output_0"
    output: "/model.22/Reshape_output_0"
    name: "/model.22/Reshape"
    op_type: "Reshape"
    attribute {
      name: "allowzero"
      i: 0
      type: INT
    }
  }
  node {
    input: "/model.18/m.0/cv1/conv/Conv_output_0"
    output: "/model.18/m.0/cv1/act/Sigmoid_output_0"
    name: "/model.18/m.0/cv1/act/Sigmoid"
    op_type: "Sigmoid"
  }
  node {
    input: "/model.18/m.0/cv1/conv/Conv_output_0"
    input: "/model.18/m.0/cv1/act/Sigmoid_output_0"
    output: "/model.18/m.0/cv1/act/Mul_output_0"
    name: "/model.18/m.0/cv1/act/Mul"
    op_type: "Mul"
  }
  node {
    input: "/model.18/m.0/cv1/act/Mul_output_0"
    output: "/model.18/m.0/cv1/act/Mul_output_0_quantized"
    output: "/model.18/m.0/cv1/act/Mul_output_0_scale"
    output: "/model.18/m.0/cv1/act/Mul_output_0_zero_point"
    name: "/model.18/m.0/cv1/act/Mul_output_0_QuantizeLinear"
    op_type: "DynamicQuantizeLinear"
  }
  node {
    input: "/model.18/m.0/cv1/act/Mul_output_0_scale"
    input: "model.18.m.0.cv2.conv.weight_scale"
    output: "/model.18/m.0/cv2/conv/Conv_quant_scales_mul:0"
    name: "/model.18/m.0/cv2/conv/Conv_quant_scales_mul"
    op_type: "Mul"
  }
  node {
    input: "/model.18/m.0/cv1/act/Mul_output_0_quantized"
    input: "model.18.m.0.cv2.conv.weight_quantized"
    input: "/model.18/m.0/cv1/act/Mul_output_0_zero_point"
    input: "model.18.m.0.cv2.conv.weight_zero_point"
    output: "/model.18/m.0/cv2/conv/Conv_output_0_output_quantized"
    name: "/model.18/m.0/cv2/conv/Conv_quant"
    op_type: "Conv"
    attribute {
      name: "dilations"
      ints: 1
      ints: 1
      type: INTS
    }
    attribute {
      name: "group"
      i: 1
      type: INT
    }
    attribute {
      name: "kernel_shape"
      ints: 3
      ints: 3
      type: INTS
    }
    attribute {
      name: "pads"
      ints: 1
      ints: 1
      ints: 1
      ints: 1
      type: INTS
    }
    attribute {
      name: "strides"
      ints: 1
      ints: 1
      type: INTS
    }
  }
  node {
    input: "/model.18/m.0/cv2/conv/Conv_output_0_output_quantized"
    output: "/model.18/m.0/cv2/conv/Conv_output_0_output_quantized_cast_output"
    name: "/model.18/m.0/cv2/conv/Conv_output_0_output_quantized_cast"
    op_type: "Cast"
    attribute {
      name: "to"
      i: 1
      type: INT
    }
  }
  node {
    input: "/model.18/m.0/cv2/conv/Conv_output_0_output_quantized_cast_output"
    input: "/model.18/m.0/cv2/conv/Conv_quant_scales_mul:0"
    output: "/model.18/m.0/cv2/conv/Conv_output_0quant_scaled_output"
    name: "/model.18/m.0/cv2/conv/Conv_quant_output_scale_mul"
    op_type: "Mul"
  }
  node {
    input: "/model.18/m.0/cv2/conv/Conv_output_0quant_scaled_output"
    input: "/model.18/m.0/cv2/conv/Conv_output_0_bias_reshape_output"
    output: "/model.18/m.0/cv2/conv/Conv_output_0"
    name: "/model.18/m.0/cv2/conv/Conv_output_0_bias_add"
    op_type: "Add"
  }
  node {
    input: "/model.18/m.0/cv2/conv/Conv_output_0"
    output: "/model.18/m.0/cv2/act/Sigmoid_output_0"
    name: "/model.18/m.0/cv2/act/Sigmoid"
    op_type: "Sigmoid"
  }
  node {
    input: "/model.18/m.0/cv2/conv/Conv_output_0"
    input: "/model.18/m.0/cv2/act/Sigmoid_output_0"
    output: "/model.18/m.0/cv2/act/Mul_output_0"
    name: "/model.18/m.0/cv2/act/Mul"
    op_type: "Mul"
  }
  node {
    input: "/model.18/Split_output_0"
    input: "/model.18/Split_output_1"
    input: "/model.18/m.0/cv2/act/Mul_output_0"
    output: "/model.18/Concat_output_0"
    name: "/model.18/Concat"
    op_type: "Concat"
    attribute {
      name: "axis"
      i: 1
      type: INT
    }
  }
  node {
    input: "/model.18/Concat_output_0"
    output: "/model.18/Concat_output_0_quantized"
    output: "/model.18/Concat_output_0_scale"
    output: "/model.18/Concat_output_0_zero_point"
    name: "/model.18/Concat_output_0_QuantizeLinear"
    op_type: "DynamicQuantizeLinear"
  }
  node {
    input: "/model.18/Concat_output_0_scale"
    input: "model.18.cv2.conv.weight_scale"
    output: "/model.18/cv2/conv/Conv_quant_scales_mul:0"
    name: "/model.18/cv2/conv/Conv_quant_scales_mul"
    op_type: "Mul"
  }
  node {
    input: "/model.18/Concat_output_0_quantized"
    input: "model.18.cv2.conv.weight_quantized"
    input: "/model.18/Concat_output_0_zero_point"
    input: "model.18.cv2.conv.weight_zero_point"
    output: "/model.18/cv2/conv/Conv_output_0_output_quantized"
    name: "/model.18/cv2/conv/Conv_quant"
    op_type: "Conv"
    attribute {
      name: "dilations"
      ints: 1
      ints: 1
      type: INTS
    }
    attribute {
      name: "group"
      i: 1
      type: INT
    }
    attribute {
      name: "kernel_shape"
      ints: 1
      ints: 1
      type: INTS
    }
    attribute {
      name: "pads"
      ints: 0
      ints: 0
      ints: 0
      ints: 0
      type: INTS
    }
    attribute {
      name: "strides"
      ints: 1
      ints: 1
      type: INTS
    }
  }
  node {
    input: "/model.18/cv2/conv/Conv_output_0_output_quantized"
    output: "/model.18/cv2/conv/Conv_output_0_output_quantized_cast_output"
    name: "/model.18/cv2/conv/Conv_output_0_output_quantized_cast"
    op_type: "Cast"
    attribute {
      name: "to"
      i: 1
      type: INT
    }
  }
  node {
    input: "/model.18/cv2/conv/Conv_output_0_output_quantized_cast_output"
    input: "/model.18/cv2/conv/Conv_quant_scales_mul:0"
    output: "/model.18/cv2/conv/Conv_output_0quant_scaled_output"
    name: "/model.18/cv2/conv/Conv_quant_output_scale_mul"
    op_type: "Mul"
  }
  node {
    input: "/model.18/cv2/conv/Conv_output_0quant_scaled_output"
    input: "/model.18/cv2/conv/Conv_output_0_bias_reshape_output"
    output: "/model.18/cv2/conv/Conv_output_0"
    name: "/model.18/cv2/conv/Conv_output_0_bias_add"
    op_type: "Add"
  }
  node {
    input: "/model.18/cv2/conv/Conv_output_0"
    output: "/model.18/cv2/act/Sigmoid_output_0"
    name: "/model.18/cv2/act/Sigmoid"
    op_type: "Sigmoid"
  }
  node {
    input: "/model.18/cv2/conv/Conv_output_0"
    input: "/model.18/cv2/act/Sigmoid_output_0"
    output: "/model.18/cv2/act/Mul_output_0"
    name: "/model.18/cv2/act/Mul"
    op_type: "Mul"
  }
  node {
    input: "/model.18/cv2/act/Mul_output_0"
    output: "/model.18/cv2/act/Mul_output_0_quantized"
    output: "/model.18/cv2/act/Mul_output_0_scale"
    output: "/model.18/cv2/act/Mul_output_0_zero_point"
    name: "/model.18/cv2/act/Mul_output_0_QuantizeLinear"
    op_type: "DynamicQuantizeLinear"
  }
  node {
    input: "/model.18/cv2/act/Mul_output_0_scale"
    input: "model.19.conv.weight_scale"
    output: "/model.19/conv/Conv_quant_scales_mul:0"
    name: "/model.19/conv/Conv_quant_scales_mul"
    op_type: "Mul"
  }
  node {
    input: "/model.18/cv2/act/Mul_output_0_scale"
    input: "model.22.cv2.1.0.conv.weight_scale"
    output: "/model.22/cv2.1/cv2.1.0/conv/Conv_quant_scales_mul:0"
    name: "/model.22/cv2.1/cv2.1.0/conv/Conv_quant_scales_mul"
    op_type: "Mul"
  }
  node {
    input: "/model.18/cv2/act/Mul_output_0_scale"
    input: "model.22.cv3.1.0.conv.weight_scale"
    output: "/model.22/cv3.1/cv3.1.0/conv/Conv_quant_scales_mul:0"
    name: "/model.22/cv3.1/cv3.1.0/conv/Conv_quant_scales_mul"
    op_type: "Mul"
  }
  node {
    input: "/model.18/cv2/act/Mul_output_0_quantized"
    input: "model.19.conv.weight_quantized"
    input: "/model.18/cv2/act/Mul_output_0_zero_point"
    input: "model.19.conv.weight_zero_point"
    output: "/model.19/conv/Conv_output_0_output_quantized"
    name: "/model.19/conv/Conv_quant"
    op_type: "Conv"
    attribute {
      name: "dilations"
      ints: 1
      ints: 1
      type: INTS
    }
    attribute {
      name: "group"
      i: 1
      type: INT
    }
    attribute {
      name: "kernel_shape"
      ints: 3
      ints: 3
      type: INTS
    }
    attribute {
      name: "pads"
      ints: 1
      ints: 1
      ints: 1
      ints: 1
      type: INTS
    }
    attribute {
      name: "strides"
      ints: 2
      ints: 2
      type: INTS
    }
  }
  node {
    input: "/model.18/cv2/act/Mul_output_0_quantized"
    input: "model.22.cv2.1.0.conv.weight_quantized"
    input: "/model.18/cv2/act/Mul_output_0_zero_point"
    input: "model.22.cv2.1.0.conv.weight_zero_point"
    output: "/model.22/cv2.1/cv2.1.0/conv/Conv_output_0_output_quantized"
    name: "/model.22/cv2.1/cv2.1.0/conv/Conv_quant"
    op_type: "Conv"
    attribute {
      name: "dilations"
      ints: 1
      ints: 1
      type: INTS
    }
    attribute {
      name: "group"
      i: 1
      type: INT
    }
    attribute {
      name: "kernel_shape"
      ints: 3
      ints: 3
      type: INTS
    }
    attribute {
      name: "pads"
      ints: 1
      ints: 1
      ints: 1
      ints: 1
      type: INTS
    }
    attribute {
      name: "strides"
      ints: 1
      ints: 1
      type: INTS
    }
  }
  node {
    input: "/model.18/cv2/act/Mul_output_0_quantized"
    input: "model.22.cv3.1.0.conv.weight_quantized"
    input: "/model.18/cv2/act/Mul_output_0_zero_point"
    input: "model.22.cv3.1.0.conv.weight_zero_point"
    output: "/model.22/cv3.1/cv3.1.0/conv/Conv_output_0_output_quantized"
    name: "/model.22/cv3.1/cv3.1.0/conv/Conv_quant"
    op_type: "Conv"
    attribute {
      name: "dilations"
      ints: 1
      ints: 1
      type: INTS
    }
    attribute {
      name: "group"
      i: 1
      type: INT
    }
    attribute {
      name: "kernel_shape"
      ints: 3
      ints: 3
      type: INTS
    }
    attribute {
      name: "pads"
      ints: 1
      ints: 1
      ints: 1
      ints: 1
      type: INTS
    }
    attribute {
      name: "strides"
      ints: 1
      ints: 1
      type: INTS
    }
  }
  node {
    input: "/model.19/conv/Conv_output_0_output_quantized"
    output: "/model.19/conv/Conv_output_0_output_quantized_cast_output"
    name: "/model.19/conv/Conv_output_0_output_quantized_cast"
    op_type: "Cast"
    attribute {
      name: "to"
      i: 1
      type: INT
    }
  }
  node {
    input: "/model.22/cv2.1/cv2.1.0/conv/Conv_output_0_output_quantized"
    output: "/model.22/cv2.1/cv2.1.0/conv/Conv_output_0_output_quantized_cast_output"
    name: "/model.22/cv2.1/cv2.1.0/conv/Conv_output_0_output_quantized_cast"
    op_type: "Cast"
    attribute {
      name: "to"
      i: 1
      type: INT
    }
  }
  node {
    input: "/model.22/cv3.1/cv3.1.0/conv/Conv_output_0_output_quantized"
    output: "/model.22/cv3.1/cv3.1.0/conv/Conv_output_0_output_quantized_cast_output"
    name: "/model.22/cv3.1/cv3.1.0/conv/Conv_output_0_output_quantized_cast"
    op_type: "Cast"
    attribute {
      name: "to"
      i: 1
      type: INT
    }
  }
  node {
    input: "/model.19/conv/Conv_output_0_output_quantized_cast_output"
    input: "/model.19/conv/Conv_quant_scales_mul:0"
    output: "/model.19/conv/Conv_output_0quant_scaled_output"
    name: "/model.19/conv/Conv_quant_output_scale_mul"
    op_type: "Mul"
  }
  node {
    input: "/model.22/cv2.1/cv2.1.0/conv/Conv_output_0_output_quantized_cast_output"
    input: "/model.22/cv2.1/cv2.1.0/conv/Conv_quant_scales_mul:0"
    output: "/model.22/cv2.1/cv2.1.0/conv/Conv_output_0quant_scaled_output"
    name: "/model.22/cv2.1/cv2.1.0/conv/Conv_quant_output_scale_mul"
    op_type: "Mul"
  }
  node {
    input: "/model.22/cv3.1/cv3.1.0/conv/Conv_output_0_output_quantized_cast_output"
    input: "/model.22/cv3.1/cv3.1.0/conv/Conv_quant_scales_mul:0"
    output: "/model.22/cv3.1/cv3.1.0/conv/Conv_output_0quant_scaled_output"
    name: "/model.22/cv3.1/cv3.1.0/conv/Conv_quant_output_scale_mul"
    op_type: "Mul"
  }
  node {
    input: "/model.19/conv/Conv_output_0quant_scaled_output"
    input: "/model.19/conv/Conv_output_0_bias_reshape_output"
    output: "/model.19/conv/Conv_output_0"
    name: "/model.19/conv/Conv_output_0_bias_add"
    op_type: "Add"
  }
  node {
    input: "/model.22/cv2.1/cv2.1.0/conv/Conv_output_0quant_scaled_output"
    input: "/model.22/cv2.1/cv2.1.0/conv/Conv_output_0_bias_reshape_output"
    output: "/model.22/cv2.1/cv2.1.0/conv/Conv_output_0"
    name: "/model.22/cv2.1/cv2.1.0/conv/Conv_output_0_bias_add"
    op_type: "Add"
  }
  node {
    input: "/model.22/cv3.1/cv3.1.0/conv/Conv_output_0quant_scaled_output"
    input: "/model.22/cv3.1/cv3.1.0/conv/Conv_output_0_bias_reshape_output"
    output: "/model.22/cv3.1/cv3.1.0/conv/Conv_output_0"
    name: "/model.22/cv3.1/cv3.1.0/conv/Conv_output_0_bias_add"
    op_type: "Add"
  }
  node {
    input: "/model.19/conv/Conv_output_0"
    output: "/model.19/act/Sigmoid_output_0"
    name: "/model.19/act/Sigmoid"
    op_type: "Sigmoid"
  }
  node {
    input: "/model.22/cv2.1/cv2.1.0/conv/Conv_output_0"
    output: "/model.22/cv2.1/cv2.1.0/act/Sigmoid_output_0"
    name: "/model.22/cv2.1/cv2.1.0/act/Sigmoid"
    op_type: "Sigmoid"
  }
  node {
    input: "/model.22/cv3.1/cv3.1.0/conv/Conv_output_0"
    output: "/model.22/cv3.1/cv3.1.0/act/Sigmoid_output_0"
    name: "/model.22/cv3.1/cv3.1.0/act/Sigmoid"
    op_type: "Sigmoid"
  }
  node {
    input: "/model.19/conv/Conv_output_0"
    input: "/model.19/act/Sigmoid_output_0"
    output: "/model.19/act/Mul_output_0"
    name: "/model.19/act/Mul"
    op_type: "Mul"
  }
  node {
    input: "/model.22/cv2.1/cv2.1.0/conv/Conv_output_0"
    input: "/model.22/cv2.1/cv2.1.0/act/Sigmoid_output_0"
    output: "/model.22/cv2.1/cv2.1.0/act/Mul_output_0"
    name: "/model.22/cv2.1/cv2.1.0/act/Mul"
    op_type: "Mul"
  }
  node {
    input: "/model.22/cv3.1/cv3.1.0/conv/Conv_output_0"
    input: "/model.22/cv3.1/cv3.1.0/act/Sigmoid_output_0"
    output: "/model.22/cv3.1/cv3.1.0/act/Mul_output_0"
    name: "/model.22/cv3.1/cv3.1.0/act/Mul"
    op_type: "Mul"
  }
  node {
    input: "/model.19/act/Mul_output_0"
    input: "/model.9/cv2/act/Mul_output_0"
    output: "/model.20/Concat_output_0"
    name: "/model.20/Concat"
    op_type: "Concat"
    attribute {
      name: "axis"
      i: 1
      type: INT
    }
  }
  node {
    input: "/model.22/cv2.1/cv2.1.0/act/Mul_output_0"
    output: "/model.22/cv2.1/cv2.1.0/act/Mul_output_0_quantized"
    output: "/model.22/cv2.1/cv2.1.0/act/Mul_output_0_scale"
    output: "/model.22/cv2.1/cv2.1.0/act/Mul_output_0_zero_point"
    name: "/model.22/cv2.1/cv2.1.0/act/Mul_output_0_QuantizeLinear"
    op_type: "DynamicQuantizeLinear"
  }
  node {
    input: "/model.22/cv3.1/cv3.1.0/act/Mul_output_0"
    output: "/model.22/cv3.1/cv3.1.0/act/Mul_output_0_quantized"
    output: "/model.22/cv3.1/cv3.1.0/act/Mul_output_0_scale"
    output: "/model.22/cv3.1/cv3.1.0/act/Mul_output_0_zero_point"
    name: "/model.22/cv3.1/cv3.1.0/act/Mul_output_0_QuantizeLinear"
    op_type: "DynamicQuantizeLinear"
  }
  node {
    input: "/model.20/Concat_output_0"
    output: "/model.20/Concat_output_0_quantized"
    output: "/model.20/Concat_output_0_scale"
…
            dim_value: 1
          }
          dim {
            dim_value: 256
          }
          dim {
            dim_value: 20
          }
          dim {
            dim_value: 20
          }
        }
      }
    }
  }
  value_info {
    name: "/model.9/Concat_output_0"
    type {
      tensor_type {
        elem_type: 1
        shape {
          dim {
            dim_value: 1
          }
          dim {
            dim_value: 1024
          }
          dim {
            dim_value: 20
          }
          dim {
            dim_value: 20
          }
        }
      }
    }
  }
  value_info {
    name: "/model.9/cv2/conv/Conv_output_0"
    type {
      tensor_type {
        elem_type: 1
        shape {
          dim {
            dim_value: 1
          }
          dim {
            dim_value: 512
          }
          dim {
            dim_value: 20
          }
          dim {
            dim_value: 20
          }
        }
      }
    }
  }
  value_info {
    name: "/model.9/cv2/act/Sigmoid_output_0"
    type {
      tensor_type {
        elem_type: 1
        shape {
          dim {
            dim_value: 1
          }
          dim {
            dim_value: 512
          }
          dim {
            dim_value: 20
          }
          dim {
            dim_value: 20
          }
        }
      }
    }
  }
  value_info {
    name: "/model.9/cv2/act/Mul_output_0"
    type {
      tensor_type {
        elem_type: 1
        shape {
          dim {
            dim_value: 1
          }
          dim {
            dim_value: 512
          }
          dim {
            dim_value: 20
          }
          dim {
            dim_value: 20
          }
        }
      }
    }
  }
  value_info {
    name: "/model.10/Resize_output_0"
    type {
      tensor_type {
        elem_type: 1
        shape {
          dim {
            dim_value: 1
          }
          dim {
            dim_value: 512
          }
          dim {
            dim_value: 40
          }
          dim {
            dim_value: 40
          }
        }
      }
    }
  }
  value_info {
    name: "/model.11/Concat_output_0"
    type {
      tensor_type {
        elem_type: 1
        shape {
          dim {
            dim_value: 1
          }
          dim {
            dim_value: 768
          }
          dim {
            dim_value: 40
          }
          dim {
            dim_value: 40
          }
        }
      }
    }
  }
  value_info {
    name: "/model.12/cv1/conv/Conv_output_0"
    type {
      tensor_type {
        elem_type: 1
        shape {
          dim {
            dim_value: 1
          }
          dim {
            dim_value: 256
          }
          dim {
            dim_value: 40
          }
          dim {
            dim_value: 40
          }
        }
      }
    }
  }
  value_info {
    name: "/model.12/cv1/act/Sigmoid_output_0"
    type {
      tensor_type {
        elem_type: 1
        shape {
          dim {
            dim_value: 1
          }
          dim {
            dim_value: 256
          }
          dim {
            dim_value: 40
          }
          dim {
            dim_value: 40
          }
        }
      }
    }
  }
  value_info {
    name: "/model.12/cv1/act/Mul_output_0"
    type {
      tensor_type {
        elem_type: 1
        shape {
          dim {
            dim_value: 1
          }
          dim {
            dim_value: 256
          }
          dim {
            dim_value: 40
          }
          dim {
            dim_value: 40
          }
        }
      }
    }
  }
  value_info {
    name: "/model.12/Split_output_0"
    type {
      tensor_type {
        elem_type: 1
        shape {
          dim {
            dim_value: 1
          }
          dim {
            dim_value: 128
          }
          dim {
            dim_value: 40
          }
          dim {
            dim_value: 40
          }
        }
      }
    }
  }
  value_info {
    name: "/model.12/Split_output_1"
    type {
      tensor_type {
        elem_type: 1
        shape {
          dim {
            dim_value: 1
          }
          dim {
            dim_value: 128
          }
          dim {
            dim_value: 40
          }
          dim {
            dim_value: 40
          }
        }
      }
    }
  }
  value_info {
    name: "/model.12/m.0/cv1/conv/Conv_output_0"
    type {
      tensor_type {
        elem_type: 1
        shape {
          dim {
            dim_value: 1
          }
          dim {
            dim_value: 128
          }
          dim {
            dim_value: 40
          }
          dim {
            dim_value: 40
          }
        }
      }
    }
  }
  value_info {
    name: "/model.12/m.0/cv1/act/Sigmoid_output_0"
    type {
      tensor_type {
        elem_type: 1
        shape {
          dim {
            dim_value: 1
          }
          dim {
            dim_value: 128
          }
          dim {
            dim_value: 40
          }
          dim {
            dim_value: 40
          }
        }
      }
    }
  }
  value_info {
    name: "/model.12/m.0/cv1/act/Mul_output_0"
    type {
      tensor_type {
        elem_type: 1
        shape {
          dim {
            dim_value: 1
          }
          dim {
            dim_value: 128
          }
          dim {
            dim_value: 40
          }
          dim {
            dim_value: 40
          }
        }
      }
    }
  }
  value_info {
    name: "/model.12/m.0/cv2/conv/Conv_output_0"
    type {
      tensor_type {
        elem_type: 1
        shape {
          dim {
            dim_value: 1
          }
          dim {
            dim_value: 128
          }
          dim {
            dim_value: 40
          }
          dim {
            dim_value: 40
          }
        }
      }
    }
  }
  value_info {
    name: "/model.12/m.0/cv2/act/Sigmoid_output_0"
    type {
      tensor_type {
        elem_type: 1
        shape {
          dim {
            dim_value: 1
          }
          dim {
            dim_value: 128
          }
          dim {
            dim_value: 40
          }
          dim {
            dim_value: 40
          }
        }
      }
    }
  }
  value_info {
    name: "/model.12/m.0/cv2/act/Mul_output_0"
    type {
      tensor_type {
        elem_type: 1
        shape {
          dim {
            dim_value: 1
          }
          dim {
            dim_value: 128
          }
          dim {
            dim_value: 40
          }
          dim {
            dim_value: 40
          }
        }
      }
    }
  }
  value_info {
    name: "/model.12/Concat_output_0"
    type {
      tensor_type {
        elem_type: 1
        shape {
          dim {
            dim_value: 1
          }
          dim {
            dim_value: 384
          }
          dim {
            dim_value: 40
          }
          dim {
            dim_value: 40
          }
        }
      }
    }
  }
  value_info {
    name: "/model.12/cv2/conv/Conv_output_0"
    type {
      tensor_type {
        elem_type: 1
        shape {
          dim {
            dim_value: 1
          }
          dim {
            dim_value: 256
          }
          dim {
            dim_value: 40
          }
          dim {
            dim_value: 40
          }
        }
      }
    }
  }
  value_info {
    name: "/model.12/cv2/act/Sigmoid_output_0"
    type {
      tensor_type {
        elem_type: 1
        shape {
          dim {
            dim_value: 1
          }
          dim {
            dim_value: 256
          }
          dim {
            dim_value: 40
          }
          dim {
            dim_value: 40
          }
        }
      }
    }
  }
  value_info {
    name: "/model.12/cv2/act/Mul_output_0"
    type {
      tensor_type {
        elem_type: 1
        shape {
          dim {
            dim_value: 1
          }
          dim {
            dim_value: 256
          }
          dim {
            dim_value: 40
          }
          dim {
            dim_value: 40
          }
        }
      }
    }
  }
  value_info {
    name: "/model.13/Resize_output_0"
    type {
      tensor_type {
        elem_type: 1
        shape {
          dim {
            dim_value: 1
          }
          dim {
            dim_value: 256
          }
          dim {
            dim_value: 80
          }
          dim {
            dim_value: 80
          }
        }
      }
    }
  }
  value_info {
    name: "/model.14/Concat_output_0"
    type {
      tensor_type {
        elem_type: 1
        shape {
          dim {
            dim_value: 1
          }
          dim {
            dim_value: 384
          }
          dim {
            dim_value: 80
          }
          dim {
            dim_value: 80
          }
        }
      }
    }
  }
  value_info {
    name: "/model.15/cv1/conv/Conv_output_0"
    type {
      tensor_type {
        elem_type: 1
        shape {
          dim {
            dim_value: 1
          }
          dim {
            dim_value: 128
          }
          dim {
            dim_value: 80
          }
          dim {
            dim_value: 80
          }
        }
      }
    }
  }
  value_info {
    name: "/model.15/cv1/act/Sigmoid_output_0"
    type {
      tensor_type {
        elem_type: 1
        shape {
          dim {
            dim_value: 1
          }
          dim {
            dim_value: 128
          }
          dim {
            dim_value: 80
          }
          dim {
            dim_value: 80
          }
        }
      }
    }
  }
  value_info {
    name: "/model.15/cv1/act/Mul_output_0"
    type {
      tensor_type {
        elem_type: 1
        shape {
          dim {
            dim_value: 1
          }
          dim {
            dim_value: 128
          }
          dim {
            dim_value: 80
          }
          dim {
            dim_value: 80
          }
        }
      }
    }
  }
  value_info {
    name: "/model.15/Split_output_0"
    type {
      tensor_type {
        elem_type: 1
        shape {
          dim {
            dim_value: 1
          }
          dim {
            dim_value: 64
          }
          dim {
            dim_value: 80
          }
          dim {
            dim_value: 80
          }
        }
      }
    }
  }
  value_info {
    name: "/model.15/Split_output_1"
    type {
      tensor_type {
        elem_type: 1
        shape {
          dim {
            dim_value: 1
          }
          dim {
            dim_value: 64
          }
          dim {
            dim_value: 80
          }
          dim {
            dim_value: 80
          }
        }
      }
    }
  }
  value_info {
    name: "/model.15/m.0/cv1/conv/Conv_output_0"
    type {
      tensor_type {
        elem_type: 1
        shape {
          dim {
            dim_value: 1
          }
          dim {
            dim_value: 64
          }
          dim {
            dim_value: 80
          }
          dim {
            dim_value: 80
          }
        }
      }
    }
  }
  value_info {
    name: "/model.15/m.0/cv1/act/Sigmoid_output_0"
    type {
      tensor_type {
        elem_type: 1
        shape {
          dim {
            dim_value: 1
          }
          dim {
            dim_value: 64
          }
          dim {
            dim_value: 80
          }
          dim {
            dim_value: 80
          }
        }
      }
    }
  }
  value_info {
    name: "/model.15/m.0/cv1/act/Mul_output_0"
    type {
      tensor_type {
        elem_type: 1
        shape {
          dim {
            dim_value: 1
          }
          dim {
            dim_value: 64
          }
          dim {
            dim_value: 80
          }
          dim {
            dim_value: 80
          }
        }
      }
    }
  }
  value_info {
    name: "/model.15/m.0/cv2/conv/Conv_output_0"
    type {
      tensor_type {
        elem_type: 1
        shape {
          dim {
            dim_value: 1
          }
          dim {
            dim_value: 64
          }
          dim {
            dim_value: 80
          }
          dim {
            dim_value: 80
          }
        }
      }
    }
  }
  value_info {
    name: "/model.15/m.0/cv2/act/Sigmoid_output_0"
    type {
      tensor_type {
        elem_type: 1
        shape {
          dim {
            dim_value: 1
          }
          dim {
            dim_value: 64
          }
          dim {
            dim_value: 80
          }
          dim {
            dim_value: 80
          }
        }
      }
    }
  }
  value_info {
    name: "/model.15/m.0/cv2/act/Mul_output_0"
    type {
      tensor_type {
        elem_type: 1
        shape {
          dim {
            dim_value: 1
          }
          dim {
            dim_value: 64
          }
          dim {
            dim_value: 80
          }
          dim {
            dim_value: 80
          }
        }
      }
    }
  }
  value_info {
    name: "/model.15/Concat_output_0"
    type {
      tensor_type {
        elem_type: 1
        shape {
          dim {
            dim_value: 1
          }
          dim {
            dim_value: 192
          }
          dim {
            dim_value: 80
          }
          dim {
            dim_value: 80
          }
        }
      }
    }
  }
  value_info {
    name: "/model.15/cv2/conv/Conv_output_0"
    type {
      tensor_type {
        elem_type: 1
        shape {
          dim {
            dim_value: 1
          }
          dim {
            dim_value: 128
          }
          dim {
            dim_value: 80
          }
          dim {
            dim_value: 80
          }
        }
      }
    }
  }
  value_info {
    name: "/model.15/cv2/act/Sigmoid_output_0"
    type {
      tensor_type {
        elem_type: 1
        shape {
          dim {
            dim_value: 1
          }
          dim {
            dim_value: 128
          }
          dim {
            dim_value: 80
          }
          dim {
            dim_value: 80
          }
        }
      }
    }
  }
  value_info {
    name: "/model.15/cv2/act/Mul_output_0"
    type {
      tensor_type {
        elem_type: 1
        shape {
          dim {
            dim_value: 1
          }
          dim {
            dim_value: 128
          }
          dim {
            dim_value: 80
          }
          dim {
            dim_value: 80
          }
        }
      }
    }
  }
  value_info {
    name: "/model.16/conv/Conv_output_0"
    type {
      tensor_type {
        elem_type: 1
        shape {
          dim {
            dim_value: 1
          }
          dim {
            dim_value: 128
          }
          dim {
            dim_value: 40
          }
          dim {
            dim_value: 40
          }
        }
      }
    }
  }
  value_info {
    name: "/model.22/cv2.0/cv2.0.0/conv/Conv_output_0"
    type {
      tensor_type {
        elem_type: 1
        shape {
          dim {
            dim_value: 1
          }
          dim {
            dim_value: 64
          }
          dim {
            dim_value: 80
          }
          dim {
            dim_value: 80
          }
        }
      }
    }
  }
  value_info {
    name: "/model.22/cv3.0/cv3.0.0/conv/Conv_output_0"
    type {
      tensor_type {
        elem_type: 1
        shape {
          dim {
            dim_value: 1
          }
          dim {
            dim_value: 128
          }
          dim {
            dim_value: 80
          }
          dim {
            dim_value: 80
          }
        }
      }
    }
  }
  value_info {
    name: "/model.16/act/Sigmoid_output_0"
    type {
      tensor_type {
        elem_type: 1
        shape {
          dim {
            dim_value: 1
          }
          dim {
            dim_value: 128
          }
          dim {
            dim_value: 40
          }
          dim {
            dim_value: 40
          }
        }
      }
    }
  }
  value_info {
    name: "/model.22/cv2.0/cv2.0.0/act/Sigmoid_output_0"
    type {
      tensor_type {
        elem_type: 1
        shape {
          dim {
            dim_value: 1
          }
          dim {
            dim_value: 64
          }
          dim {
            dim_value: 80
          }
          dim {
            dim_value: 80
          }
        }
      }
    }
  }
  value_info {
    name: "/model.22/cv3.0/cv3.0.0/act/Sigmoid_output_0"
    type {
      tensor_type {
        elem_type: 1
        shape {
          dim {
            dim_value: 1
          }
          dim {
            dim_value: 128
          }
          dim {
            dim_value: 80
          }
          dim {
            dim_value: 80
          }
        }
      }
    }
  }
  value_info {
    name: "/model.16/act/Mul_output_0"
    type {
      tensor_type {
        elem_type: 1
        shape {
          dim {
            dim_value: 1
          }
          dim {
            dim_value: 128
          }
          dim {
            dim_value: 40
          }
          dim {
            dim_value: 40
          }
        }
      }
    }
  }
  value_info {
    name: "/model.22/cv2.0/cv2.0.0/act/Mul_output_0"
    type {
      tensor_type {
        elem_type: 1
        shape {
          dim {
            dim_value: 1
          }
          dim {
            dim_value: 64
          }
          dim {
            dim_value: 80
          }
          dim {
            dim_value: 80
          }
        }
      }
    }
  }
  value_info {
    name: "/model.22/cv3.0/cv3.0.0/act/Mul_output_0"
    type {
      tensor_type {
        elem_type: 1
        shape {
          dim {
            dim_value: 1
          }
          dim {
            dim_value: 128
          }
          dim {
            dim_value: 80
          }
          dim {
            dim_value: 80
          }
        }
      }
    }
  }
  value_info {
    name: "/model.17/Concat_output_0"
    type {
      tensor_type {
        elem_type: 1
        shape {
          dim {
            dim_value: 1
          }
          dim {
            dim_value: 384
          }
          dim {
            dim_value: 40
          }
          dim {
            dim_value: 40
          }
        }
      }
    }
  }
  value_info {
    name: "/model.22/cv2.0/cv2.0.1/conv/Conv_output_0"
    type {
      tensor_type {
        elem_type: 1
        shape {
          dim {
            dim_value: 1
          }
          dim {
            dim_value: 64
          }
          dim {
            dim_value: 80
          }
          dim {
            dim_value: 80
          }
        }
      }
    }
  }
  value_info {
    name: "/model.22/cv3.0/cv3.0.1/conv/Conv_output_0"
    type {
      tensor_type {
        elem_type: 1
        shape {
          dim {
            dim_value: 1
          }
          dim {
            dim_value: 128
          }
          dim {
            dim_value: 80
          }
          dim {
            dim_value: 80
          }
        }
      }
    }
  }
  value_info {
    name: "/model.18/cv1/conv/Conv_output_0"
    type {
      tensor_type {
        elem_type: 1
        shape {
          dim {
            dim_value: 1
          }
          dim {
            dim_value: 256
          }
          dim {
            dim_value: 40
          }
          dim {
            dim_value: 40
          }
        }
      }
    }
  }
  value_info {
    name: "/model.22/cv2.0/cv2.0.1/act/Sigmoid_output_0"
    type {
      tensor_type {
        elem_type: 1
        shape {
          dim {
            dim_value: 1
          }
          dim {
            dim_value: 64
          }
          dim {
            dim_value: 80
          }
          dim {
            dim_value: 80
          }
        }
      }
    }
  }
  value_info {
    name: "/model.22/cv3.0/cv3.0.1/act/Sigmoid_output_0"
    type {
      tensor_type {
        elem_type: 1
        shape {
          dim {
            dim_value: 1
          }
          dim {
            dim_value: 128
          }
          dim {
            dim_value: 80
          }
          dim {
            dim_value: 80
          }
        }
      }
    }
  }
  value_info {
    name: "/model.18/cv1/act/Sigmoid_output_0"
    type {
      tensor_type {
        elem_type: 1
        shape {
          dim {
            dim_value: 1
          }
          dim {
            dim_value: 256
          }
          dim {
            dim_value: 40
          }
          dim {
            dim_value: 40
          }
        }
      }
    }
  }
  value_info {
    name: "/model.22/cv2.0/cv2.0.1/act/Mul_output_0"
    type {
      tensor_type {
        elem_type: 1
        shape {
          dim {
            dim_value: 1
          }
          dim {
            dim_value: 64
          }
          dim {
            dim_value: 80
          }
          dim {
            dim_value: 80
          }
        }
      }
    }
  }
  value_info {
    name: "/model.22/cv3.0/cv3.0.1/act/Mul_output_0"
    type {
      tensor_type {
        elem_type: 1
        shape {
          dim {
            dim_value: 1
          }
          dim {
            dim_value: 128
          }
          dim {
            dim_value: 80
          }
          dim {
            dim_value: 80
          }
        }
      }
    }
  }
  value_info {
    name: "/model.18/cv1/act/Mul_output_0"
    type {
      tensor_type {
        elem_type: 1
        shape {
          dim {
            dim_value: 1
          }
          dim {
            dim_value: 256
          }
          dim {
            dim_value: 40
          }
          dim {
            dim_value: 40
          }
        }
      }
    }
  }
  value_info {
    name: "/model.22/cv2.0/cv2.0.2/Conv_output_0"
    type {
      tensor_type {
        elem_type: 1
        shape {
          dim {
            dim_value: 1
          }
          dim {
            dim_value: 64
          }
          dim {
            dim_value: 80
          }
          dim {
            dim_value: 80
          }
        }
      }
    }
  }
  value_info {
    name: "/model.22/cv3.0/cv3.0.2/Conv_output_0"
    type {
      tensor_type {
        elem_type: 1
        shape {
          dim {
            dim_value: 1
          }
          dim {
            dim_value: 1
          }
          dim {
            dim_value: 80
          }
          dim {
            dim_value: 80
          }
        }
      }
    }
  }
  value_info {
    name: "/model.18/Split_output_0"
    type {
      tensor_type {
        elem_type: 1
        shape {
          dim {
            dim_value: 1
          }
          dim {
            dim_value: 128
          }
          dim {
            dim_value: 40
          }
          dim {
            dim_value: 40
          }
        }
      }
    }
  }
  value_info {
    name: "/model.18/Split_output_1"
    type {
      tensor_type {
        elem_type: 1
        shape {
          dim {
            dim_value: 1
          }
          dim {
            dim_value: 128
          }
          dim {
            dim_value: 40
          }
          dim {
            dim_value: 40
          }
        }
      }
    }
  }
  value_info {
    name: "/model.22/Concat_output_0"
    type {
      tensor_type {
        elem_type: 1
        shape {
          dim {
            dim_value: 1
          }
          dim {
            dim_value: 65
          }
          dim {
            dim_value: 80
          }
          dim {
            dim_value: 80
          }
        }
      }
    }
  }
  value_info {
    name: "/model.18/m.0/cv1/conv/Conv_output_0"
    type {
      tensor_type {
        elem_type: 1
        shape {
          dim {
            dim_value: 1
          }
          dim {
            dim_value: 128
          }
          dim {
            dim_value: 40
          }
          dim {
            dim_value: 40
          }
        }
      }
    }
  }
  value_info {
    name: "/model.22/Reshape_output_0"
    type {
      tensor_type {
        elem_type: 1
        shape {
          dim {
            dim_value: 1
          }
          dim {
            dim_value: 65
          }
          dim {
            dim_value: 6400
          }
        }
      }
    }
  }
  value_info {
    name: "/model.18/m.0/cv1/act/Sigmoid_output_0"
    type {
      tensor_type {
        elem_type: 1
        shape {
          dim {
            dim_value: 1
          }
          dim {
            dim_value: 128
          }
          dim {
            dim_value: 40
          }
          dim {
            dim_value: 40
          }
        }
      }
    }
  }
  value_info {
    name: "/model.18/m.0/cv1/act/Mul_output_0"
    type {
      tensor_type {
        elem_type: 1
        shape {
          dim {
            dim_value: 1
          }
          dim {
            dim_value: 128
          }
          dim {
            dim_value: 40
          }
          dim {
            dim_value: 40
          }
        }
      }
    }
  }
  value_info {
    name: "/model.18/m.0/cv2/conv/Conv_output_0"
    type {
      tensor_type {
        elem_type: 1
        shape {
          dim {
            dim_value: 1
          }
          dim {
            dim_value: 128
          }
          dim {
            dim_value: 40
          }
          dim {
            dim_value: 40
          }
        }
      }
    }
  }
  value_info {
    name: "/model.18/m.0/cv2/act/Sigmoid_output_0"
    type {
      tensor_type {
        elem_type: 1
        shape {
          dim {
            dim_value: 1
          }
          dim {
            dim_value: 128
          }
          dim {
            dim_value: 40
          }
          dim {
            dim_value: 40
          }
        }
      }
    }
  }
  value_info {
    name: "/model.18/m.0/cv2/act/Mul_output_0"
    type {
      tensor_type {
        elem_type: 1
        shape {
          dim {
            dim_value: 1
          }
          dim {
            dim_value: 128
          }
          dim {
            dim_value: 40
          }
          dim {
            dim_value: 40
          }
        }
      }
    }
  }
  value_info {
    name: "/model.18/Concat_output_0"
    type {
      tensor_type {
        elem_type: 1
        shape {
          dim {
            dim_value: 1
          }
          dim {
            dim_value: 384
          }
          dim {
            dim_value: 40
          }
          dim {
            dim_value: 40
          }
        }
      }
    }
  }
  value_info {
    name: "/model.18/cv2/conv/Conv_output_0"
    type {
      tensor_type {
        elem_type: 1
        shape {
          dim {
            dim_value: 1
          }
          dim {
            dim_value: 256
          }
          dim {
            dim_value: 40
          }
          dim {
            dim_value: 40
          }
        }
      }
    }
  }
  value_info {
    name: "/model.18/cv2/act/Sigmoid_output_0"
    type {
      tensor_type {
        elem_type: 1
        shape {
          dim {
            dim_value: 1
          }
          dim {
            dim_value: 256
          }
          dim {
            dim_value: 40
          }
          dim {
            dim_value: 40
          }
        }
      }
    }
  }
  value_info {
    name: "/model.18/cv2/act/Mul_output_0"
    type {
      tensor_type {
        elem_type: 1
        shape {
          dim {
            dim_value: 1
          }
          dim {
            dim_value: 256
          }
          dim {
            dim_value: 40
          }
          dim {
            dim_value: 40
          }
        }
      }
    }
  }
  value_info {
    name: "/model.19/conv/Conv_output_0"
    type {
      tensor_type {
        elem_type: 1
        shape {
          dim {
            dim_value: 1
          }
          dim {
            dim_value: 256
          }
          dim {
            dim_value: 20
          }
          dim {
            dim_value: 20
          }
        }
      }
    }
  }
  value_info {
    name: "/model.22/cv2.1/cv2.1.0/conv/Conv_output_0"
    type {
      tensor_type {
        elem_type: 1
        shape {
          dim {
            dim_value: 1
          }
          dim {
            dim_value: 64
          }
          dim {
            dim_value: 40
          }
          dim {
            dim_value: 40
          }
        }
      }
    }
  }
  value_info {
    name: "/model.22/cv3.1/cv3.1.0/conv/Conv_output_0"
    type {
      tensor_type {
        elem_type: 1
        shape {
          dim {
            dim_value: 1
          }
          dim {
            dim_value: 128
          }
          dim {
            dim_value: 40
          }
          dim {
            dim_value: 40
          }
        }
      }
    }
  }
  value_info {
    name: "/model.19/act/Sigmoid_output_0"
    type {
      tensor_type {
        elem_type: 1
        shape {
          dim {
            dim_value: 1
          }
          dim {
            dim_value: 256
          }
          dim {
            dim_value: 20
          }
          dim {
            dim_value: 20
          }
        }
      }
    }
  }
  value_info {
    name: "/model.22/cv2.1/cv2.1.0/act/Sigmoid_output_0"
    type {
      tensor_type {
        elem_type: 1
        shape {
          dim {
            dim_value: 1
          }
          dim {
            dim_value: 64
          }
          dim {
            dim_value: 40
          }
          dim {
            dim_value: 40
          }
        }
      }
    }
  }
  value_info {
    name: "/model.22/cv3.1/cv3.1.0/act/Sigmoid_output_0"
    type {
      tensor_type {
        elem_type: 1
        shape {
          dim {
            dim_value: 1
          }
          dim {
            dim_value: 128
          }
          dim {
            dim_value: 40
          }
          dim {
            dim_value: 40
          }
        }
      }
    }
  }
  value_info {
    name: "/model.19/act/Mul_output_0"
    type {
      tensor_type {
        elem_type: 1
        shape {
          dim {
            dim_value: 1
          }
          dim {
            dim_value: 256
          }
          dim {
            dim_value: 20
          }
          dim {
            dim_value: 20
          }
        }
      }
    }
  }
  value_info {
    name: "/model.22/cv2.1/cv2.1.0/act/Mul_output_0"
    type {
      tensor_type {
        elem_type: 1
        shape {
          dim {
            dim_value: 1
          }
          dim {
            dim_value: 64
          }
          dim {
            dim_value: 40
          }
          dim {
            dim_value: 40
          }
        }
      }
    }
  }
  value_info {
    name: "/model.22/cv3.1/cv3.1.0/act/Mul_output_0"
    type {
      tensor_type {
        elem_type: 1
        shape {
          dim {
            dim_value: 1
          }
          dim {
            dim_value: 128
          }
          dim {
            dim_value: 40
          }
          dim {
            dim_value: 40
          }
        }
      }
    }
  }
  value_info {
    name: "/model.20/Concat_output_0"
    type {
      tensor_type {
        elem_type: 1
        shape {
          dim {
            dim_value: 1
          }
          dim {
            dim_value: 768
          }
          dim {
            dim_value: 20
          }
          dim {
            dim_value: 20
          }
        }
      }
    }
  }
  value_info {
    name: "/model.22/cv2.1/cv2.1.1/conv/Conv_output_0"
    type {
      tensor_type {
        elem_type: 1
        shape {
          dim {
            dim_value: 1
          }
          dim {
            dim_value: 64
          }
          dim {
            dim_value: 40
          }
          dim {
            dim_value: 40
          }
        }
      }
    }
  }
  value_info {
    name: "/model.22/cv3.1/cv3.1.1/conv/Conv_output_0"
    type {
      tensor_type {
        elem_type: 1
        shape {
          dim {
            dim_value: 1
          }
          dim {
            dim_value: 128
          }
          dim {
            dim_value: 40
          }
          dim {
            dim_value: 40
          }
        }
      }
    }
  }
  value_info {
    name: "/model.21/cv1/conv/Conv_output_0"
    type {
      tensor_type {
        elem_type: 1
        shape {
          dim {
            dim_value: 1
          }
          dim {
            dim_value: 512
          }
          dim {
            dim_value: 20
          }
          dim {
            dim_value: 20
          }
        }
      }
    }
  }
  value_info {
    name: "/model.22/cv2.1/cv2.1.1/act/Sigmoid_output_0"
    type {
      tensor_type {
        elem_type: 1
        shape {
          dim {
            dim_value: 1
          }
          dim {
            dim_value: 64
          }
          dim {
            dim_value: 40
          }
          dim {
            dim_value: 40
          }
        }
      }
    }
  }
  value_info {
    name: "/model.22/cv3.1/cv3.1.1/act/Sigmoid_output_0"
    type {
      tensor_type {
        elem_type: 1
        shape {
          dim {
            dim_value: 1
          }
          dim {
            dim_value: 128
          }
          dim {
            dim_value: 40
          }
          dim {
            dim_value: 40
          }
        }
      }
    }
  }
  value_info {
    name: "/model.21/cv1/act/Sigmoid_output_0"
    type {
      tensor_type {
        elem_type: 1
        shape {
          dim {
            dim_value: 1
          }
          dim {
            dim_value: 512
          }
          dim {
            dim_value: 20
          }
          dim {
            dim_value: 20
          }
        }
      }
    }
  }
  value_info {
    name: "/model.22/cv2.1/cv2.1.1/act/Mul_output_0"
    type {
      tensor_type {
        elem_type: 1
        shape {
          dim {
            dim_value: 1
          }
          dim {
            dim_value: 64
          }
          dim {
            dim_value: 40
          }
          dim {
            dim_value: 40
          }
        }
      }
    }
  }
  value_info {
    name: "/model.22/cv3.1/cv3.1.1/act/Mul_output_0"
    type {
      tensor_type {
        elem_type: 1
        shape {
          dim {
            dim_value: 1
          }
          dim {
            dim_value: 128
          }
          dim {
            dim_value: 40
          }
          dim {
            dim_value: 40
          }
        }
      }
    }
  }
  value_info {
    name: "/model.21/cv1/act/Mul_output_0"
    type {
      tensor_type {
        elem_type: 1
        shape {
          dim {
            dim_value: 1
          }
          dim {
            dim_value: 512
          }
          dim {
            dim_value: 20
          }
          dim {
            dim_value: 20
          }
        }
      }
    }
  }
  value_info {
    name: "/model.22/cv2.1/cv2.1.2/Conv_output_0"
    type {
      tensor_type {
        elem_type: 1
        shape {
          dim {
            dim_value: 1
          }
          dim {
            dim_value: 64
          }
          dim {
            dim_value: 40
          }
          dim {
            dim_value: 40
          }
        }
      }
    }
  }
  value_info {
    name: "/model.22/cv3.1/cv3.1.2/Conv_output_0"
    type {
      tensor_type {
        elem_type: 1
        shape {
          dim {
            dim_value: 1
          }
          dim {
            dim_value: 1
          }
          dim {
            dim_value: 40
          }
          dim {
            dim_value: 40
          }
        }
      }
    }
  }
  value_info {
    name: "/model.21/Split_output_0"
    type {
      tensor_type {
        elem_type: 1
        shape {
          dim {
            dim_value: 1
          }
          dim {
            dim_value: 256
          }
          dim {
            dim_value: 20
          }
          dim {
            dim_value: 20
          }
        }
      }
    }
  }
  value_info {
    name: "/model.21/Split_output_1"
    type {
      tensor_type {
        elem_type: 1
        shape {
          dim {
            dim_value: 1
          }
          dim {
            dim_value: 256
          }
          dim {
            dim_value: 20
          }
          dim {
            dim_value: 20
          }
        }
      }
    }
  }
  value_info {
    name: "/model.22/Concat_1_output_0"
    type {
      tensor_type {
        elem_type: 1
        shape {
          dim {
            dim_value: 1
          }
          dim {
            dim_value: 65
          }
          dim {
            dim_value: 40
          }
          dim {
            dim_value: 40
          }
        }
      }
    }
  }
  value_info {
    name: "/model.21/m.0/cv1/conv/Conv_output_0"
    type {
      tensor_type {
        elem_type: 1
        shape {
          dim {
            dim_value: 1
          }
          dim {
            dim_value: 256
          }
          dim {
            dim_value: 20
          }
          dim {
            dim_value: 20
          }
        }
      }
    }
  }
  value_info {
    name: "/model.22/Reshape_1_output_0"
    type {
      tensor_type {
        elem_type: 1
        shape {
          dim {
            dim_value: 1
          }
          dim {
            dim_value: 65
          }
          dim {
            dim_value: 1600
          }
        }
      }
    }
  }
  value_info {
    name: "/model.21/m.0/cv1/act/Sigmoid_output_0"
    type {
      tensor_type {
        elem_type: 1
        shape {
          dim {
            dim_value: 1
          }
          dim {
            dim_value: 256
          }
          dim {
            dim_value: 20
          }
          dim {
            dim_value: 20
          }
        }
      }
    }
  }
  value_info {
    name: "/model.21/m.0/cv1/act/Mul_output_0"
    type {
      tensor_type {
        elem_type: 1
        shape {
          dim {
            dim_value: 1
          }
          dim {
            dim_value: 256
          }
          dim {
            dim_value: 20
          }
          dim {
            dim_value: 20
          }
        }
      }
    }
  }
  value_info {
    name: "/model.21/m.0/cv2/conv/Conv_output_0"
    type {
      tensor_type {
        elem_type: 1
        shape {
          dim {
            dim_value: 1
          }
          dim {
            dim_value: 256
          }
          dim {
            dim_value: 20
          }
          dim {
            dim_value: 20
          }
        }
      }
    }
  }
  value_info {
    name: "/model.21/m.0/cv2/act/Sigmoid_output_0"
    type {
      tensor_type {
        elem_type: 1
        shape {
          dim {
            dim_value: 1
          }
          dim {
            dim_value: 256
          }
          dim {
            dim_value: 20
          }
          dim {
            dim_value: 20
          }
        }
      }
    }
  }
  value_info {
    name: "/model.21/m.0/cv2/act/Mul_output_0"
    type {
      tensor_type {
        elem_type: 1
        shape {
          dim {
            dim_value: 1
          }
          dim {
            dim_value: 256
          }
          dim {
            dim_value: 20
          }
          dim {
            dim_value: 20
          }
        }
      }
    }
  }
  value_info {
    name: "/model.21/Concat_output_0"
    type {
      tensor_type {
        elem_type: 1
        shape {
          dim {
            dim_value: 1
          }
          dim {
            dim_value: 768
          }
          dim {
            dim_value: 20
          }
          dim {
            dim_value: 20
          }
        }
      }
    }
  }
  value_info {
    name: "/model.21/cv2/conv/Conv_output_0"
    type {
      tensor_type {
        elem_type: 1
        shape {
          dim {
            dim_value: 1
          }
          dim {
            dim_value: 512
          }
          dim {
            dim_value: 20
          }
          dim {
            dim_value: 20
          }
        }
      }
    }
  }
  value_info {
    name: "/model.21/cv2/act/Sigmoid_output_0"
    type {
      tensor_type {
        elem_type: 1
        shape {
          dim {
            dim_value: 1
          }
          dim {
            dim_value: 512
          }
          dim {
            dim_value: 20
          }
          dim {
            dim_value: 20
          }
        }
      }
    }
  }
  value_info {
    name: "/model.21/cv2/act/Mul_output_0"
    type {
      tensor_type {
        elem_type: 1
        shape {
          dim {
            dim_value: 1
          }
          dim {
            dim_value: 512
          }
          dim {
            dim_value: 20
          }
          dim {
            dim_value: 20
          }
        }
      }
    }
  }
  value_info {
    name: "/model.22/cv2.2/cv2.2.0/conv/Conv_output_0"
    type {
      tensor_type {
        elem_type: 1
        shape {
          dim {
            dim_value: 1
          }
          dim {
            dim_value: 64
          }
          dim {
            dim_value: 20
          }
          dim {
            dim_value: 20
          }
        }
      }
    }
  }
  value_info {
    name: "/model.22/cv3.2/cv3.2.0/conv/Conv_output_0"
    type {
      tensor_type {
        elem_type: 1
        shape {
          dim {
            dim_value: 1
          }
          dim {
            dim_value: 128
          }
          dim {
            dim_value: 20
          }
          dim {
            dim_value: 20
          }
        }
      }
    }
  }
  value_info {
    name: "/model.22/cv2.2/cv2.2.0/act/Sigmoid_output_0"
    type {
      tensor_type {
        elem_type: 1
        shape {
          dim {
            dim_value: 1
          }
          dim {
            dim_value: 64
          }
          dim {
            dim_value: 20
          }
          dim {
            dim_value: 20
          }
        }
      }
    }
  }
  value_info {
    name: "/model.22/cv3.2/cv3.2.0/act/Sigmoid_output_0"
    type {
      tensor_type {
        elem_type: 1
        shape {
          dim {
            dim_value: 1
          }
          dim {
            dim_value: 128
          }
          dim {
            dim_value: 20
          }
          dim {
            dim_value: 20
          }
        }
      }
    }
  }
  value_info {
    name: "/model.22/cv2.2/cv2.2.0/act/Mul_output_0"
    type {
      tensor_type {
        elem_type: 1
        shape {
          dim {
            dim_value: 1
          }
          dim {
            dim_value: 64
          }
          dim {
            dim_value: 20
          }
          dim {
            dim_value: 20
          }
        }
      }
    }
  }
  value_info {
    name: "/model.22/cv3.2/cv3.2.0/act/Mul_output_0"
    type {
      tensor_type {
        elem_type: 1
        shape {
          dim {
            dim_value: 1
          }
          dim {
            dim_value: 128
          }
          dim {
            dim_value: 20
          }
          dim {
            dim_value: 20
          }
        }
      }
    }
  }
  value_info {
    name: "/model.22/cv2.2/cv2.2.1/conv/Conv_output_0"
    type {
      tensor_type {
        elem_type: 1
        shape {
          dim {
            dim_value: 1
          }
          dim {
            dim_value: 64
          }
          dim {
            dim_value: 20
          }
          dim {
            dim_value: 20
          }
        }
      }
    }
  }
  value_info {
    name: "/model.22/cv3.2/cv3.2.1/conv/Conv_output_0"
    type {
      tensor_type {
        elem_type: 1
        shape {
          dim {
            dim_value: 1
          }
          dim {
            dim_value: 128
          }
          dim {
            dim_value: 20
          }
          dim {
            dim_value: 20
          }
        }
      }
    }
  }
  value_info {
    name: "/model.22/cv2.2/cv2.2.1/act/Sigmoid_output_0"
    type {
      tensor_type {
        elem_type: 1
        shape {
          dim {
            dim_value: 1
          }
          dim {
            dim_value: 64
          }
          dim {
            dim_value: 20
          }
          dim {
            dim_value: 20
          }
        }
      }
    }
  }
  value_info {
    name: "/model.22/cv3.2/cv3.2.1/act/Sigmoid_output_0"
    type {
      tensor_type {
        elem_type: 1
        shape {
          dim {
            dim_value: 1
          }
          dim {
            dim_value: 128
          }
          dim {
            dim_value: 20
          }
          dim {
            dim_value: 20
          }
        }
      }
    }
  }
  value_info {
    name: "/model.22/cv2.2/cv2.2.1/act/Mul_output_0"
    type {
      tensor_type {
        elem_type: 1
        shape {
          dim {
            dim_value: 1
          }
          dim {
            dim_value: 64
          }
          dim {
            dim_value: 20
          }
          dim {
            dim_value: 20
          }
        }
      }
    }
  }
  value_info {
    name: "/model.22/cv3.2/cv3.2.1/act/Mul_output_0"
    type {
      tensor_type {
        elem_type: 1
        shape {
          dim {
            dim_value: 1
          }
          dim {
            dim_value: 128
          }
          dim {
            dim_value: 20
          }
          dim {
            dim_value: 20
          }
        }
      }
    }
  }
  value_info {
    name: "/model.22/cv2.2/cv2.2.2/Conv_output_0"
    type {
      tensor_type {
        elem_type: 1
        shape {
          dim {
            dim_value: 1
          }
          dim {
            dim_value: 64
          }
          dim {
            dim_value: 20
          }
          dim {
            dim_value: 20
          }
        }
      }
    }
  }
  value_info {
    name: "/model.22/cv3.2/cv3.2.2/Conv_output_0"
    type {
      tensor_type {
        elem_type: 1
        shape {
          dim {
            dim_value: 1
          }
          dim {
            dim_value: 1
          }
          dim {
            dim_value: 20
          }
          dim {
            dim_value: 20
          }
        }
      }
    }
  }
  value_info {
    name: "/model.22/Concat_2_output_0"
    type {
      tensor_type {
        elem_type: 1
        shape {
          dim {
            dim_value: 1
          }
          dim {
            dim_value: 65
          }
          dim {
            dim_value: 20
          }
          dim {
            dim_value: 20
          }
        }
      }
    }
  }
  value_info {
    name: "/model.22/Reshape_2_output_0"
    type {
      tensor_type {
        elem_type: 1
        shape {
          dim {
            dim_value: 1
          }
          dim {
            dim_value: 65
          }
          dim {
            dim_value: 400
          }
        }
      }
    }
  }
  value_info {
    name: "/model.22/Concat_3_output_0"
    type {
      tensor_type {
        elem_type: 1
        shape {
          dim {
            dim_value: 1
          }
          dim {
            dim_value: 65
          }
          dim {
            dim_value: 8400
          }
        }
      }
    }
  }
  value_info {
    name: "/model.22/Split_output_0"
    type {
      tensor_type {
        elem_type: 1
        shape {
          dim {
            dim_value: 1
          }
          dim {
            dim_value: 64
          }
          dim {
            dim_value: 8400
          }
        }
      }
    }
  }
  value_info {
    name: "/model.22/Split_output_1"
    type {
      tensor_type {
        elem_type: 1
        shape {
          dim {
            dim_value: 1
          }
          dim {
            dim_value: 1
          }
          dim {
            dim_value: 8400
          }
        }
      }
    }
  }
  value_info {
    name: "/model.22/dfl/Reshape_output_0"
    type {
      tensor_type {
        elem_type: 1
        shape {
          dim {
            dim_value: 1
          }
          dim {
            dim_value: 4
          }
          dim {
            dim_value: 16
          }
          dim {
            dim_value: 8400
          }
        }
      }
    }
  }
  value_info {
    name: "/model.22/Sigmoid_output_0"
    type {
      tensor_type {
        elem_type: 1
        shape {
          dim {
            dim_value: 1
          }
          dim {
            dim_value: 1
          }
          dim {
            dim_value: 8400
          }
        }
      }
    }
  }
  value_info {
    name: "/model.22/dfl/Transpose_output_0"
    type {
      tensor_type {
        elem_type: 1
        shape {
          dim {
            dim_value: 1
          }
          dim {
            dim_value: 16
          }
          dim {
            dim_value: 4
          }
          dim {
            dim_value: 8400
          }
        }
      }
    }
  }
  value_info {
    name: "/model.22/dfl/Softmax_output_0"
    type {
      tensor_type {
        elem_type: 1
        shape {
          dim {
            dim_value: 1
          }
          dim {
            dim_value: 16
          }
          dim {
            dim_value: 4
          }
          dim {
            dim_value: 8400
          }
        }
      }
    }
  }
  value_info {
    name: "/model.22/dfl/conv/Conv_output_0"
    type {
      tensor_type {
        elem_type: 1
        shape {
          dim {
            dim_value: 1
          }
          dim {
            dim_value: 1
          }
          dim {
            dim_value: 4
          }
          dim {
            dim_value: 8400
          }
        }
      }
    }
  }
}
opset_import {
  version: 19
}
metadata_props {
  key: "onnx.infer"
  value: "onnxruntime.quant"
}
metadata_props {
  key: "description"
  value: "Ultralytics best model trained on /content/datasets/SAR-4/data.yaml"
}
metadata_props {
  key: "author"
  value: "Ultralytics"
}
metadata_props {
  key: "date"
  value: "2024-11-28T07:13:09.807819"
}
metadata_props {
  key: "version"
  value: "8.2.103"
}
metadata_props {
  key: "license"
  value: "AGPL-3.0 License (https://ultralytics.com/license)"
}
metadata_props {
  key: "docs"
  value: "https://docs.ultralytics.com"
}
metadata_props {
  key: "stride"
  value: "32"
}
metadata_props {
  key: "task"
  value: "detect"
}
metadata_props {
  key: "batch"
  value: "1"
}
metadata_props {
  key: "imgsz"
  value: "[640, 640]"
}
metadata_props {
  key: "names"
  value: "{0: \'korban\'}"
}
