#loc = loc(unknown)
module @yolov8s attributes {module.chip = "ALL", module.platform = "ONNX", module.state = "TOP_F32", module.weight_file = "yolov8s_top_f32_all_weight.npz"} {
  func.func @main(%arg0: tensor<1x3x240x240xf32> loc(unknown)) -> (tensor<*xf32>, tensor<*xf32>) {
    %0 = "top.None"() : () -> none loc(#loc)
    %1 = "top.Input"(%arg0) {black_level = 1.120000e+02 : f64, channel_format = "nchw", do_preprocess = true, keep_aspect_ratio = true, keep_ratio_mode = "letterbox", mean = [0.000000e+00, 0.000000e+00, 0.000000e+00], pad_type = "center", pad_value = 0 : i64, pixel_format = "rgb", resize_dims = [240, 240], scale = [0.0039215688593685627, 0.0039215688593685627, 0.0039215688593685627], white_level = 4.095000e+03 : f64} : (tensor<1x3x240x240xf32>) -> tensor<1x3x240x240xf32> loc(#loc1)
    %2 = "top.Weight"() : () -> tensor<32x3x3x3xf32> loc(#loc2)
    %3 = "top.Weight"() : () -> tensor<32xf32> loc(#loc3)
    %4 = "top.Conv"(%1, %2, %3) {auto_pad = "NOTSET", dilations = [1, 1], do_relu = false, dynweight_reorderd = false, group = 1 : i64, kernel_shape = [3, 3], pads = [1, 1, 1, 1], relu_limit = -1.000000e+00 : f64, strides = [2, 2], weight_is_coeff = 1 : i64} : (tensor<1x3x240x240xf32>, tensor<32x3x3x3xf32>, tensor<32xf32>) -> tensor<*xf32> loc(#loc4)
    %5 = "top.Sigmoid"(%4) {bias = 0.000000e+00 : f64, log = false, scale = 1.000000e+00 : f64} : (tensor<*xf32>) -> tensor<*xf32> loc(#loc5)
    %6 = "top.Mul"(%4, %5) {do_relu = false, relu_limit = -1.000000e+00 : f64} : (tensor<*xf32>, tensor<*xf32>) -> tensor<*xf32> loc(#loc6)
    %7 = "top.Weight"() : () -> tensor<64x32x3x3xf32> loc(#loc7)
    %8 = "top.Weight"() : () -> tensor<64xf32> loc(#loc8)
    %9 = "top.Conv"(%6, %7, %8) {auto_pad = "NOTSET", dilations = [1, 1], do_relu = false, dynweight_reorderd = false, group = 1 : i64, kernel_shape = [3, 3], pads = [1, 1, 1, 1], relu_limit = -1.000000e+00 : f64, strides = [2, 2], weight_is_coeff = 1 : i64} : (tensor<*xf32>, tensor<64x32x3x3xf32>, tensor<64xf32>) -> tensor<*xf32> loc(#loc9)
    %10 = "top.Sigmoid"(%9) {bias = 0.000000e+00 : f64, log = false, scale = 1.000000e+00 : f64} : (tensor<*xf32>) -> tensor<*xf32> loc(#loc10)
    %11 = "top.Mul"(%9, %10) {do_relu = false, relu_limit = -1.000000e+00 : f64} : (tensor<*xf32>, tensor<*xf32>) -> tensor<*xf32> loc(#loc11)
    %12 = "top.Weight"() : () -> tensor<64x64x1x1xf32> loc(#loc12)
    %13 = "top.Weight"() : () -> tensor<64xf32> loc(#loc13)
    %14 = "top.Conv"(%11, %12, %13) {auto_pad = "NOTSET", dilations = [1, 1], do_relu = false, dynweight_reorderd = false, group = 1 : i64, kernel_shape = [1, 1], pads = [0, 0, 0, 0], relu_limit = -1.000000e+00 : f64, strides = [1, 1], weight_is_coeff = 1 : i64} : (tensor<*xf32>, tensor<64x64x1x1xf32>, tensor<64xf32>) -> tensor<*xf32> loc(#loc14)
    %15 = "top.Sigmoid"(%14) {bias = 0.000000e+00 : f64, log = false, scale = 1.000000e+00 : f64} : (tensor<*xf32>) -> tensor<*xf32> loc(#loc15)
    %16 = "top.Mul"(%14, %15) {do_relu = false, relu_limit = -1.000000e+00 : f64} : (tensor<*xf32>, tensor<*xf32>) -> tensor<*xf32> loc(#loc16)
    %17:2 = "top.Split"(%16) {axis = 1 : si32, num = 2 : i64, split_size = [32, 32]} : (tensor<*xf32>) -> (tensor<*xf32>, tensor<*xf32>) loc(#loc360)
    %18 = "top.Weight"() : () -> tensor<32x32x3x3xf32> loc(#loc19)
    %19 = "top.Weight"() : () -> tensor<32xf32> loc(#loc20)
    %20 = "top.Conv"(%17#1, %18, %19) {auto_pad = "NOTSET", dilations = [1, 1], do_relu = false, dynweight_reorderd = false, group = 1 : i64, kernel_shape = [3, 3], pads = [1, 1, 1, 1], relu_limit = -1.000000e+00 : f64, strides = [1, 1], weight_is_coeff = 1 : i64} : (tensor<*xf32>, tensor<32x32x3x3xf32>, tensor<32xf32>) -> tensor<*xf32> loc(#loc21)
    %21 = "top.Sigmoid"(%20) {bias = 0.000000e+00 : f64, log = false, scale = 1.000000e+00 : f64} : (tensor<*xf32>) -> tensor<*xf32> loc(#loc22)
    %22 = "top.Mul"(%20, %21) {do_relu = false, relu_limit = -1.000000e+00 : f64} : (tensor<*xf32>, tensor<*xf32>) -> tensor<*xf32> loc(#loc23)
    %23 = "top.Weight"() : () -> tensor<32x32x3x3xf32> loc(#loc24)
    %24 = "top.Weight"() : () -> tensor<32xf32> loc(#loc25)
    %25 = "top.Conv"(%22, %23, %24) {auto_pad = "NOTSET", dilations = [1, 1], do_relu = false, dynweight_reorderd = false, group = 1 : i64, kernel_shape = [3, 3], pads = [1, 1, 1, 1], relu_limit = -1.000000e+00 : f64, strides = [1, 1], weight_is_coeff = 1 : i64} : (tensor<*xf32>, tensor<32x32x3x3xf32>, tensor<32xf32>) -> tensor<*xf32> loc(#loc26)
    %26 = "top.Sigmoid"(%25) {bias = 0.000000e+00 : f64, log = false, scale = 1.000000e+00 : f64} : (tensor<*xf32>) -> tensor<*xf32> loc(#loc27)
    %27 = "top.Mul"(%25, %26) {do_relu = false, relu_limit = -1.000000e+00 : f64} : (tensor<*xf32>, tensor<*xf32>) -> tensor<*xf32> loc(#loc28)
    %28 = "top.Add"(%17#1, %27) {do_relu = false, relu_limit = -1.000000e+00 : f64} : (tensor<*xf32>, tensor<*xf32>) -> tensor<*xf32> loc(#loc29)
    %29 = "top.Concat"(%17#0, %17#1, %28) {axis = 1 : si32, do_relu = false, relu_limit = -1.000000e+00 : f64} : (tensor<*xf32>, tensor<*xf32>, tensor<*xf32>) -> tensor<*xf32> loc(#loc30)
    %30 = "top.Weight"() : () -> tensor<64x96x1x1xf32> loc(#loc31)
    %31 = "top.Weight"() : () -> tensor<64xf32> loc(#loc32)
    %32 = "top.Conv"(%29, %30, %31) {auto_pad = "NOTSET", dilations = [1, 1], do_relu = false, dynweight_reorderd = false, group = 1 : i64, kernel_shape = [1, 1], pads = [0, 0, 0, 0], relu_limit = -1.000000e+00 : f64, strides = [1, 1], weight_is_coeff = 1 : i64} : (tensor<*xf32>, tensor<64x96x1x1xf32>, tensor<64xf32>) -> tensor<*xf32> loc(#loc33)
    %33 = "top.Sigmoid"(%32) {bias = 0.000000e+00 : f64, log = false, scale = 1.000000e+00 : f64} : (tensor<*xf32>) -> tensor<*xf32> loc(#loc34)
    %34 = "top.Mul"(%32, %33) {do_relu = false, relu_limit = -1.000000e+00 : f64} : (tensor<*xf32>, tensor<*xf32>) -> tensor<*xf32> loc(#loc35)
    %35 = "top.Weight"() : () -> tensor<128x64x3x3xf32> loc(#loc36)
    %36 = "top.Weight"() : () -> tensor<128xf32> loc(#loc37)
    %37 = "top.Conv"(%34, %35, %36) {auto_pad = "NOTSET", dilations = [1, 1], do_relu = false, dynweight_reorderd = false, group = 1 : i64, kernel_shape = [3, 3], pads = [1, 1, 1, 1], relu_limit = -1.000000e+00 : f64, strides = [2, 2], weight_is_coeff = 1 : i64} : (tensor<*xf32>, tensor<128x64x3x3xf32>, tensor<128xf32>) -> tensor<*xf32> loc(#loc38)
    %38 = "top.Sigmoid"(%37) {bias = 0.000000e+00 : f64, log = false, scale = 1.000000e+00 : f64} : (tensor<*xf32>) -> tensor<*xf32> loc(#loc39)
    %39 = "top.Mul"(%37, %38) {do_relu = false, relu_limit = -1.000000e+00 : f64} : (tensor<*xf32>, tensor<*xf32>) -> tensor<*xf32> loc(#loc40)
    %40 = "top.Weight"() : () -> tensor<128x128x1x1xf32> loc(#loc41)
    %41 = "top.Weight"() : () -> tensor<128xf32> loc(#loc42)
    %42 = "top.Conv"(%39, %40, %41) {auto_pad = "NOTSET", dilations = [1, 1], do_relu = false, dynweight_reorderd = false, group = 1 : i64, kernel_shape = [1, 1], pads = [0, 0, 0, 0], relu_limit = -1.000000e+00 : f64, strides = [1, 1], weight_is_coeff = 1 : i64} : (tensor<*xf32>, tensor<128x128x1x1xf32>, tensor<128xf32>) -> tensor<*xf32> loc(#loc43)
    %43 = "top.Sigmoid"(%42) {bias = 0.000000e+00 : f64, log = false, scale = 1.000000e+00 : f64} : (tensor<*xf32>) -> tensor<*xf32> loc(#loc44)
    %44 = "top.Mul"(%42, %43) {do_relu = false, relu_limit = -1.000000e+00 : f64} : (tensor<*xf32>, tensor<*xf32>) -> tensor<*xf32> loc(#loc45)
    %45:2 = "top.Split"(%44) {axis = 1 : si32, num = 2 : i64, split_size = [64, 64]} : (tensor<*xf32>) -> (tensor<*xf32>, tensor<*xf32>) loc(#loc361)
    %46 = "top.Weight"() : () -> tensor<64x64x3x3xf32> loc(#loc48)
    %47 = "top.Weight"() : () -> tensor<64xf32> loc(#loc49)
    %48 = "top.Conv"(%45#1, %46, %47) {auto_pad = "NOTSET", dilations = [1, 1], do_relu = false, dynweight_reorderd = false, group = 1 : i64, kernel_shape = [3, 3], pads = [1, 1, 1, 1], relu_limit = -1.000000e+00 : f64, strides = [1, 1], weight_is_coeff = 1 : i64} : (tensor<*xf32>, tensor<64x64x3x3xf32>, tensor<64xf32>) -> tensor<*xf32> loc(#loc50)
    %49 = "top.Sigmoid"(%48) {bias = 0.000000e+00 : f64, log = false, scale = 1.000000e+00 : f64} : (tensor<*xf32>) -> tensor<*xf32> loc(#loc51)
    %50 = "top.Mul"(%48, %49) {do_relu = false, relu_limit = -1.000000e+00 : f64} : (tensor<*xf32>, tensor<*xf32>) -> tensor<*xf32> loc(#loc52)
    %51 = "top.Weight"() : () -> tensor<64x64x3x3xf32> loc(#loc53)
    %52 = "top.Weight"() : () -> tensor<64xf32> loc(#loc54)
    %53 = "top.Conv"(%50, %51, %52) {auto_pad = "NOTSET", dilations = [1, 1], do_relu = false, dynweight_reorderd = false, group = 1 : i64, kernel_shape = [3, 3], pads = [1, 1, 1, 1], relu_limit = -1.000000e+00 : f64, strides = [1, 1], weight_is_coeff = 1 : i64} : (tensor<*xf32>, tensor<64x64x3x3xf32>, tensor<64xf32>) -> tensor<*xf32> loc(#loc55)
    %54 = "top.Sigmoid"(%53) {bias = 0.000000e+00 : f64, log = false, scale = 1.000000e+00 : f64} : (tensor<*xf32>) -> tensor<*xf32> loc(#loc56)
    %55 = "top.Mul"(%53, %54) {do_relu = false, relu_limit = -1.000000e+00 : f64} : (tensor<*xf32>, tensor<*xf32>) -> tensor<*xf32> loc(#loc57)
    %56 = "top.Add"(%45#1, %55) {do_relu = false, relu_limit = -1.000000e+00 : f64} : (tensor<*xf32>, tensor<*xf32>) -> tensor<*xf32> loc(#loc58)
    %57 = "top.Weight"() : () -> tensor<64x64x3x3xf32> loc(#loc59)
    %58 = "top.Weight"() : () -> tensor<64xf32> loc(#loc60)
    %59 = "top.Conv"(%56, %57, %58) {auto_pad = "NOTSET", dilations = [1, 1], do_relu = false, dynweight_reorderd = false, group = 1 : i64, kernel_shape = [3, 3], pads = [1, 1, 1, 1], relu_limit = -1.000000e+00 : f64, strides = [1, 1], weight_is_coeff = 1 : i64} : (tensor<*xf32>, tensor<64x64x3x3xf32>, tensor<64xf32>) -> tensor<*xf32> loc(#loc61)
    %60 = "top.Sigmoid"(%59) {bias = 0.000000e+00 : f64, log = false, scale = 1.000000e+00 : f64} : (tensor<*xf32>) -> tensor<*xf32> loc(#loc62)
    %61 = "top.Mul"(%59, %60) {do_relu = false, relu_limit = -1.000000e+00 : f64} : (tensor<*xf32>, tensor<*xf32>) -> tensor<*xf32> loc(#loc63)
    %62 = "top.Weight"() : () -> tensor<64x64x3x3xf32> loc(#loc64)
    %63 = "top.Weight"() : () -> tensor<64xf32> loc(#loc65)
    %64 = "top.Conv"(%61, %62, %63) {auto_pad = "NOTSET", dilations = [1, 1], do_relu = false, dynweight_reorderd = false, group = 1 : i64, kernel_shape = [3, 3], pads = [1, 1, 1, 1], relu_limit = -1.000000e+00 : f64, strides = [1, 1], weight_is_coeff = 1 : i64} : (tensor<*xf32>, tensor<64x64x3x3xf32>, tensor<64xf32>) -> tensor<*xf32> loc(#loc66)
    %65 = "top.Sigmoid"(%64) {bias = 0.000000e+00 : f64, log = false, scale = 1.000000e+00 : f64} : (tensor<*xf32>) -> tensor<*xf32> loc(#loc67)
    %66 = "top.Mul"(%64, %65) {do_relu = false, relu_limit = -1.000000e+00 : f64} : (tensor<*xf32>, tensor<*xf32>) -> tensor<*xf32> loc(#loc68)
    %67 = "top.Add"(%56, %66) {do_relu = false, relu_limit = -1.000000e+00 : f64} : (tensor<*xf32>, tensor<*xf32>) -> tensor<*xf32> loc(#loc69)
    %68 = "top.Concat"(%45#0, %45#1, %56, %67) {axis = 1 : si32, do_relu = false, relu_limit = -1.000000e+00 : f64} : (tensor<*xf32>, tensor<*xf32>, tensor<*xf32>, tensor<*xf32>) -> tensor<*xf32> loc(#loc70)
    %69 = "top.Weight"() : () -> tensor<128x256x1x1xf32> loc(#loc71)
    %70 = "top.Weight"() : () -> tensor<128xf32> loc(#loc72)
    %71 = "top.Conv"(%68, %69, %70) {auto_pad = "NOTSET", dilations = [1, 1], do_relu = false, dynweight_reorderd = false, group = 1 : i64, kernel_shape = [1, 1], pads = [0, 0, 0, 0], relu_limit = -1.000000e+00 : f64, strides = [1, 1], weight_is_coeff = 1 : i64} : (tensor<*xf32>, tensor<128x256x1x1xf32>, tensor<128xf32>) -> tensor<*xf32> loc(#loc73)
    %72 = "top.Sigmoid"(%71) {bias = 0.000000e+00 : f64, log = false, scale = 1.000000e+00 : f64} : (tensor<*xf32>) -> tensor<*xf32> loc(#loc74)
    %73 = "top.Mul"(%71, %72) {do_relu = false, relu_limit = -1.000000e+00 : f64} : (tensor<*xf32>, tensor<*xf32>) -> tensor<*xf32> loc(#loc75)
    %74 = "top.Weight"() : () -> tensor<256x128x3x3xf32> loc(#loc76)
    %75 = "top.Weight"() : () -> tensor<256xf32> loc(#loc77)
    %76 = "top.Conv"(%73, %74, %75) {auto_pad = "NOTSET", dilations = [1, 1], do_relu = false, dynweight_reorderd = false, group = 1 : i64, kernel_shape = [3, 3], pads = [1, 1, 1, 1], relu_limit = -1.000000e+00 : f64, strides = [2, 2], weight_is_coeff = 1 : i64} : (tensor<*xf32>, tensor<256x128x3x3xf32>, tensor<256xf32>) -> tensor<*xf32> loc(#loc78)
    %77 = "top.Sigmoid"(%76) {bias = 0.000000e+00 : f64, log = false, scale = 1.000000e+00 : f64} : (tensor<*xf32>) -> tensor<*xf32> loc(#loc79)
    %78 = "top.Mul"(%76, %77) {do_relu = false, relu_limit = -1.000000e+00 : f64} : (tensor<*xf32>, tensor<*xf32>) -> tensor<*xf32> loc(#loc80)
    %79 = "top.Weight"() : () -> tensor<256x256x1x1xf32> loc(#loc81)
    %80 = "top.Weight"() : () -> tensor<256xf32> loc(#loc82)
    %81 = "top.Conv"(%78, %79, %80) {auto_pad = "NOTSET", dilations = [1, 1], do_relu = false, dynweight_reorderd = false, group = 1 : i64, kernel_shape = [1, 1], pads = [0, 0, 0, 0], relu_limit = -1.000000e+00 : f64, strides = [1, 1], weight_is_coeff = 1 : i64} : (tensor<*xf32>, tensor<256x256x1x1xf32>, tensor<256xf32>) -> tensor<*xf32> loc(#loc83)
    %82 = "top.Sigmoid"(%81) {bias = 0.000000e+00 : f64, log = false, scale = 1.000000e+00 : f64} : (tensor<*xf32>) -> tensor<*xf32> loc(#loc84)
    %83 = "top.Mul"(%81, %82) {do_relu = false, relu_limit = -1.000000e+00 : f64} : (tensor<*xf32>, tensor<*xf32>) -> tensor<*xf32> loc(#loc85)
    %84:2 = "top.Split"(%83) {axis = 1 : si32, num = 2 : i64, split_size = [128, 128]} : (tensor<*xf32>) -> (tensor<*xf32>, tensor<*xf32>) loc(#loc362)
    %85 = "top.Weight"() : () -> tensor<128x128x3x3xf32> loc(#loc88)
    %86 = "top.Weight"() : () -> tensor<128xf32> loc(#loc89)
    %87 = "top.Conv"(%84#1, %85, %86) {auto_pad = "NOTSET", dilations = [1, 1], do_relu = false, dynweight_reorderd = false, group = 1 : i64, kernel_shape = [3, 3], pads = [1, 1, 1, 1], relu_limit = -1.000000e+00 : f64, strides = [1, 1], weight_is_coeff = 1 : i64} : (tensor<*xf32>, tensor<128x128x3x3xf32>, tensor<128xf32>) -> tensor<*xf32> loc(#loc90)
    %88 = "top.Sigmoid"(%87) {bias = 0.000000e+00 : f64, log = false, scale = 1.000000e+00 : f64} : (tensor<*xf32>) -> tensor<*xf32> loc(#loc91)
    %89 = "top.Mul"(%87, %88) {do_relu = false, relu_limit = -1.000000e+00 : f64} : (tensor<*xf32>, tensor<*xf32>) -> tensor<*xf32> loc(#loc92)
    %90 = "top.Weight"() : () -> tensor<128x128x3x3xf32> loc(#loc93)
    %91 = "top.Weight"() : () -> tensor<128xf32> loc(#loc94)
    %92 = "top.Conv"(%89, %90, %91) {auto_pad = "NOTSET", dilations = [1, 1], do_relu = false, dynweight_reorderd = false, group = 1 : i64, kernel_shape = [3, 3], pads = [1, 1, 1, 1], relu_limit = -1.000000e+00 : f64, strides = [1, 1], weight_is_coeff = 1 : i64} : (tensor<*xf32>, tensor<128x128x3x3xf32>, tensor<128xf32>) -> tensor<*xf32> loc(#loc95)
    %93 = "top.Sigmoid"(%92) {bias = 0.000000e+00 : f64, log = false, scale = 1.000000e+00 : f64} : (tensor<*xf32>) -> tensor<*xf32> loc(#loc96)
    %94 = "top.Mul"(%92, %93) {do_relu = false, relu_limit = -1.000000e+00 : f64} : (tensor<*xf32>, tensor<*xf32>) -> tensor<*xf32> loc(#loc97)
    %95 = "top.Add"(%84#1, %94) {do_relu = false, relu_limit = -1.000000e+00 : f64} : (tensor<*xf32>, tensor<*xf32>) -> tensor<*xf32> loc(#loc98)
    %96 = "top.Weight"() : () -> tensor<128x128x3x3xf32> loc(#loc99)
    %97 = "top.Weight"() : () -> tensor<128xf32> loc(#loc100)
    %98 = "top.Conv"(%95, %96, %97) {auto_pad = "NOTSET", dilations = [1, 1], do_relu = false, dynweight_reorderd = false, group = 1 : i64, kernel_shape = [3, 3], pads = [1, 1, 1, 1], relu_limit = -1.000000e+00 : f64, strides = [1, 1], weight_is_coeff = 1 : i64} : (tensor<*xf32>, tensor<128x128x3x3xf32>, tensor<128xf32>) -> tensor<*xf32> loc(#loc101)
    %99 = "top.Sigmoid"(%98) {bias = 0.000000e+00 : f64, log = false, scale = 1.000000e+00 : f64} : (tensor<*xf32>) -> tensor<*xf32> loc(#loc102)
    %100 = "top.Mul"(%98, %99) {do_relu = false, relu_limit = -1.000000e+00 : f64} : (tensor<*xf32>, tensor<*xf32>) -> tensor<*xf32> loc(#loc103)
    %101 = "top.Weight"() : () -> tensor<128x128x3x3xf32> loc(#loc104)
    %102 = "top.Weight"() : () -> tensor<128xf32> loc(#loc105)
    %103 = "top.Conv"(%100, %101, %102) {auto_pad = "NOTSET", dilations = [1, 1], do_relu = false, dynweight_reorderd = false, group = 1 : i64, kernel_shape = [3, 3], pads = [1, 1, 1, 1], relu_limit = -1.000000e+00 : f64, strides = [1, 1], weight_is_coeff = 1 : i64} : (tensor<*xf32>, tensor<128x128x3x3xf32>, tensor<128xf32>) -> tensor<*xf32> loc(#loc106)
    %104 = "top.Sigmoid"(%103) {bias = 0.000000e+00 : f64, log = false, scale = 1.000000e+00 : f64} : (tensor<*xf32>) -> tensor<*xf32> loc(#loc107)
    %105 = "top.Mul"(%103, %104) {do_relu = false, relu_limit = -1.000000e+00 : f64} : (tensor<*xf32>, tensor<*xf32>) -> tensor<*xf32> loc(#loc108)
    %106 = "top.Add"(%95, %105) {do_relu = false, relu_limit = -1.000000e+00 : f64} : (tensor<*xf32>, tensor<*xf32>) -> tensor<*xf32> loc(#loc109)
    %107 = "top.Concat"(%84#0, %84#1, %95, %106) {axis = 1 : si32, do_relu = false, relu_limit = -1.000000e+00 : f64} : (tensor<*xf32>, tensor<*xf32>, tensor<*xf32>, tensor<*xf32>) -> tensor<*xf32> loc(#loc110)
    %108 = "top.Weight"() : () -> tensor<256x512x1x1xf32> loc(#loc111)
    %109 = "top.Weight"() : () -> tensor<256xf32> loc(#loc112)
    %110 = "top.Conv"(%107, %108, %109) {auto_pad = "NOTSET", dilations = [1, 1], do_relu = false, dynweight_reorderd = false, group = 1 : i64, kernel_shape = [1, 1], pads = [0, 0, 0, 0], relu_limit = -1.000000e+00 : f64, strides = [1, 1], weight_is_coeff = 1 : i64} : (tensor<*xf32>, tensor<256x512x1x1xf32>, tensor<256xf32>) -> tensor<*xf32> loc(#loc113)
    %111 = "top.Sigmoid"(%110) {bias = 0.000000e+00 : f64, log = false, scale = 1.000000e+00 : f64} : (tensor<*xf32>) -> tensor<*xf32> loc(#loc114)
    %112 = "top.Mul"(%110, %111) {do_relu = false, relu_limit = -1.000000e+00 : f64} : (tensor<*xf32>, tensor<*xf32>) -> tensor<*xf32> loc(#loc115)
    %113 = "top.Weight"() : () -> tensor<512x256x3x3xf32> loc(#loc116)
    %114 = "top.Weight"() : () -> tensor<512xf32> loc(#loc117)
    %115 = "top.Conv"(%112, %113, %114) {auto_pad = "NOTSET", dilations = [1, 1], do_relu = false, dynweight_reorderd = false, group = 1 : i64, kernel_shape = [3, 3], pads = [1, 1, 1, 1], relu_limit = -1.000000e+00 : f64, strides = [2, 2], weight_is_coeff = 1 : i64} : (tensor<*xf32>, tensor<512x256x3x3xf32>, tensor<512xf32>) -> tensor<*xf32> loc(#loc118)
    %116 = "top.Sigmoid"(%115) {bias = 0.000000e+00 : f64, log = false, scale = 1.000000e+00 : f64} : (tensor<*xf32>) -> tensor<*xf32> loc(#loc119)
    %117 = "top.Mul"(%115, %116) {do_relu = false, relu_limit = -1.000000e+00 : f64} : (tensor<*xf32>, tensor<*xf32>) -> tensor<*xf32> loc(#loc120)
    %118 = "top.Weight"() : () -> tensor<512x512x1x1xf32> loc(#loc121)
    %119 = "top.Weight"() : () -> tensor<512xf32> loc(#loc122)
    %120 = "top.Conv"(%117, %118, %119) {auto_pad = "NOTSET", dilations = [1, 1], do_relu = false, dynweight_reorderd = false, group = 1 : i64, kernel_shape = [1, 1], pads = [0, 0, 0, 0], relu_limit = -1.000000e+00 : f64, strides = [1, 1], weight_is_coeff = 1 : i64} : (tensor<*xf32>, tensor<512x512x1x1xf32>, tensor<512xf32>) -> tensor<*xf32> loc(#loc123)
    %121 = "top.Sigmoid"(%120) {bias = 0.000000e+00 : f64, log = false, scale = 1.000000e+00 : f64} : (tensor<*xf32>) -> tensor<*xf32> loc(#loc124)
    %122 = "top.Mul"(%120, %121) {do_relu = false, relu_limit = -1.000000e+00 : f64} : (tensor<*xf32>, tensor<*xf32>) -> tensor<*xf32> loc(#loc125)
    %123:2 = "top.Split"(%122) {axis = 1 : si32, num = 2 : i64, split_size = [256, 256]} : (tensor<*xf32>) -> (tensor<*xf32>, tensor<*xf32>) loc(#loc363)
    %124 = "top.Weight"() : () -> tensor<256x256x3x3xf32> loc(#loc128)
    %125 = "top.Weight"() : () -> tensor<256xf32> loc(#loc129)
    %126 = "top.Conv"(%123#1, %124, %125) {auto_pad = "NOTSET", dilations = [1, 1], do_relu = false, dynweight_reorderd = false, group = 1 : i64, kernel_shape = [3, 3], pads = [1, 1, 1, 1], relu_limit = -1.000000e+00 : f64, strides = [1, 1], weight_is_coeff = 1 : i64} : (tensor<*xf32>, tensor<256x256x3x3xf32>, tensor<256xf32>) -> tensor<*xf32> loc(#loc130)
    %127 = "top.Sigmoid"(%126) {bias = 0.000000e+00 : f64, log = false, scale = 1.000000e+00 : f64} : (tensor<*xf32>) -> tensor<*xf32> loc(#loc131)
    %128 = "top.Mul"(%126, %127) {do_relu = false, relu_limit = -1.000000e+00 : f64} : (tensor<*xf32>, tensor<*xf32>) -> tensor<*xf32> loc(#loc132)
    %129 = "top.Weight"() : () -> tensor<256x256x3x3xf32> loc(#loc133)
    %130 = "top.Weight"() : () -> tensor<256xf32> loc(#loc134)
    %131 = "top.Conv"(%128, %129, %130) {auto_pad = "NOTSET", dilations = [1, 1], do_relu = false, dynweight_reorderd = false, group = 1 : i64, kernel_shape = [3, 3], pads = [1, 1, 1, 1], relu_limit = -1.000000e+00 : f64, strides = [1, 1], weight_is_coeff = 1 : i64} : (tensor<*xf32>, tensor<256x256x3x3xf32>, tensor<256xf32>) -> tensor<*xf32> loc(#loc135)
    %132 = "top.Sigmoid"(%131) {bias = 0.000000e+00 : f64, log = false, scale = 1.000000e+00 : f64} : (tensor<*xf32>) -> tensor<*xf32> loc(#loc136)
    %133 = "top.Mul"(%131, %132) {do_relu = false, relu_limit = -1.000000e+00 : f64} : (tensor<*xf32>, tensor<*xf32>) -> tensor<*xf32> loc(#loc137)
    %134 = "top.Add"(%123#1, %133) {do_relu = false, relu_limit = -1.000000e+00 : f64} : (tensor<*xf32>, tensor<*xf32>) -> tensor<*xf32> loc(#loc138)
    %135 = "top.Concat"(%123#0, %123#1, %134) {axis = 1 : si32, do_relu = false, relu_limit = -1.000000e+00 : f64} : (tensor<*xf32>, tensor<*xf32>, tensor<*xf32>) -> tensor<*xf32> loc(#loc139)
    %136 = "top.Weight"() : () -> tensor<512x768x1x1xf32> loc(#loc140)
    %137 = "top.Weight"() : () -> tensor<512xf32> loc(#loc141)
    %138 = "top.Conv"(%135, %136, %137) {auto_pad = "NOTSET", dilations = [1, 1], do_relu = false, dynweight_reorderd = false, group = 1 : i64, kernel_shape = [1, 1], pads = [0, 0, 0, 0], relu_limit = -1.000000e+00 : f64, strides = [1, 1], weight_is_coeff = 1 : i64} : (tensor<*xf32>, tensor<512x768x1x1xf32>, tensor<512xf32>) -> tensor<*xf32> loc(#loc142)
    %139 = "top.Sigmoid"(%138) {bias = 0.000000e+00 : f64, log = false, scale = 1.000000e+00 : f64} : (tensor<*xf32>) -> tensor<*xf32> loc(#loc143)
    %140 = "top.Mul"(%138, %139) {do_relu = false, relu_limit = -1.000000e+00 : f64} : (tensor<*xf32>, tensor<*xf32>) -> tensor<*xf32> loc(#loc144)
    %141 = "top.Weight"() : () -> tensor<256x512x1x1xf32> loc(#loc145)
    %142 = "top.Weight"() : () -> tensor<256xf32> loc(#loc146)
    %143 = "top.Conv"(%140, %141, %142) {auto_pad = "NOTSET", dilations = [1, 1], do_relu = false, dynweight_reorderd = false, group = 1 : i64, kernel_shape = [1, 1], pads = [0, 0, 0, 0], relu_limit = -1.000000e+00 : f64, strides = [1, 1], weight_is_coeff = 1 : i64} : (tensor<*xf32>, tensor<256x512x1x1xf32>, tensor<256xf32>) -> tensor<*xf32> loc(#loc147)
    %144 = "top.Sigmoid"(%143) {bias = 0.000000e+00 : f64, log = false, scale = 1.000000e+00 : f64} : (tensor<*xf32>) -> tensor<*xf32> loc(#loc148)
    %145 = "top.Mul"(%143, %144) {do_relu = false, relu_limit = -1.000000e+00 : f64} : (tensor<*xf32>, tensor<*xf32>) -> tensor<*xf32> loc(#loc149)
    %146 = "top.MaxPool"(%145) {auto_pad = "NOTSET", ceil_mode = false, count_include_pad = false, do_relu = false, keepdims = true, kernel_shape = [5, 5], pad_value = 0 : i64, pads = [2, 2, 2, 2], relu_limit = -1.000000e+00 : f64, strides = [1, 1]} : (tensor<*xf32>) -> tensor<*xf32> loc(#loc150)
    %147 = "top.MaxPool"(%146) {auto_pad = "NOTSET", ceil_mode = false, count_include_pad = false, do_relu = false, keepdims = true, kernel_shape = [5, 5], pad_value = 0 : i64, pads = [2, 2, 2, 2], relu_limit = -1.000000e+00 : f64, strides = [1, 1]} : (tensor<*xf32>) -> tensor<*xf32> loc(#loc151)
    %148 = "top.MaxPool"(%147) {auto_pad = "NOTSET", ceil_mode = false, count_include_pad = false, do_relu = false, keepdims = true, kernel_shape = [5, 5], pad_value = 0 : i64, pads = [2, 2, 2, 2], relu_limit = -1.000000e+00 : f64, strides = [1, 1]} : (tensor<*xf32>) -> tensor<*xf32> loc(#loc152)
    %149 = "top.Concat"(%145, %146, %147, %148) {axis = 1 : si32, do_relu = false, relu_limit = -1.000000e+00 : f64} : (tensor<*xf32>, tensor<*xf32>, tensor<*xf32>, tensor<*xf32>) -> tensor<*xf32> loc(#loc153)
    %150 = "top.Weight"() : () -> tensor<512x1024x1x1xf32> loc(#loc154)
    %151 = "top.Weight"() : () -> tensor<512xf32> loc(#loc155)
    %152 = "top.Conv"(%149, %150, %151) {auto_pad = "NOTSET", dilations = [1, 1], do_relu = false, dynweight_reorderd = false, group = 1 : i64, kernel_shape = [1, 1], pads = [0, 0, 0, 0], relu_limit = -1.000000e+00 : f64, strides = [1, 1], weight_is_coeff = 1 : i64} : (tensor<*xf32>, tensor<512x1024x1x1xf32>, tensor<512xf32>) -> tensor<*xf32> loc(#loc156)
    %153 = "top.Sigmoid"(%152) {bias = 0.000000e+00 : f64, log = false, scale = 1.000000e+00 : f64} : (tensor<*xf32>) -> tensor<*xf32> loc(#loc157)
    %154 = "top.Mul"(%152, %153) {do_relu = false, relu_limit = -1.000000e+00 : f64} : (tensor<*xf32>, tensor<*xf32>) -> tensor<*xf32> loc(#loc158)
    %155 = "top.Interp"(%154, %0) {coord_mode = "asymmetric", mode = "nearest", scale_h = 2.000000e+00 : f64, scale_w = 2.000000e+00 : f64} : (tensor<*xf32>, none) -> tensor<*xf32> loc(#loc159)
    %156 = "top.Concat"(%155, %112) {axis = 1 : si32, do_relu = false, relu_limit = -1.000000e+00 : f64} : (tensor<*xf32>, tensor<*xf32>) -> tensor<*xf32> loc(#loc160)
    %157 = "top.Weight"() : () -> tensor<256x768x1x1xf32> loc(#loc161)
    %158 = "top.Weight"() : () -> tensor<256xf32> loc(#loc162)
    %159 = "top.Conv"(%156, %157, %158) {auto_pad = "NOTSET", dilations = [1, 1], do_relu = false, dynweight_reorderd = false, group = 1 : i64, kernel_shape = [1, 1], pads = [0, 0, 0, 0], relu_limit = -1.000000e+00 : f64, strides = [1, 1], weight_is_coeff = 1 : i64} : (tensor<*xf32>, tensor<256x768x1x1xf32>, tensor<256xf32>) -> tensor<*xf32> loc(#loc163)
    %160 = "top.Sigmoid"(%159) {bias = 0.000000e+00 : f64, log = false, scale = 1.000000e+00 : f64} : (tensor<*xf32>) -> tensor<*xf32> loc(#loc164)
    %161 = "top.Mul"(%159, %160) {do_relu = false, relu_limit = -1.000000e+00 : f64} : (tensor<*xf32>, tensor<*xf32>) -> tensor<*xf32> loc(#loc165)
    %162:2 = "top.Split"(%161) {axis = 1 : si32, num = 2 : i64, split_size = [128, 128]} : (tensor<*xf32>) -> (tensor<*xf32>, tensor<*xf32>) loc(#loc364)
    %163 = "top.Weight"() : () -> tensor<128x128x3x3xf32> loc(#loc168)
    %164 = "top.Weight"() : () -> tensor<128xf32> loc(#loc169)
    %165 = "top.Conv"(%162#1, %163, %164) {auto_pad = "NOTSET", dilations = [1, 1], do_relu = false, dynweight_reorderd = false, group = 1 : i64, kernel_shape = [3, 3], pads = [1, 1, 1, 1], relu_limit = -1.000000e+00 : f64, strides = [1, 1], weight_is_coeff = 1 : i64} : (tensor<*xf32>, tensor<128x128x3x3xf32>, tensor<128xf32>) -> tensor<*xf32> loc(#loc170)
    %166 = "top.Sigmoid"(%165) {bias = 0.000000e+00 : f64, log = false, scale = 1.000000e+00 : f64} : (tensor<*xf32>) -> tensor<*xf32> loc(#loc171)
    %167 = "top.Mul"(%165, %166) {do_relu = false, relu_limit = -1.000000e+00 : f64} : (tensor<*xf32>, tensor<*xf32>) -> tensor<*xf32> loc(#loc172)
    %168 = "top.Weight"() : () -> tensor<128x128x3x3xf32> loc(#loc173)
    %169 = "top.Weight"() : () -> tensor<128xf32> loc(#loc174)
    %170 = "top.Conv"(%167, %168, %169) {auto_pad = "NOTSET", dilations = [1, 1], do_relu = false, dynweight_reorderd = false, group = 1 : i64, kernel_shape = [3, 3], pads = [1, 1, 1, 1], relu_limit = -1.000000e+00 : f64, strides = [1, 1], weight_is_coeff = 1 : i64} : (tensor<*xf32>, tensor<128x128x3x3xf32>, tensor<128xf32>) -> tensor<*xf32> loc(#loc175)
    %171 = "top.Sigmoid"(%170) {bias = 0.000000e+00 : f64, log = false, scale = 1.000000e+00 : f64} : (tensor<*xf32>) -> tensor<*xf32> loc(#loc176)
    %172 = "top.Mul"(%170, %171) {do_relu = false, relu_limit = -1.000000e+00 : f64} : (tensor<*xf32>, tensor<*xf32>) -> tensor<*xf32> loc(#loc177)
    %173 = "top.Concat"(%162#0, %162#1, %172) {axis = 1 : si32, do_relu = false, relu_limit = -1.000000e+00 : f64} : (tensor<*xf32>, tensor<*xf32>, tensor<*xf32>) -> tensor<*xf32> loc(#loc178)
    %174 = "top.Weight"() : () -> tensor<256x384x1x1xf32> loc(#loc179)
    %175 = "top.Weight"() : () -> tensor<256xf32> loc(#loc180)
    %176 = "top.Conv"(%173, %174, %175) {auto_pad = "NOTSET", dilations = [1, 1], do_relu = false, dynweight_reorderd = false, group = 1 : i64, kernel_shape = [1, 1], pads = [0, 0, 0, 0], relu_limit = -1.000000e+00 : f64, strides = [1, 1], weight_is_coeff = 1 : i64} : (tensor<*xf32>, tensor<256x384x1x1xf32>, tensor<256xf32>) -> tensor<*xf32> loc(#loc181)
    %177 = "top.Sigmoid"(%176) {bias = 0.000000e+00 : f64, log = false, scale = 1.000000e+00 : f64} : (tensor<*xf32>) -> tensor<*xf32> loc(#loc182)
    %178 = "top.Mul"(%176, %177) {do_relu = false, relu_limit = -1.000000e+00 : f64} : (tensor<*xf32>, tensor<*xf32>) -> tensor<*xf32> loc(#loc183)
    %179 = "top.Interp"(%178, %0) {coord_mode = "asymmetric", mode = "nearest", scale_h = 2.000000e+00 : f64, scale_w = 2.000000e+00 : f64} : (tensor<*xf32>, none) -> tensor<*xf32> loc(#loc184)
    %180 = "top.Concat"(%179, %73) {axis = 1 : si32, do_relu = false, relu_limit = -1.000000e+00 : f64} : (tensor<*xf32>, tensor<*xf32>) -> tensor<*xf32> loc(#loc185)
    %181 = "top.Weight"() : () -> tensor<128x384x1x1xf32> loc(#loc186)
    %182 = "top.Weight"() : () -> tensor<128xf32> loc(#loc187)
    %183 = "top.Conv"(%180, %181, %182) {auto_pad = "NOTSET", dilations = [1, 1], do_relu = false, dynweight_reorderd = false, group = 1 : i64, kernel_shape = [1, 1], pads = [0, 0, 0, 0], relu_limit = -1.000000e+00 : f64, strides = [1, 1], weight_is_coeff = 1 : i64} : (tensor<*xf32>, tensor<128x384x1x1xf32>, tensor<128xf32>) -> tensor<*xf32> loc(#loc188)
    %184 = "top.Sigmoid"(%183) {bias = 0.000000e+00 : f64, log = false, scale = 1.000000e+00 : f64} : (tensor<*xf32>) -> tensor<*xf32> loc(#loc189)
    %185 = "top.Mul"(%183, %184) {do_relu = false, relu_limit = -1.000000e+00 : f64} : (tensor<*xf32>, tensor<*xf32>) -> tensor<*xf32> loc(#loc190)
    %186:2 = "top.Split"(%185) {axis = 1 : si32, num = 2 : i64, split_size = [64, 64]} : (tensor<*xf32>) -> (tensor<*xf32>, tensor<*xf32>) loc(#loc365)
    %187 = "top.Weight"() : () -> tensor<64x64x3x3xf32> loc(#loc193)
    %188 = "top.Weight"() : () -> tensor<64xf32> loc(#loc194)
    %189 = "top.Conv"(%186#1, %187, %188) {auto_pad = "NOTSET", dilations = [1, 1], do_relu = false, dynweight_reorderd = false, group = 1 : i64, kernel_shape = [3, 3], pads = [1, 1, 1, 1], relu_limit = -1.000000e+00 : f64, strides = [1, 1], weight_is_coeff = 1 : i64} : (tensor<*xf32>, tensor<64x64x3x3xf32>, tensor<64xf32>) -> tensor<*xf32> loc(#loc195)
    %190 = "top.Sigmoid"(%189) {bias = 0.000000e+00 : f64, log = false, scale = 1.000000e+00 : f64} : (tensor<*xf32>) -> tensor<*xf32> loc(#loc196)
    %191 = "top.Mul"(%189, %190) {do_relu = false, relu_limit = -1.000000e+00 : f64} : (tensor<*xf32>, tensor<*xf32>) -> tensor<*xf32> loc(#loc197)
    %192 = "top.Weight"() : () -> tensor<64x64x3x3xf32> loc(#loc198)
    %193 = "top.Weight"() : () -> tensor<64xf32> loc(#loc199)
    %194 = "top.Conv"(%191, %192, %193) {auto_pad = "NOTSET", dilations = [1, 1], do_relu = false, dynweight_reorderd = false, group = 1 : i64, kernel_shape = [3, 3], pads = [1, 1, 1, 1], relu_limit = -1.000000e+00 : f64, strides = [1, 1], weight_is_coeff = 1 : i64} : (tensor<*xf32>, tensor<64x64x3x3xf32>, tensor<64xf32>) -> tensor<*xf32> loc(#loc200)
    %195 = "top.Sigmoid"(%194) {bias = 0.000000e+00 : f64, log = false, scale = 1.000000e+00 : f64} : (tensor<*xf32>) -> tensor<*xf32> loc(#loc201)
    %196 = "top.Mul"(%194, %195) {do_relu = false, relu_limit = -1.000000e+00 : f64} : (tensor<*xf32>, tensor<*xf32>) -> tensor<*xf32> loc(#loc202)
    %197 = "top.Concat"(%186#0, %186#1, %196) {axis = 1 : si32, do_relu = false, relu_limit = -1.000000e+00 : f64} : (tensor<*xf32>, tensor<*xf32>, tensor<*xf32>) -> tensor<*xf32> loc(#loc203)
    %198 = "top.Weight"() : () -> tensor<128x192x1x1xf32> loc(#loc204)
    %199 = "top.Weight"() : () -> tensor<128xf32> loc(#loc205)
    %200 = "top.Conv"(%197, %198, %199) {auto_pad = "NOTSET", dilations = [1, 1], do_relu = false, dynweight_reorderd = false, group = 1 : i64, kernel_shape = [1, 1], pads = [0, 0, 0, 0], relu_limit = -1.000000e+00 : f64, strides = [1, 1], weight_is_coeff = 1 : i64} : (tensor<*xf32>, tensor<128x192x1x1xf32>, tensor<128xf32>) -> tensor<*xf32> loc(#loc206)
    %201 = "top.Sigmoid"(%200) {bias = 0.000000e+00 : f64, log = false, scale = 1.000000e+00 : f64} : (tensor<*xf32>) -> tensor<*xf32> loc(#loc207)
    %202 = "top.Mul"(%200, %201) {do_relu = false, relu_limit = -1.000000e+00 : f64} : (tensor<*xf32>, tensor<*xf32>) -> tensor<*xf32> loc(#loc208)
    %203 = "top.Weight"() : () -> tensor<128x128x3x3xf32> loc(#loc209)
    %204 = "top.Weight"() : () -> tensor<128xf32> loc(#loc210)
    %205 = "top.Conv"(%202, %203, %204) {auto_pad = "NOTSET", dilations = [1, 1], do_relu = false, dynweight_reorderd = false, group = 1 : i64, kernel_shape = [3, 3], pads = [1, 1, 1, 1], relu_limit = -1.000000e+00 : f64, strides = [2, 2], weight_is_coeff = 1 : i64} : (tensor<*xf32>, tensor<128x128x3x3xf32>, tensor<128xf32>) -> tensor<*xf32> loc(#loc211)
    %206 = "top.Sigmoid"(%205) {bias = 0.000000e+00 : f64, log = false, scale = 1.000000e+00 : f64} : (tensor<*xf32>) -> tensor<*xf32> loc(#loc212)
    %207 = "top.Mul"(%205, %206) {do_relu = false, relu_limit = -1.000000e+00 : f64} : (tensor<*xf32>, tensor<*xf32>) -> tensor<*xf32> loc(#loc213)
    %208 = "top.Concat"(%207, %178) {axis = 1 : si32, do_relu = false, relu_limit = -1.000000e+00 : f64} : (tensor<*xf32>, tensor<*xf32>) -> tensor<*xf32> loc(#loc214)
    %209 = "top.Weight"() : () -> tensor<256x384x1x1xf32> loc(#loc215)
    %210 = "top.Weight"() : () -> tensor<256xf32> loc(#loc216)
    %211 = "top.Conv"(%208, %209, %210) {auto_pad = "NOTSET", dilations = [1, 1], do_relu = false, dynweight_reorderd = false, group = 1 : i64, kernel_shape = [1, 1], pads = [0, 0, 0, 0], relu_limit = -1.000000e+00 : f64, strides = [1, 1], weight_is_coeff = 1 : i64} : (tensor<*xf32>, tensor<256x384x1x1xf32>, tensor<256xf32>) -> tensor<*xf32> loc(#loc217)
    %212 = "top.Sigmoid"(%211) {bias = 0.000000e+00 : f64, log = false, scale = 1.000000e+00 : f64} : (tensor<*xf32>) -> tensor<*xf32> loc(#loc218)
    %213 = "top.Mul"(%211, %212) {do_relu = false, relu_limit = -1.000000e+00 : f64} : (tensor<*xf32>, tensor<*xf32>) -> tensor<*xf32> loc(#loc219)
    %214:2 = "top.Split"(%213) {axis = 1 : si32, num = 2 : i64, split_size = [128, 128]} : (tensor<*xf32>) -> (tensor<*xf32>, tensor<*xf32>) loc(#loc366)
    %215 = "top.Weight"() : () -> tensor<128x128x3x3xf32> loc(#loc222)
    %216 = "top.Weight"() : () -> tensor<128xf32> loc(#loc223)
    %217 = "top.Conv"(%214#1, %215, %216) {auto_pad = "NOTSET", dilations = [1, 1], do_relu = false, dynweight_reorderd = false, group = 1 : i64, kernel_shape = [3, 3], pads = [1, 1, 1, 1], relu_limit = -1.000000e+00 : f64, strides = [1, 1], weight_is_coeff = 1 : i64} : (tensor<*xf32>, tensor<128x128x3x3xf32>, tensor<128xf32>) -> tensor<*xf32> loc(#loc224)
    %218 = "top.Sigmoid"(%217) {bias = 0.000000e+00 : f64, log = false, scale = 1.000000e+00 : f64} : (tensor<*xf32>) -> tensor<*xf32> loc(#loc225)
    %219 = "top.Mul"(%217, %218) {do_relu = false, relu_limit = -1.000000e+00 : f64} : (tensor<*xf32>, tensor<*xf32>) -> tensor<*xf32> loc(#loc226)
    %220 = "top.Weight"() : () -> tensor<128x128x3x3xf32> loc(#loc227)
    %221 = "top.Weight"() : () -> tensor<128xf32> loc(#loc228)
    %222 = "top.Conv"(%219, %220, %221) {auto_pad = "NOTSET", dilations = [1, 1], do_relu = false, dynweight_reorderd = false, group = 1 : i64, kernel_shape = [3, 3], pads = [1, 1, 1, 1], relu_limit = -1.000000e+00 : f64, strides = [1, 1], weight_is_coeff = 1 : i64} : (tensor<*xf32>, tensor<128x128x3x3xf32>, tensor<128xf32>) -> tensor<*xf32> loc(#loc229)
    %223 = "top.Sigmoid"(%222) {bias = 0.000000e+00 : f64, log = false, scale = 1.000000e+00 : f64} : (tensor<*xf32>) -> tensor<*xf32> loc(#loc230)
    %224 = "top.Mul"(%222, %223) {do_relu = false, relu_limit = -1.000000e+00 : f64} : (tensor<*xf32>, tensor<*xf32>) -> tensor<*xf32> loc(#loc231)
    %225 = "top.Concat"(%214#0, %214#1, %224) {axis = 1 : si32, do_relu = false, relu_limit = -1.000000e+00 : f64} : (tensor<*xf32>, tensor<*xf32>, tensor<*xf32>) -> tensor<*xf32> loc(#loc232)
    %226 = "top.Weight"() : () -> tensor<256x384x1x1xf32> loc(#loc233)
    %227 = "top.Weight"() : () -> tensor<256xf32> loc(#loc234)
    %228 = "top.Conv"(%225, %226, %227) {auto_pad = "NOTSET", dilations = [1, 1], do_relu = false, dynweight_reorderd = false, group = 1 : i64, kernel_shape = [1, 1], pads = [0, 0, 0, 0], relu_limit = -1.000000e+00 : f64, strides = [1, 1], weight_is_coeff = 1 : i64} : (tensor<*xf32>, tensor<256x384x1x1xf32>, tensor<256xf32>) -> tensor<*xf32> loc(#loc235)
    %229 = "top.Sigmoid"(%228) {bias = 0.000000e+00 : f64, log = false, scale = 1.000000e+00 : f64} : (tensor<*xf32>) -> tensor<*xf32> loc(#loc236)
    %230 = "top.Mul"(%228, %229) {do_relu = false, relu_limit = -1.000000e+00 : f64} : (tensor<*xf32>, tensor<*xf32>) -> tensor<*xf32> loc(#loc237)
    %231 = "top.Weight"() : () -> tensor<256x256x3x3xf32> loc(#loc238)
    %232 = "top.Weight"() : () -> tensor<256xf32> loc(#loc239)
    %233 = "top.Conv"(%230, %231, %232) {auto_pad = "NOTSET", dilations = [1, 1], do_relu = false, dynweight_reorderd = false, group = 1 : i64, kernel_shape = [3, 3], pads = [1, 1, 1, 1], relu_limit = -1.000000e+00 : f64, strides = [2, 2], weight_is_coeff = 1 : i64} : (tensor<*xf32>, tensor<256x256x3x3xf32>, tensor<256xf32>) -> tensor<*xf32> loc(#loc240)
    %234 = "top.Sigmoid"(%233) {bias = 0.000000e+00 : f64, log = false, scale = 1.000000e+00 : f64} : (tensor<*xf32>) -> tensor<*xf32> loc(#loc241)
    %235 = "top.Mul"(%233, %234) {do_relu = false, relu_limit = -1.000000e+00 : f64} : (tensor<*xf32>, tensor<*xf32>) -> tensor<*xf32> loc(#loc242)
    %236 = "top.Concat"(%235, %154) {axis = 1 : si32, do_relu = false, relu_limit = -1.000000e+00 : f64} : (tensor<*xf32>, tensor<*xf32>) -> tensor<*xf32> loc(#loc243)
    %237 = "top.Weight"() : () -> tensor<512x768x1x1xf32> loc(#loc244)
    %238 = "top.Weight"() : () -> tensor<512xf32> loc(#loc245)
    %239 = "top.Conv"(%236, %237, %238) {auto_pad = "NOTSET", dilations = [1, 1], do_relu = false, dynweight_reorderd = false, group = 1 : i64, kernel_shape = [1, 1], pads = [0, 0, 0, 0], relu_limit = -1.000000e+00 : f64, strides = [1, 1], weight_is_coeff = 1 : i64} : (tensor<*xf32>, tensor<512x768x1x1xf32>, tensor<512xf32>) -> tensor<*xf32> loc(#loc246)
    %240 = "top.Sigmoid"(%239) {bias = 0.000000e+00 : f64, log = false, scale = 1.000000e+00 : f64} : (tensor<*xf32>) -> tensor<*xf32> loc(#loc247)
    %241 = "top.Mul"(%239, %240) {do_relu = false, relu_limit = -1.000000e+00 : f64} : (tensor<*xf32>, tensor<*xf32>) -> tensor<*xf32> loc(#loc248)
    %242:2 = "top.Split"(%241) {axis = 1 : si32, num = 2 : i64, split_size = [256, 256]} : (tensor<*xf32>) -> (tensor<*xf32>, tensor<*xf32>) loc(#loc367)
    %243 = "top.Weight"() : () -> tensor<256x256x3x3xf32> loc(#loc251)
    %244 = "top.Weight"() : () -> tensor<256xf32> loc(#loc252)
    %245 = "top.Conv"(%242#1, %243, %244) {auto_pad = "NOTSET", dilations = [1, 1], do_relu = false, dynweight_reorderd = false, group = 1 : i64, kernel_shape = [3, 3], pads = [1, 1, 1, 1], relu_limit = -1.000000e+00 : f64, strides = [1, 1], weight_is_coeff = 1 : i64} : (tensor<*xf32>, tensor<256x256x3x3xf32>, tensor<256xf32>) -> tensor<*xf32> loc(#loc253)
    %246 = "top.Sigmoid"(%245) {bias = 0.000000e+00 : f64, log = false, scale = 1.000000e+00 : f64} : (tensor<*xf32>) -> tensor<*xf32> loc(#loc254)
    %247 = "top.Mul"(%245, %246) {do_relu = false, relu_limit = -1.000000e+00 : f64} : (tensor<*xf32>, tensor<*xf32>) -> tensor<*xf32> loc(#loc255)
    %248 = "top.Weight"() : () -> tensor<256x256x3x3xf32> loc(#loc256)
    %249 = "top.Weight"() : () -> tensor<256xf32> loc(#loc257)
    %250 = "top.Conv"(%247, %248, %249) {auto_pad = "NOTSET", dilations = [1, 1], do_relu = false, dynweight_reorderd = false, group = 1 : i64, kernel_shape = [3, 3], pads = [1, 1, 1, 1], relu_limit = -1.000000e+00 : f64, strides = [1, 1], weight_is_coeff = 1 : i64} : (tensor<*xf32>, tensor<256x256x3x3xf32>, tensor<256xf32>) -> tensor<*xf32> loc(#loc258)
    %251 = "top.Sigmoid"(%250) {bias = 0.000000e+00 : f64, log = false, scale = 1.000000e+00 : f64} : (tensor<*xf32>) -> tensor<*xf32> loc(#loc259)
    %252 = "top.Mul"(%250, %251) {do_relu = false, relu_limit = -1.000000e+00 : f64} : (tensor<*xf32>, tensor<*xf32>) -> tensor<*xf32> loc(#loc260)
    %253 = "top.Concat"(%242#0, %242#1, %252) {axis = 1 : si32, do_relu = false, relu_limit = -1.000000e+00 : f64} : (tensor<*xf32>, tensor<*xf32>, tensor<*xf32>) -> tensor<*xf32> loc(#loc261)
    %254 = "top.Weight"() : () -> tensor<512x768x1x1xf32> loc(#loc262)
    %255 = "top.Weight"() : () -> tensor<512xf32> loc(#loc263)
    %256 = "top.Conv"(%253, %254, %255) {auto_pad = "NOTSET", dilations = [1, 1], do_relu = false, dynweight_reorderd = false, group = 1 : i64, kernel_shape = [1, 1], pads = [0, 0, 0, 0], relu_limit = -1.000000e+00 : f64, strides = [1, 1], weight_is_coeff = 1 : i64} : (tensor<*xf32>, tensor<512x768x1x1xf32>, tensor<512xf32>) -> tensor<*xf32> loc(#loc264)
    %257 = "top.Sigmoid"(%256) {bias = 0.000000e+00 : f64, log = false, scale = 1.000000e+00 : f64} : (tensor<*xf32>) -> tensor<*xf32> loc(#loc265)
    %258 = "top.Mul"(%256, %257) {do_relu = false, relu_limit = -1.000000e+00 : f64} : (tensor<*xf32>, tensor<*xf32>) -> tensor<*xf32> loc(#loc266)
    %259 = "top.Weight"() : () -> tensor<64x128x3x3xf32> loc(#loc267)
    %260 = "top.Weight"() : () -> tensor<64xf32> loc(#loc268)
    %261 = "top.Conv"(%202, %259, %260) {auto_pad = "NOTSET", dilations = [1, 1], do_relu = false, dynweight_reorderd = false, group = 1 : i64, kernel_shape = [3, 3], pads = [1, 1, 1, 1], relu_limit = -1.000000e+00 : f64, strides = [1, 1], weight_is_coeff = 1 : i64} : (tensor<*xf32>, tensor<64x128x3x3xf32>, tensor<64xf32>) -> tensor<*xf32> loc(#loc269)
    %262 = "top.Sigmoid"(%261) {bias = 0.000000e+00 : f64, log = false, scale = 1.000000e+00 : f64} : (tensor<*xf32>) -> tensor<*xf32> loc(#loc270)
    %263 = "top.Mul"(%261, %262) {do_relu = false, relu_limit = -1.000000e+00 : f64} : (tensor<*xf32>, tensor<*xf32>) -> tensor<*xf32> loc(#loc271)
    %264 = "top.Weight"() : () -> tensor<64x64x3x3xf32> loc(#loc272)
    %265 = "top.Weight"() : () -> tensor<64xf32> loc(#loc273)
    %266 = "top.Conv"(%263, %264, %265) {auto_pad = "NOTSET", dilations = [1, 1], do_relu = false, dynweight_reorderd = false, group = 1 : i64, kernel_shape = [3, 3], pads = [1, 1, 1, 1], relu_limit = -1.000000e+00 : f64, strides = [1, 1], weight_is_coeff = 1 : i64} : (tensor<*xf32>, tensor<64x64x3x3xf32>, tensor<64xf32>) -> tensor<*xf32> loc(#loc274)
    %267 = "top.Sigmoid"(%266) {bias = 0.000000e+00 : f64, log = false, scale = 1.000000e+00 : f64} : (tensor<*xf32>) -> tensor<*xf32> loc(#loc275)
    %268 = "top.Mul"(%266, %267) {do_relu = false, relu_limit = -1.000000e+00 : f64} : (tensor<*xf32>, tensor<*xf32>) -> tensor<*xf32> loc(#loc276)
    %269 = "top.Weight"() : () -> tensor<64x64x1x1xf32> loc(#loc277)
    %270 = "top.Weight"() : () -> tensor<64xf32> loc(#loc278)
    %271 = "top.Conv"(%268, %269, %270) {auto_pad = "NOTSET", dilations = [1, 1], do_relu = false, dynweight_reorderd = false, group = 1 : i64, kernel_shape = [1, 1], pads = [0, 0, 0, 0], relu_limit = -1.000000e+00 : f64, strides = [1, 1], weight_is_coeff = 1 : i64} : (tensor<*xf32>, tensor<64x64x1x1xf32>, tensor<64xf32>) -> tensor<*xf32> loc(#loc279)
    %272 = "top.Weight"() : () -> tensor<128x128x3x3xf32> loc(#loc280)
    %273 = "top.Weight"() : () -> tensor<128xf32> loc(#loc281)
    %274 = "top.Conv"(%202, %272, %273) {auto_pad = "NOTSET", dilations = [1, 1], do_relu = false, dynweight_reorderd = false, group = 1 : i64, kernel_shape = [3, 3], pads = [1, 1, 1, 1], relu_limit = -1.000000e+00 : f64, strides = [1, 1], weight_is_coeff = 1 : i64} : (tensor<*xf32>, tensor<128x128x3x3xf32>, tensor<128xf32>) -> tensor<*xf32> loc(#loc282)
    %275 = "top.Sigmoid"(%274) {bias = 0.000000e+00 : f64, log = false, scale = 1.000000e+00 : f64} : (tensor<*xf32>) -> tensor<*xf32> loc(#loc283)
    %276 = "top.Mul"(%274, %275) {do_relu = false, relu_limit = -1.000000e+00 : f64} : (tensor<*xf32>, tensor<*xf32>) -> tensor<*xf32> loc(#loc284)
    %277 = "top.Weight"() : () -> tensor<128x128x3x3xf32> loc(#loc285)
    %278 = "top.Weight"() : () -> tensor<128xf32> loc(#loc286)
    %279 = "top.Conv"(%276, %277, %278) {auto_pad = "NOTSET", dilations = [1, 1], do_relu = false, dynweight_reorderd = false, group = 1 : i64, kernel_shape = [3, 3], pads = [1, 1, 1, 1], relu_limit = -1.000000e+00 : f64, strides = [1, 1], weight_is_coeff = 1 : i64} : (tensor<*xf32>, tensor<128x128x3x3xf32>, tensor<128xf32>) -> tensor<*xf32> loc(#loc287)
    %280 = "top.Sigmoid"(%279) {bias = 0.000000e+00 : f64, log = false, scale = 1.000000e+00 : f64} : (tensor<*xf32>) -> tensor<*xf32> loc(#loc288)
    %281 = "top.Mul"(%279, %280) {do_relu = false, relu_limit = -1.000000e+00 : f64} : (tensor<*xf32>, tensor<*xf32>) -> tensor<*xf32> loc(#loc289)
    %282 = "top.Weight"() : () -> tensor<1x128x1x1xf32> loc(#loc290)
    %283 = "top.Weight"() : () -> tensor<1xf32> loc(#loc291)
    %284 = "top.Conv"(%281, %282, %283) {auto_pad = "NOTSET", dilations = [1, 1], do_relu = false, dynweight_reorderd = false, group = 1 : i64, kernel_shape = [1, 1], pads = [0, 0, 0, 0], relu_limit = -1.000000e+00 : f64, strides = [1, 1], weight_is_coeff = 1 : i64} : (tensor<*xf32>, tensor<1x128x1x1xf32>, tensor<1xf32>) -> tensor<*xf32> loc(#loc292)
    %285 = "top.Concat"(%271, %284) {axis = 1 : si32, do_relu = false, relu_limit = -1.000000e+00 : f64} : (tensor<*xf32>, tensor<*xf32>) -> tensor<*xf32> loc(#loc293)
    %286 = "top.Weight"() : () -> tensor<64x256x3x3xf32> loc(#loc294)
    %287 = "top.Weight"() : () -> tensor<64xf32> loc(#loc295)
    %288 = "top.Conv"(%230, %286, %287) {auto_pad = "NOTSET", dilations = [1, 1], do_relu = false, dynweight_reorderd = false, group = 1 : i64, kernel_shape = [3, 3], pads = [1, 1, 1, 1], relu_limit = -1.000000e+00 : f64, strides = [1, 1], weight_is_coeff = 1 : i64} : (tensor<*xf32>, tensor<64x256x3x3xf32>, tensor<64xf32>) -> tensor<*xf32> loc(#loc296)
    %289 = "top.Sigmoid"(%288) {bias = 0.000000e+00 : f64, log = false, scale = 1.000000e+00 : f64} : (tensor<*xf32>) -> tensor<*xf32> loc(#loc297)
    %290 = "top.Mul"(%288, %289) {do_relu = false, relu_limit = -1.000000e+00 : f64} : (tensor<*xf32>, tensor<*xf32>) -> tensor<*xf32> loc(#loc298)
    %291 = "top.Weight"() : () -> tensor<64x64x3x3xf32> loc(#loc299)
    %292 = "top.Weight"() : () -> tensor<64xf32> loc(#loc300)
    %293 = "top.Conv"(%290, %291, %292) {auto_pad = "NOTSET", dilations = [1, 1], do_relu = false, dynweight_reorderd = false, group = 1 : i64, kernel_shape = [3, 3], pads = [1, 1, 1, 1], relu_limit = -1.000000e+00 : f64, strides = [1, 1], weight_is_coeff = 1 : i64} : (tensor<*xf32>, tensor<64x64x3x3xf32>, tensor<64xf32>) -> tensor<*xf32> loc(#loc301)
    %294 = "top.Sigmoid"(%293) {bias = 0.000000e+00 : f64, log = false, scale = 1.000000e+00 : f64} : (tensor<*xf32>) -> tensor<*xf32> loc(#loc302)
    %295 = "top.Mul"(%293, %294) {do_relu = false, relu_limit = -1.000000e+00 : f64} : (tensor<*xf32>, tensor<*xf32>) -> tensor<*xf32> loc(#loc303)
    %296 = "top.Weight"() : () -> tensor<64x64x1x1xf32> loc(#loc304)
    %297 = "top.Weight"() : () -> tensor<64xf32> loc(#loc305)
    %298 = "top.Conv"(%295, %296, %297) {auto_pad = "NOTSET", dilations = [1, 1], do_relu = false, dynweight_reorderd = false, group = 1 : i64, kernel_shape = [1, 1], pads = [0, 0, 0, 0], relu_limit = -1.000000e+00 : f64, strides = [1, 1], weight_is_coeff = 1 : i64} : (tensor<*xf32>, tensor<64x64x1x1xf32>, tensor<64xf32>) -> tensor<*xf32> loc(#loc306)
    %299 = "top.Weight"() : () -> tensor<128x256x3x3xf32> loc(#loc307)
    %300 = "top.Weight"() : () -> tensor<128xf32> loc(#loc308)
    %301 = "top.Conv"(%230, %299, %300) {auto_pad = "NOTSET", dilations = [1, 1], do_relu = false, dynweight_reorderd = false, group = 1 : i64, kernel_shape = [3, 3], pads = [1, 1, 1, 1], relu_limit = -1.000000e+00 : f64, strides = [1, 1], weight_is_coeff = 1 : i64} : (tensor<*xf32>, tensor<128x256x3x3xf32>, tensor<128xf32>) -> tensor<*xf32> loc(#loc309)
    %302 = "top.Sigmoid"(%301) {bias = 0.000000e+00 : f64, log = false, scale = 1.000000e+00 : f64} : (tensor<*xf32>) -> tensor<*xf32> loc(#loc310)
    %303 = "top.Mul"(%301, %302) {do_relu = false, relu_limit = -1.000000e+00 : f64} : (tensor<*xf32>, tensor<*xf32>) -> tensor<*xf32> loc(#loc311)
    %304 = "top.Weight"() : () -> tensor<128x128x3x3xf32> loc(#loc312)
    %305 = "top.Weight"() : () -> tensor<128xf32> loc(#loc313)
    %306 = "top.Conv"(%303, %304, %305) {auto_pad = "NOTSET", dilations = [1, 1], do_relu = false, dynweight_reorderd = false, group = 1 : i64, kernel_shape = [3, 3], pads = [1, 1, 1, 1], relu_limit = -1.000000e+00 : f64, strides = [1, 1], weight_is_coeff = 1 : i64} : (tensor<*xf32>, tensor<128x128x3x3xf32>, tensor<128xf32>) -> tensor<*xf32> loc(#loc314)
    %307 = "top.Sigmoid"(%306) {bias = 0.000000e+00 : f64, log = false, scale = 1.000000e+00 : f64} : (tensor<*xf32>) -> tensor<*xf32> loc(#loc315)
    %308 = "top.Mul"(%306, %307) {do_relu = false, relu_limit = -1.000000e+00 : f64} : (tensor<*xf32>, tensor<*xf32>) -> tensor<*xf32> loc(#loc316)
    %309 = "top.Weight"() : () -> tensor<1x128x1x1xf32> loc(#loc317)
    %310 = "top.Weight"() : () -> tensor<1xf32> loc(#loc318)
    %311 = "top.Conv"(%308, %309, %310) {auto_pad = "NOTSET", dilations = [1, 1], do_relu = false, dynweight_reorderd = false, group = 1 : i64, kernel_shape = [1, 1], pads = [0, 0, 0, 0], relu_limit = -1.000000e+00 : f64, strides = [1, 1], weight_is_coeff = 1 : i64} : (tensor<*xf32>, tensor<1x128x1x1xf32>, tensor<1xf32>) -> tensor<*xf32> loc(#loc319)
    %312 = "top.Concat"(%298, %311) {axis = 1 : si32, do_relu = false, relu_limit = -1.000000e+00 : f64} : (tensor<*xf32>, tensor<*xf32>) -> tensor<*xf32> loc(#loc320)
    %313 = "top.Weight"() : () -> tensor<64x512x3x3xf32> loc(#loc321)
    %314 = "top.Weight"() : () -> tensor<64xf32> loc(#loc322)
    %315 = "top.Conv"(%258, %313, %314) {auto_pad = "NOTSET", dilations = [1, 1], do_relu = false, dynweight_reorderd = false, group = 1 : i64, kernel_shape = [3, 3], pads = [1, 1, 1, 1], relu_limit = -1.000000e+00 : f64, strides = [1, 1], weight_is_coeff = 1 : i64} : (tensor<*xf32>, tensor<64x512x3x3xf32>, tensor<64xf32>) -> tensor<*xf32> loc(#loc323)
    %316 = "top.Sigmoid"(%315) {bias = 0.000000e+00 : f64, log = false, scale = 1.000000e+00 : f64} : (tensor<*xf32>) -> tensor<*xf32> loc(#loc324)
    %317 = "top.Mul"(%315, %316) {do_relu = false, relu_limit = -1.000000e+00 : f64} : (tensor<*xf32>, tensor<*xf32>) -> tensor<*xf32> loc(#loc325)
    %318 = "top.Weight"() : () -> tensor<64x64x3x3xf32> loc(#loc326)
    %319 = "top.Weight"() : () -> tensor<64xf32> loc(#loc327)
    %320 = "top.Conv"(%317, %318, %319) {auto_pad = "NOTSET", dilations = [1, 1], do_relu = false, dynweight_reorderd = false, group = 1 : i64, kernel_shape = [3, 3], pads = [1, 1, 1, 1], relu_limit = -1.000000e+00 : f64, strides = [1, 1], weight_is_coeff = 1 : i64} : (tensor<*xf32>, tensor<64x64x3x3xf32>, tensor<64xf32>) -> tensor<*xf32> loc(#loc328)
    %321 = "top.Sigmoid"(%320) {bias = 0.000000e+00 : f64, log = false, scale = 1.000000e+00 : f64} : (tensor<*xf32>) -> tensor<*xf32> loc(#loc329)
    %322 = "top.Mul"(%320, %321) {do_relu = false, relu_limit = -1.000000e+00 : f64} : (tensor<*xf32>, tensor<*xf32>) -> tensor<*xf32> loc(#loc330)
    %323 = "top.Weight"() : () -> tensor<64x64x1x1xf32> loc(#loc331)
    %324 = "top.Weight"() : () -> tensor<64xf32> loc(#loc332)
    %325 = "top.Conv"(%322, %323, %324) {auto_pad = "NOTSET", dilations = [1, 1], do_relu = false, dynweight_reorderd = false, group = 1 : i64, kernel_shape = [1, 1], pads = [0, 0, 0, 0], relu_limit = -1.000000e+00 : f64, strides = [1, 1], weight_is_coeff = 1 : i64} : (tensor<*xf32>, tensor<64x64x1x1xf32>, tensor<64xf32>) -> tensor<*xf32> loc(#loc333)
    %326 = "top.Weight"() : () -> tensor<128x512x3x3xf32> loc(#loc334)
    %327 = "top.Weight"() : () -> tensor<128xf32> loc(#loc335)
    %328 = "top.Conv"(%258, %326, %327) {auto_pad = "NOTSET", dilations = [1, 1], do_relu = false, dynweight_reorderd = false, group = 1 : i64, kernel_shape = [3, 3], pads = [1, 1, 1, 1], relu_limit = -1.000000e+00 : f64, strides = [1, 1], weight_is_coeff = 1 : i64} : (tensor<*xf32>, tensor<128x512x3x3xf32>, tensor<128xf32>) -> tensor<*xf32> loc(#loc336)
    %329 = "top.Sigmoid"(%328) {bias = 0.000000e+00 : f64, log = false, scale = 1.000000e+00 : f64} : (tensor<*xf32>) -> tensor<*xf32> loc(#loc337)
    %330 = "top.Mul"(%328, %329) {do_relu = false, relu_limit = -1.000000e+00 : f64} : (tensor<*xf32>, tensor<*xf32>) -> tensor<*xf32> loc(#loc338)
    %331 = "top.Weight"() : () -> tensor<128x128x3x3xf32> loc(#loc339)
    %332 = "top.Weight"() : () -> tensor<128xf32> loc(#loc340)
    %333 = "top.Conv"(%330, %331, %332) {auto_pad = "NOTSET", dilations = [1, 1], do_relu = false, dynweight_reorderd = false, group = 1 : i64, kernel_shape = [3, 3], pads = [1, 1, 1, 1], relu_limit = -1.000000e+00 : f64, strides = [1, 1], weight_is_coeff = 1 : i64} : (tensor<*xf32>, tensor<128x128x3x3xf32>, tensor<128xf32>) -> tensor<*xf32> loc(#loc341)
    %334 = "top.Sigmoid"(%333) {bias = 0.000000e+00 : f64, log = false, scale = 1.000000e+00 : f64} : (tensor<*xf32>) -> tensor<*xf32> loc(#loc342)
    %335 = "top.Mul"(%333, %334) {do_relu = false, relu_limit = -1.000000e+00 : f64} : (tensor<*xf32>, tensor<*xf32>) -> tensor<*xf32> loc(#loc343)
    %336 = "top.Weight"() : () -> tensor<1x128x1x1xf32> loc(#loc344)
    %337 = "top.Weight"() : () -> tensor<1xf32> loc(#loc345)
    %338 = "top.Conv"(%335, %336, %337) {auto_pad = "NOTSET", dilations = [1, 1], do_relu = false, dynweight_reorderd = false, group = 1 : i64, kernel_shape = [1, 1], pads = [0, 0, 0, 0], relu_limit = -1.000000e+00 : f64, strides = [1, 1], weight_is_coeff = 1 : i64} : (tensor<*xf32>, tensor<1x128x1x1xf32>, tensor<1xf32>) -> tensor<*xf32> loc(#loc346)
    %339 = "top.Concat"(%325, %338) {axis = 1 : si32, do_relu = false, relu_limit = -1.000000e+00 : f64} : (tensor<*xf32>, tensor<*xf32>) -> tensor<*xf32> loc(#loc347)
    %340 = "top.Reshape"(%285) {shape = [1, 65, -1]} : (tensor<*xf32>) -> tensor<*xf32> loc(#loc348)
    %341 = "top.Reshape"(%312) {shape = [1, 65, -1]} : (tensor<*xf32>) -> tensor<*xf32> loc(#loc349)
    %342 = "top.Reshape"(%339) {shape = [1, 65, -1]} : (tensor<*xf32>) -> tensor<*xf32> loc(#loc350)
    %343 = "top.Concat"(%340, %341, %342) {axis = 2 : si32, do_relu = false, relu_limit = -1.000000e+00 : f64} : (tensor<*xf32>, tensor<*xf32>, tensor<*xf32>) -> tensor<*xf32> loc(#loc351)
    %344:2 = "top.Split"(%343) {axis = 1 : si32, num = 2 : i64, split_size = [64, 1]} : (tensor<*xf32>) -> (tensor<*xf32>, tensor<*xf32>) loc(#loc368)
    %345 = "top.Reshape"(%344#0) {shape = [1, 4, 16, 13125]} : (tensor<*xf32>) -> tensor<*xf32> loc(#loc354)
    %346 = "top.Permute"(%345) {order = [0, 2, 1, 3]} : (tensor<*xf32>) -> tensor<*xf32> loc(#loc355)
    %347 = "top.Softmax"(%346) {axis = 1 : si32, beta = 1.000000e+00 : f64, log = false} : (tensor<*xf32>) -> tensor<*xf32> loc(#loc356)
    %348 = "top.Weight"() : () -> tensor<1x16x1x1xf32> loc(#loc357)
    %349 = "top.Conv"(%347, %348, %0) {auto_pad = "NOTSET", dilations = [1, 1], do_relu = false, dynweight_reorderd = false, group = 1 : i64, kernel_shape = [1, 1], pads = [0, 0, 0, 0], relu_limit = -1.000000e+00 : f64, strides = [1, 1], weight_is_coeff = 1 : i64} : (tensor<*xf32>, tensor<1x16x1x1xf32>, none) -> tensor<*xf32> loc(#loc358)
    %350 = "top.Sigmoid"(%344#1) {bias = 0.000000e+00 : f64, log = false, scale = 1.000000e+00 : f64} : (tensor<*xf32>) -> tensor<*xf32> loc(#loc359)
    return %349, %350 : tensor<*xf32>, tensor<*xf32> loc(#loc)
  } loc(#loc)
} loc(#loc)
#loc1 = loc("images")
#loc2 = loc("model.0.conv.weight")
#loc3 = loc("model.0.conv.bias")
#loc4 = loc("/model.0/conv/Conv_output_0_Conv")
#loc5 = loc("/model.0/act/Sigmoid_output_0_Sigmoid")
#loc6 = loc("/model.0/act/Mul_output_0_Mul")
#loc7 = loc("model.1.conv.weight")
#loc8 = loc("model.1.conv.bias")
#loc9 = loc("/model.1/conv/Conv_output_0_Conv")
#loc10 = loc("/model.1/act/Sigmoid_output_0_Sigmoid")
#loc11 = loc("/model.1/act/Mul_output_0_Mul")
#loc12 = loc("model.2.cv1.conv.weight")
#loc13 = loc("model.2.cv1.conv.bias")
#loc14 = loc("/model.2/cv1/conv/Conv_output_0_Conv")
#loc15 = loc("/model.2/cv1/act/Sigmoid_output_0_Sigmoid")
#loc16 = loc("/model.2/cv1/act/Mul_output_0_Mul")
#loc17 = loc("/model.2/Split_output_0_Split")
#loc18 = loc("/model.2/Split_output_1_Split")
#loc19 = loc("model.2.m.0.cv1.conv.weight")
#loc20 = loc("model.2.m.0.cv1.conv.bias")
#loc21 = loc("/model.2/m.0/cv1/conv/Conv_output_0_Conv")
#loc22 = loc("/model.2/m.0/cv1/act/Sigmoid_output_0_Sigmoid")
#loc23 = loc("/model.2/m.0/cv1/act/Mul_output_0_Mul")
#loc24 = loc("model.2.m.0.cv2.conv.weight")
#loc25 = loc("model.2.m.0.cv2.conv.bias")
#loc26 = loc("/model.2/m.0/cv2/conv/Conv_output_0_Conv")
#loc27 = loc("/model.2/m.0/cv2/act/Sigmoid_output_0_Sigmoid")
#loc28 = loc("/model.2/m.0/cv2/act/Mul_output_0_Mul")
#loc29 = loc("/model.2/m.0/Add_output_0_Add")
#loc30 = loc("/model.2/Concat_output_0_Concat")
#loc31 = loc("model.2.cv2.conv.weight")
#loc32 = loc("model.2.cv2.conv.bias")
#loc33 = loc("/model.2/cv2/conv/Conv_output_0_Conv")
#loc34 = loc("/model.2/cv2/act/Sigmoid_output_0_Sigmoid")
#loc35 = loc("/model.2/cv2/act/Mul_output_0_Mul")
#loc36 = loc("model.3.conv.weight")
#loc37 = loc("model.3.conv.bias")
#loc38 = loc("/model.3/conv/Conv_output_0_Conv")
#loc39 = loc("/model.3/act/Sigmoid_output_0_Sigmoid")
#loc40 = loc("/model.3/act/Mul_output_0_Mul")
#loc41 = loc("model.4.cv1.conv.weight")
#loc42 = loc("model.4.cv1.conv.bias")
#loc43 = loc("/model.4/cv1/conv/Conv_output_0_Conv")
#loc44 = loc("/model.4/cv1/act/Sigmoid_output_0_Sigmoid")
#loc45 = loc("/model.4/cv1/act/Mul_output_0_Mul")
#loc46 = loc("/model.4/Split_output_0_Split")
#loc47 = loc("/model.4/Split_output_1_Split")
#loc48 = loc("model.4.m.0.cv1.conv.weight")
#loc49 = loc("model.4.m.0.cv1.conv.bias")
#loc50 = loc("/model.4/m.0/cv1/conv/Conv_output_0_Conv")
#loc51 = loc("/model.4/m.0/cv1/act/Sigmoid_output_0_Sigmoid")
#loc52 = loc("/model.4/m.0/cv1/act/Mul_output_0_Mul")
#loc53 = loc("model.4.m.0.cv2.conv.weight")
#loc54 = loc("model.4.m.0.cv2.conv.bias")
#loc55 = loc("/model.4/m.0/cv2/conv/Conv_output_0_Conv")
#loc56 = loc("/model.4/m.0/cv2/act/Sigmoid_output_0_Sigmoid")
#loc57 = loc("/model.4/m.0/cv2/act/Mul_output_0_Mul")
#loc58 = loc("/model.4/m.0/Add_output_0_Add")
#loc59 = loc("model.4.m.1.cv1.conv.weight")
#loc60 = loc("model.4.m.1.cv1.conv.bias")
#loc61 = loc("/model.4/m.1/cv1/conv/Conv_output_0_Conv")
#loc62 = loc("/model.4/m.1/cv1/act/Sigmoid_output_0_Sigmoid")
#loc63 = loc("/model.4/m.1/cv1/act/Mul_output_0_Mul")
#loc64 = loc("model.4.m.1.cv2.conv.weight")
#loc65 = loc("model.4.m.1.cv2.conv.bias")
#loc66 = loc("/model.4/m.1/cv2/conv/Conv_output_0_Conv")
#loc67 = loc("/model.4/m.1/cv2/act/Sigmoid_output_0_Sigmoid")
#loc68 = loc("/model.4/m.1/cv2/act/Mul_output_0_Mul")
#loc69 = loc("/model.4/m.1/Add_output_0_Add")
#loc70 = loc("/model.4/Concat_output_0_Concat")
#loc71 = loc("model.4.cv2.conv.weight")
#loc72 = loc("model.4.cv2.conv.bias")
#loc73 = loc("/model.4/cv2/conv/Conv_output_0_Conv")
#loc74 = loc("/model.4/cv2/act/Sigmoid_output_0_Sigmoid")
#loc75 = loc("/model.4/cv2/act/Mul_output_0_Mul")
#loc76 = loc("model.5.conv.weight")
#loc77 = loc("model.5.conv.bias")
#loc78 = loc("/model.5/conv/Conv_output_0_Conv")
#loc79 = loc("/model.5/act/Sigmoid_output_0_Sigmoid")
#loc80 = loc("/model.5/act/Mul_output_0_Mul")
#loc81 = loc("model.6.cv1.conv.weight")
#loc82 = loc("model.6.cv1.conv.bias")
#loc83 = loc("/model.6/cv1/conv/Conv_output_0_Conv")
#loc84 = loc("/model.6/cv1/act/Sigmoid_output_0_Sigmoid")
#loc85 = loc("/model.6/cv1/act/Mul_output_0_Mul")
#loc86 = loc("/model.6/Split_output_0_Split")
#loc87 = loc("/model.6/Split_output_1_Split")
#loc88 = loc("model.6.m.0.cv1.conv.weight")
#loc89 = loc("model.6.m.0.cv1.conv.bias")
#loc90 = loc("/model.6/m.0/cv1/conv/Conv_output_0_Conv")
#loc91 = loc("/model.6/m.0/cv1/act/Sigmoid_output_0_Sigmoid")
#loc92 = loc("/model.6/m.0/cv1/act/Mul_output_0_Mul")
#loc93 = loc("model.6.m.0.cv2.conv.weight")
#loc94 = loc("model.6.m.0.cv2.conv.bias")
#loc95 = loc("/model.6/m.0/cv2/conv/Conv_output_0_Conv")
#loc96 = loc("/model.6/m.0/cv2/act/Sigmoid_output_0_Sigmoid")
#loc97 = loc("/model.6/m.0/cv2/act/Mul_output_0_Mul")
#loc98 = loc("/model.6/m.0/Add_output_0_Add")
#loc99 = loc("model.6.m.1.cv1.conv.weight")
#loc100 = loc("model.6.m.1.cv1.conv.bias")
#loc101 = loc("/model.6/m.1/cv1/conv/Conv_output_0_Conv")
#loc102 = loc("/model.6/m.1/cv1/act/Sigmoid_output_0_Sigmoid")
#loc103 = loc("/model.6/m.1/cv1/act/Mul_output_0_Mul")
#loc104 = loc("model.6.m.1.cv2.conv.weight")
#loc105 = loc("model.6.m.1.cv2.conv.bias")
#loc106 = loc("/model.6/m.1/cv2/conv/Conv_output_0_Conv")
#loc107 = loc("/model.6/m.1/cv2/act/Sigmoid_output_0_Sigmoid")
#loc108 = loc("/model.6/m.1/cv2/act/Mul_output_0_Mul")
#loc109 = loc("/model.6/m.1/Add_output_0_Add")
#loc110 = loc("/model.6/Concat_output_0_Concat")
#loc111 = loc("model.6.cv2.conv.weight")
#loc112 = loc("model.6.cv2.conv.bias")
#loc113 = loc("/model.6/cv2/conv/Conv_output_0_Conv")
#loc114 = loc("/model.6/cv2/act/Sigmoid_output_0_Sigmoid")
#loc115 = loc("/model.6/cv2/act/Mul_output_0_Mul")
#loc116 = loc("model.7.conv.weight")
#loc117 = loc("model.7.conv.bias")
#loc118 = loc("/model.7/conv/Conv_output_0_Conv")
#loc119 = loc("/model.7/act/Sigmoid_output_0_Sigmoid")
#loc120 = loc("/model.7/act/Mul_output_0_Mul")
#loc121 = loc("model.8.cv1.conv.weight")
#loc122 = loc("model.8.cv1.conv.bias")
#loc123 = loc("/model.8/cv1/conv/Conv_output_0_Conv")
#loc124 = loc("/model.8/cv1/act/Sigmoid_output_0_Sigmoid")
#loc125 = loc("/model.8/cv1/act/Mul_output_0_Mul")
#loc126 = loc("/model.8/Split_output_0_Split")
#loc127 = loc("/model.8/Split_output_1_Split")
#loc128 = loc("model.8.m.0.cv1.conv.weight")
#loc129 = loc("model.8.m.0.cv1.conv.bias")
#loc130 = loc("/model.8/m.0/cv1/conv/Conv_output_0_Conv")
#loc131 = loc("/model.8/m.0/cv1/act/Sigmoid_output_0_Sigmoid")
#loc132 = loc("/model.8/m.0/cv1/act/Mul_output_0_Mul")
#loc133 = loc("model.8.m.0.cv2.conv.weight")
#loc134 = loc("model.8.m.0.cv2.conv.bias")
#loc135 = loc("/model.8/m.0/cv2/conv/Conv_output_0_Conv")
#loc136 = loc("/model.8/m.0/cv2/act/Sigmoid_output_0_Sigmoid")
#loc137 = loc("/model.8/m.0/cv2/act/Mul_output_0_Mul")
#loc138 = loc("/model.8/m.0/Add_output_0_Add")
#loc139 = loc("/model.8/Concat_output_0_Concat")
#loc140 = loc("model.8.cv2.conv.weight")
#loc141 = loc("model.8.cv2.conv.bias")
#loc142 = loc("/model.8/cv2/conv/Conv_output_0_Conv")
#loc143 = loc("/model.8/cv2/act/Sigmoid_output_0_Sigmoid")
#loc144 = loc("/model.8/cv2/act/Mul_output_0_Mul")
#loc145 = loc("model.9.cv1.conv.weight")
#loc146 = loc("model.9.cv1.conv.bias")
#loc147 = loc("/model.9/cv1/conv/Conv_output_0_Conv")
#loc148 = loc("/model.9/cv1/act/Sigmoid_output_0_Sigmoid")
#loc149 = loc("/model.9/cv1/act/Mul_output_0_Mul")
#loc150 = loc("/model.9/m/MaxPool_output_0_MaxPool")
#loc151 = loc("/model.9/m_1/MaxPool_output_0_MaxPool")
#loc152 = loc("/model.9/m_2/MaxPool_output_0_MaxPool")
#loc153 = loc("/model.9/Concat_output_0_Concat")
#loc154 = loc("model.9.cv2.conv.weight")
#loc155 = loc("model.9.cv2.conv.bias")
#loc156 = loc("/model.9/cv2/conv/Conv_output_0_Conv")
#loc157 = loc("/model.9/cv2/act/Sigmoid_output_0_Sigmoid")
#loc158 = loc("/model.9/cv2/act/Mul_output_0_Mul")
#loc159 = loc("/model.10/Resize_output_0_Resize")
#loc160 = loc("/model.11/Concat_output_0_Concat")
#loc161 = loc("model.12.cv1.conv.weight")
#loc162 = loc("model.12.cv1.conv.bias")
#loc163 = loc("/model.12/cv1/conv/Conv_output_0_Conv")
#loc164 = loc("/model.12/cv1/act/Sigmoid_output_0_Sigmoid")
#loc165 = loc("/model.12/cv1/act/Mul_output_0_Mul")
#loc166 = loc("/model.12/Split_output_0_Split")
#loc167 = loc("/model.12/Split_output_1_Split")
#loc168 = loc("model.12.m.0.cv1.conv.weight")
#loc169 = loc("model.12.m.0.cv1.conv.bias")
#loc170 = loc("/model.12/m.0/cv1/conv/Conv_output_0_Conv")
#loc171 = loc("/model.12/m.0/cv1/act/Sigmoid_output_0_Sigmoid")
#loc172 = loc("/model.12/m.0/cv1/act/Mul_output_0_Mul")
#loc173 = loc("model.12.m.0.cv2.conv.weight")
#loc174 = loc("model.12.m.0.cv2.conv.bias")
#loc175 = loc("/model.12/m.0/cv2/conv/Conv_output_0_Conv")
#loc176 = loc("/model.12/m.0/cv2/act/Sigmoid_output_0_Sigmoid")
#loc177 = loc("/model.12/m.0/cv2/act/Mul_output_0_Mul")
#loc178 = loc("/model.12/Concat_output_0_Concat")
#loc179 = loc("model.12.cv2.conv.weight")
#loc180 = loc("model.12.cv2.conv.bias")
#loc181 = loc("/model.12/cv2/conv/Conv_output_0_Conv")
#loc182 = loc("/model.12/cv2/act/Sigmoid_output_0_Sigmoid")
#loc183 = loc("/model.12/cv2/act/Mul_output_0_Mul")
#loc184 = loc("/model.13/Resize_output_0_Resize")
#loc185 = loc("/model.14/Concat_output_0_Concat")
#loc186 = loc("model.15.cv1.conv.weight")
#loc187 = loc("model.15.cv1.conv.bias")
#loc188 = loc("/model.15/cv1/conv/Conv_output_0_Conv")
#loc189 = loc("/model.15/cv1/act/Sigmoid_output_0_Sigmoid")
#loc190 = loc("/model.15/cv1/act/Mul_output_0_Mul")
#loc191 = loc("/model.15/Split_output_0_Split")
#loc192 = loc("/model.15/Split_output_1_Split")
#loc193 = loc("model.15.m.0.cv1.conv.weight")
#loc194 = loc("model.15.m.0.cv1.conv.bias")
#loc195 = loc("/model.15/m.0/cv1/conv/Conv_output_0_Conv")
#loc196 = loc("/model.15/m.0/cv1/act/Sigmoid_output_0_Sigmoid")
#loc197 = loc("/model.15/m.0/cv1/act/Mul_output_0_Mul")
#loc198 = loc("model.15.m.0.cv2.conv.weight")
#loc199 = loc("model.15.m.0.cv2.conv.bias")
#loc200 = loc("/model.15/m.0/cv2/conv/Conv_output_0_Conv")
#loc201 = loc("/model.15/m.0/cv2/act/Sigmoid_output_0_Sigmoid")
#loc202 = loc("/model.15/m.0/cv2/act/Mul_output_0_Mul")
#loc203 = loc("/model.15/Concat_output_0_Concat")
#loc204 = loc("model.15.cv2.conv.weight")
#loc205 = loc("model.15.cv2.conv.bias")
#loc206 = loc("/model.15/cv2/conv/Conv_output_0_Conv")
#loc207 = loc("/model.15/cv2/act/Sigmoid_output_0_Sigmoid")
#loc208 = loc("/model.15/cv2/act/Mul_output_0_Mul")
#loc209 = loc("model.16.conv.weight")
#loc210 = loc("model.16.conv.bias")
#loc211 = loc("/model.16/conv/Conv_output_0_Conv")
#loc212 = loc("/model.16/act/Sigmoid_output_0_Sigmoid")
#loc213 = loc("/model.16/act/Mul_output_0_Mul")
#loc214 = loc("/model.17/Concat_output_0_Concat")
#loc215 = loc("model.18.cv1.conv.weight")
#loc216 = loc("model.18.cv1.conv.bias")
#loc217 = loc("/model.18/cv1/conv/Conv_output_0_Conv")
#loc218 = loc("/model.18/cv1/act/Sigmoid_output_0_Sigmoid")
#loc219 = loc("/model.18/cv1/act/Mul_output_0_Mul")
#loc220 = loc("/model.18/Split_output_0_Split")
#loc221 = loc("/model.18/Split_output_1_Split")
#loc222 = loc("model.18.m.0.cv1.conv.weight")
#loc223 = loc("model.18.m.0.cv1.conv.bias")
#loc224 = loc("/model.18/m.0/cv1/conv/Conv_output_0_Conv")
#loc225 = loc("/model.18/m.0/cv1/act/Sigmoid_output_0_Sigmoid")
#loc226 = loc("/model.18/m.0/cv1/act/Mul_output_0_Mul")
#loc227 = loc("model.18.m.0.cv2.conv.weight")
#loc228 = loc("model.18.m.0.cv2.conv.bias")
#loc229 = loc("/model.18/m.0/cv2/conv/Conv_output_0_Conv")
#loc230 = loc("/model.18/m.0/cv2/act/Sigmoid_output_0_Sigmoid")
#loc231 = loc("/model.18/m.0/cv2/act/Mul_output_0_Mul")
#loc232 = loc("/model.18/Concat_output_0_Concat")
#loc233 = loc("model.18.cv2.conv.weight")
#loc234 = loc("model.18.cv2.conv.bias")
#loc235 = loc("/model.18/cv2/conv/Conv_output_0_Conv")
#loc236 = loc("/model.18/cv2/act/Sigmoid_output_0_Sigmoid")
#loc237 = loc("/model.18/cv2/act/Mul_output_0_Mul")
#loc238 = loc("model.19.conv.weight")
#loc239 = loc("model.19.conv.bias")
#loc240 = loc("/model.19/conv/Conv_output_0_Conv")
#loc241 = loc("/model.19/act/Sigmoid_output_0_Sigmoid")
#loc242 = loc("/model.19/act/Mul_output_0_Mul")
#loc243 = loc("/model.20/Concat_output_0_Concat")
#loc244 = loc("model.21.cv1.conv.weight")
#loc245 = loc("model.21.cv1.conv.bias")
#loc246 = loc("/model.21/cv1/conv/Conv_output_0_Conv")
#loc247 = loc("/model.21/cv1/act/Sigmoid_output_0_Sigmoid")
#loc248 = loc("/model.21/cv1/act/Mul_output_0_Mul")
#loc249 = loc("/model.21/Split_output_0_Split")
#loc250 = loc("/model.21/Split_output_1_Split")
#loc251 = loc("model.21.m.0.cv1.conv.weight")
#loc252 = loc("model.21.m.0.cv1.conv.bias")
#loc253 = loc("/model.21/m.0/cv1/conv/Conv_output_0_Conv")
#loc254 = loc("/model.21/m.0/cv1/act/Sigmoid_output_0_Sigmoid")
#loc255 = loc("/model.21/m.0/cv1/act/Mul_output_0_Mul")
#loc256 = loc("model.21.m.0.cv2.conv.weight")
#loc257 = loc("model.21.m.0.cv2.conv.bias")
#loc258 = loc("/model.21/m.0/cv2/conv/Conv_output_0_Conv")
#loc259 = loc("/model.21/m.0/cv2/act/Sigmoid_output_0_Sigmoid")
#loc260 = loc("/model.21/m.0/cv2/act/Mul_output_0_Mul")
#loc261 = loc("/model.21/Concat_output_0_Concat")
#loc262 = loc("model.21.cv2.conv.weight")
#loc263 = loc("model.21.cv2.conv.bias")
#loc264 = loc("/model.21/cv2/conv/Conv_output_0_Conv")
#loc265 = loc("/model.21/cv2/act/Sigmoid_output_0_Sigmoid")
#loc266 = loc("/model.21/cv2/act/Mul_output_0_Mul")
#loc267 = loc("model.22.cv2.0.0.conv.weight")
#loc268 = loc("model.22.cv2.0.0.conv.bias")
#loc269 = loc("/model.22/cv2.0/cv2.0.0/conv/Conv_output_0_Conv")
#loc270 = loc("/model.22/cv2.0/cv2.0.0/act/Sigmoid_output_0_Sigmoid")
#loc271 = loc("/model.22/cv2.0/cv2.0.0/act/Mul_output_0_Mul")
#loc272 = loc("model.22.cv2.0.1.conv.weight")
#loc273 = loc("model.22.cv2.0.1.conv.bias")
#loc274 = loc("/model.22/cv2.0/cv2.0.1/conv/Conv_output_0_Conv")
#loc275 = loc("/model.22/cv2.0/cv2.0.1/act/Sigmoid_output_0_Sigmoid")
#loc276 = loc("/model.22/cv2.0/cv2.0.1/act/Mul_output_0_Mul")
#loc277 = loc("model.22.cv2.0.2.weight")
#loc278 = loc("model.22.cv2.0.2.bias")
#loc279 = loc("/model.22/cv2.0/cv2.0.2/Conv_output_0_Conv")
#loc280 = loc("model.22.cv3.0.0.conv.weight")
#loc281 = loc("model.22.cv3.0.0.conv.bias")
#loc282 = loc("/model.22/cv3.0/cv3.0.0/conv/Conv_output_0_Conv")
#loc283 = loc("/model.22/cv3.0/cv3.0.0/act/Sigmoid_output_0_Sigmoid")
#loc284 = loc("/model.22/cv3.0/cv3.0.0/act/Mul_output_0_Mul")
#loc285 = loc("model.22.cv3.0.1.conv.weight")
#loc286 = loc("model.22.cv3.0.1.conv.bias")
#loc287 = loc("/model.22/cv3.0/cv3.0.1/conv/Conv_output_0_Conv")
#loc288 = loc("/model.22/cv3.0/cv3.0.1/act/Sigmoid_output_0_Sigmoid")
#loc289 = loc("/model.22/cv3.0/cv3.0.1/act/Mul_output_0_Mul")
#loc290 = loc("model.22.cv3.0.2.weight")
#loc291 = loc("model.22.cv3.0.2.bias")
#loc292 = loc("/model.22/cv3.0/cv3.0.2/Conv_output_0_Conv")
#loc293 = loc("/model.22/Concat_output_0_Concat")
#loc294 = loc("model.22.cv2.1.0.conv.weight")
#loc295 = loc("model.22.cv2.1.0.conv.bias")
#loc296 = loc("/model.22/cv2.1/cv2.1.0/conv/Conv_output_0_Conv")
#loc297 = loc("/model.22/cv2.1/cv2.1.0/act/Sigmoid_output_0_Sigmoid")
#loc298 = loc("/model.22/cv2.1/cv2.1.0/act/Mul_output_0_Mul")
#loc299 = loc("model.22.cv2.1.1.conv.weight")
#loc300 = loc("model.22.cv2.1.1.conv.bias")
#loc301 = loc("/model.22/cv2.1/cv2.1.1/conv/Conv_output_0_Conv")
#loc302 = loc("/model.22/cv2.1/cv2.1.1/act/Sigmoid_output_0_Sigmoid")
#loc303 = loc("/model.22/cv2.1/cv2.1.1/act/Mul_output_0_Mul")
#loc304 = loc("model.22.cv2.1.2.weight")
#loc305 = loc("model.22.cv2.1.2.bias")
#loc306 = loc("/model.22/cv2.1/cv2.1.2/Conv_output_0_Conv")
#loc307 = loc("model.22.cv3.1.0.conv.weight")
#loc308 = loc("model.22.cv3.1.0.conv.bias")
#loc309 = loc("/model.22/cv3.1/cv3.1.0/conv/Conv_output_0_Conv")
#loc310 = loc("/model.22/cv3.1/cv3.1.0/act/Sigmoid_output_0_Sigmoid")
#loc311 = loc("/model.22/cv3.1/cv3.1.0/act/Mul_output_0_Mul")
#loc312 = loc("model.22.cv3.1.1.conv.weight")
#loc313 = loc("model.22.cv3.1.1.conv.bias")
#loc314 = loc("/model.22/cv3.1/cv3.1.1/conv/Conv_output_0_Conv")
#loc315 = loc("/model.22/cv3.1/cv3.1.1/act/Sigmoid_output_0_Sigmoid")
#loc316 = loc("/model.22/cv3.1/cv3.1.1/act/Mul_output_0_Mul")
#loc317 = loc("model.22.cv3.1.2.weight")
#loc318 = loc("model.22.cv3.1.2.bias")
#loc319 = loc("/model.22/cv3.1/cv3.1.2/Conv_output_0_Conv")
#loc320 = loc("/model.22/Concat_1_output_0_Concat")
#loc321 = loc("model.22.cv2.2.0.conv.weight")
#loc322 = loc("model.22.cv2.2.0.conv.bias")
#loc323 = loc("/model.22/cv2.2/cv2.2.0/conv/Conv_output_0_Conv")
#loc324 = loc("/model.22/cv2.2/cv2.2.0/act/Sigmoid_output_0_Sigmoid")
#loc325 = loc("/model.22/cv2.2/cv2.2.0/act/Mul_output_0_Mul")
#loc326 = loc("model.22.cv2.2.1.conv.weight")
#loc327 = loc("model.22.cv2.2.1.conv.bias")
#loc328 = loc("/model.22/cv2.2/cv2.2.1/conv/Conv_output_0_Conv")
#loc329 = loc("/model.22/cv2.2/cv2.2.1/act/Sigmoid_output_0_Sigmoid")
#loc330 = loc("/model.22/cv2.2/cv2.2.1/act/Mul_output_0_Mul")
#loc331 = loc("model.22.cv2.2.2.weight")
#loc332 = loc("model.22.cv2.2.2.bias")
#loc333 = loc("/model.22/cv2.2/cv2.2.2/Conv_output_0_Conv")
#loc334 = loc("model.22.cv3.2.0.conv.weight")
#loc335 = loc("model.22.cv3.2.0.conv.bias")
#loc336 = loc("/model.22/cv3.2/cv3.2.0/conv/Conv_output_0_Conv")
#loc337 = loc("/model.22/cv3.2/cv3.2.0/act/Sigmoid_output_0_Sigmoid")
#loc338 = loc("/model.22/cv3.2/cv3.2.0/act/Mul_output_0_Mul")
#loc339 = loc("model.22.cv3.2.1.conv.weight")
#loc340 = loc("model.22.cv3.2.1.conv.bias")
#loc341 = loc("/model.22/cv3.2/cv3.2.1/conv/Conv_output_0_Conv")
#loc342 = loc("/model.22/cv3.2/cv3.2.1/act/Sigmoid_output_0_Sigmoid")
#loc343 = loc("/model.22/cv3.2/cv3.2.1/act/Mul_output_0_Mul")
#loc344 = loc("model.22.cv3.2.2.weight")
#loc345 = loc("model.22.cv3.2.2.bias")
#loc346 = loc("/model.22/cv3.2/cv3.2.2/Conv_output_0_Conv")
#loc347 = loc("/model.22/Concat_2_output_0_Concat")
#loc348 = loc("/model.22/Reshape_output_0_Reshape")
#loc349 = loc("/model.22/Reshape_1_output_0_Reshape")
#loc350 = loc("/model.22/Reshape_2_output_0_Reshape")
#loc351 = loc("/model.22/Concat_3_output_0_Concat")
#loc352 = loc("/model.22/Split_output_0_Split")
#loc353 = loc("/model.22/Split_output_1_Split")
#loc354 = loc("/model.22/dfl/Reshape_output_0_Reshape")
#loc355 = loc("/model.22/dfl/Transpose_output_0_Transpose")
#loc356 = loc("/model.22/dfl/Softmax_output_0_Softmax")
#loc357 = loc("model.22.dfl.conv.weight")
#loc358 = loc("/model.22/dfl/conv/Conv_output_0_Conv")
#loc359 = loc("/model.22/Sigmoid_output_0_Sigmoid")
#loc360 = loc(fused[#loc17, #loc18])
#loc361 = loc(fused[#loc46, #loc47])
#loc362 = loc(fused[#loc86, #loc87])
#loc363 = loc(fused[#loc126, #loc127])
#loc364 = loc(fused[#loc166, #loc167])
#loc365 = loc(fused[#loc191, #loc192])
#loc366 = loc(fused[#loc220, #loc221])
#loc367 = loc(fused[#loc249, #loc250])
#loc368 = loc(fused[#loc352, #loc353])

