#loc = loc(unknown)
module @yolov8s attributes {module.FLOPs = 28709930000 : i64, module.asymmetric = false, module.chip = "cv181x", module.cores = 1 : i64, module.devices = 1 : i64, module.mode = "INT8", module.platform = "ONNX", module.q_group_size = 0 : i64, module.state = "TPU_LOWERED", module.weight_file = "yolov8s_tpu_lowered_cv181x_int8_sym_weight.npz"} {
  func.func @main(%arg0: tensor<1x3x640x640xf32> loc(unknown)) -> (tensor<1x1x8400xf32>, tensor<1x1x4x8400xf32>) {
    %0 = "top.None"() : () -> none loc(#loc)
    %1 = "top.Input"(%arg0) {black_level = 1.120000e+02 : f64, channel_format = "nchw", do_preprocess = true, keep_aspect_ratio = true, keep_ratio_mode = "letterbox", mean = [0.000000e+00, 0.000000e+00, 0.000000e+00], pad_type = "center", pad_value = 0 : i64, pixel_format = "rgb", resize_dims = [640, 640], scale = [0.0039215688593685627, 0.0039215688593685627, 0.0039215688593685627], white_level = 4.095000e+03 : f64} : (tensor<1x3x640x640xf32>) -> tensor<1x3x640x640x!quant.calibrated<f32<-1.000000e+00:1.000000e+00>>> loc(#loc1)
    %2 = "tpu.GenericCpu"(%1) {cpu_op_name = "quant", param = {from = "FP32", scale = 1.270000e+02 : f32, to = "INT8"}} : (tensor<1x3x640x640x!quant.calibrated<f32<-1.000000e+00:1.000000e+00>>>) -> tensor<1x3x640x640x!quant.uniform<i8:f32, 0.0078740157480314959>> loc(#loc2)
    %3 = "top.Weight"() : () -> tensor<32x3x3x3xsi8> loc(#loc3)
    %4 = "top.Weight"() : () -> tensor<1x32x1x1xi32> loc(#loc4)
    %5 = "tpu.Conv2D"(%2, %3, %4) {coeff_merged = false, dilations = [1, 1], do_relu = false, do_winograd = false, dynweight_reorderd = false, group = 1 : i64, kernel_shape = [3, 3], kernel_zp = 0 : i64, multiplier = [1265793280, 1569679616, 1296584704, 2018731136, 1567029632, 1352549120, 1525426176, 1396860288, 1274011264, 1154450816, 2038866688, 1594866432, 1559242624, 1521292800, 1223349376, 1840832512, 1798299904, 1637056896, 1274817920, 1499105536, 1596852736, 1649411712, 2120718464, 1940123136, 1459383296, 2039636480, 1575351808, 1257958144, 1099235200, 1620748416, 2012403840, 1773068416], pads = [1, 1, 1, 1], quant_mode = #tpu<rq_mode QDM>, relu_limit = -1.000000e+00 : f64, rshift = [9, 10, 8, 8, 9, 10, 13, 8, 8, 9, 8, 9, 8, 10, 11, 10, 11, 8, 10, 10, 8, 8, 8, 9, 8, 9, 9, 8, 8, 9, 8, 8], strides = [2, 2], use_3ic_optimize = 0 : i64, weight_is_coeff = 1 : i64, with_bias = true} : (tensor<1x3x640x640x!quant.uniform<i8:f32, 0.0078740157480314959>>, tensor<32x3x3x3xsi8>, tensor<1x32x1x1xi32>) -> tensor<1x32x320x320x!quant.uniform<i8:f32, 0.468737768503937>> loc(#loc5)
    %6 = "top.Weight"() : () -> tensor<1x1x1x256xsi8> loc(#loc6)
    %7 = "tpu.Lut"(%5, %6) : (tensor<1x32x320x320x!quant.uniform<i8:f32, 0.468737768503937>>, tensor<1x1x1x256xsi8>) -> tensor<1x32x320x320x!quant.uniform<i8:f32, 0.43493836614173226>> loc(#loc7)
    %8 = "top.Weight"() : () -> tensor<64x32x3x3xsi8> loc(#loc8)
    %9 = "top.Weight"() : () -> tensor<1x64x1x1xi32> loc(#loc9)
    %10 = "tpu.Conv2D"(%7, %8, %9) {coeff_merged = false, dilations = [1, 1], do_relu = false, do_winograd = false, dynweight_reorderd = false, group = 1 : i64, kernel_shape = [3, 3], kernel_zp = 0 : i64, multiplier = [1131350784, 1527008256, 2121484032, 1614914560, 1577814656, 1206283264, 1939257088, 2105015040, 1306148224, 2053383552, 1263523712, 1994275712, 2030576640, 1658035456, 1502124800, 1294472576, 1118997248, 1159000832, 1417395584, 1125286272, 1101654912, 2037107456, 1982201472, 1259764864, 1206500864, 1763880960, 1812368896, 1884700800, 1395615488, 1358850688, 1255535616, 1544410880, 2024665600, 1405478144, 1483997568, 1532151168, 1372535168, 1079128064, 1534193920, 1800007296, 1603568384, 1392966528, 1969602432, 1650196864, 1490422144, 1582089984, 1210235904, 1715438592, 1268774272, 1167769984, 1809335808, 1829484928, 1552445696, 1385618304, 1896931968, 1500423168, 1085925248, 1991309824, 2096708736, 1396160768, 2119110656, 1583305088, 1181390976, 1296377472], pads = [1, 1, 1, 1], quant_mode = #tpu<rq_mode QDM>, relu_limit = -1.000000e+00 : f64, rshift = [8, 10, 9, 9, 9, 8, 8, 9, 8, 9, 8, 8, 10, 9, 8, 9, 8, 7, 9, 8, 8, 10, 9, 8, 9, 9, 9, 8, 8, 8, 8, 9, 9, 8, 6, 8, 9, 6, 9, 9, 9, 9, 9, 8, 8, 9, 9, 7, 9, 7, 9, 8, 8, 8, 8, 9, 8, 9, 9, 8, 7, 9, 8, 9], strides = [2, 2], use_3ic_optimize = 0 : i64, weight_is_coeff = 1 : i64, with_bias = true} : (tensor<1x32x320x320x!quant.uniform<i8:f32, 0.43493836614173226>>, tensor<64x32x3x3xsi8>, tensor<1x64x1x1xi32>) -> tensor<1x64x160x160x!quant.uniform<i8:f32, 0.68807983385826776>> loc(#loc10)
    %11 = "top.Weight"() : () -> tensor<1x1x1x256xsi8> loc(#loc11)
    %12 = "tpu.Lut"(%10, %11) : (tensor<1x64x160x160x!quant.uniform<i8:f32, 0.68807983385826776>>, tensor<1x1x1x256xsi8>) -> tensor<1x64x160x160x!quant.uniform<i8:f32, 0.71302666220472444>> loc(#loc12)
    %13 = "top.Weight"() : () -> tensor<64x64x1x1xsi8> loc(#loc13)
    %14 = "top.Weight"() : () -> tensor<1x64x1x1xi32> loc(#loc14)
    %15 = "tpu.Conv2D"(%12, %13, %14) {coeff_merged = false, dilations = [1, 1], do_relu = false, do_winograd = false, dynweight_reorderd = false, group = 1 : i64, kernel_shape = [1, 1], kernel_zp = 0 : i64, multiplier = [1723091456, 1726953344, 1804171008, 1267471616, 1972229120, 1990395136, 1886459008, 1341448192, 1172764416, 1543507328, 2080992256, 1089906304, 1953573376, 1280979456, 1385259264, 1212554624, 1338923264, 1253429248, 1106408704, 1125325312, 1107191808, 1611865088, 1417780736, 1173316480, 1784647936, 1293525888, 1284428928, 1824482048, 1184463360, 1079699072, 1373822848, 1100371072, 1708049024, 1644037376, 1896467072, 1268056576, 1456445184, 2005108224, 1477475584, 1203879424, 1109269504, 1852734464, 2115003776, 1393746176, 1932027776, 1937668096, 1321634432, 1143729024, 1231702656, 1148573184, 1135718144, 1169727360, 1252650496, 2023098496, 1414957568, 1663012096, 1181634176, 1089519744, 1370930432, 1354904576, 1486147968, 1350564992, 1640670848, 1531552384], pads = [0, 0, 0, 0], quant_mode = #tpu<rq_mode QDM>, relu_limit = -1.000000e+00 : f64, rshift = [7, 7, 7, 6, 7, 8, 8, 7, 7, 8, 7, 7, 7, 7, 7, 7, 8, 7, 6, 6, 8, 7, 8, 6, 7, 8, 8, 9, 6, 8, 8, 7, 7, 8, 6, 9, 9, 8, 7, 8, 8, 8, 10, 7, 7, 7, 9, 7, 7, 8, 8, 9, 6, 9, 7, 7, 8, 6, 8, 8, 7, 9, 7, 9], strides = [1, 1], use_3ic_optimize = 0 : i64, weight_is_coeff = 1 : i64, with_bias = true} : (tensor<1x64x160x160x!quant.uniform<i8:f32, 0.71302666220472444>>, tensor<64x64x1x1xsi8>, tensor<1x64x1x1xi32>) -> tensor<1x64x160x160x!quant.uniform<i8:f32, 0.42168459527559055>> loc(#loc15)
    %16 = "top.Weight"() : () -> tensor<1x1x1x256xsi8> loc(#loc16)
    %17 = "tpu.Lut"(%15, %16) : (tensor<1x64x160x160x!quant.uniform<i8:f32, 0.42168459527559055>>, tensor<1x1x1x256xsi8>) -> tensor<1x64x160x160x!quant.uniform<i8:f32, 0.23781815511811022>> loc(#loc17)
    %18 = "tpu.Slice"(%17, %0, %0, %0, %0) {axes = [], ends = [-1, 32, -1, -1], offset = [0, 0, 0, 0], steps = [1, 1, 1, 1]} : (tensor<1x64x160x160x!quant.uniform<i8:f32, 0.23781815511811022>>, none, none, none, none) -> tensor<1x32x160x160x!quant.uniform<i8:f32, 0.23781815511811022>> loc(#loc18)
    %19 = "tpu.Slice"(%17, %0, %0, %0, %0) {axes = [], ends = [-1, 64, -1, -1], offset = [0, 32, 0, 0], steps = [1, 1, 1, 1]} : (tensor<1x64x160x160x!quant.uniform<i8:f32, 0.23781815511811022>>, none, none, none, none) -> tensor<1x32x160x160x!quant.uniform<i8:f32, 0.23781815511811022>> loc(#loc19)
    %20 = "top.Weight"() : () -> tensor<32x32x3x3xsi8> loc(#loc20)
    %21 = "top.Weight"() : () -> tensor<1x32x1x1xi32> loc(#loc21)
    %22 = "tpu.Conv2D"(%19, %20, %21) {coeff_merged = false, dilations = [1, 1], do_relu = false, do_winograd = false, dynweight_reorderd = false, group = 1 : i64, kernel_shape = [3, 3], kernel_zp = 0 : i64, multiplier = [1317804544, 1138883328, 2064341760, 1469157504, 1765506688, 1703511680, 1472893184, 1902377984, 1642164224, 1137344256, 1903926656, 1240219776, 1647682560, 1483861632, 1306007040, 1082450688, 2009209856, 1272203264, 1123714432, 1476564096, 1860892672, 2027635072, 1453548672, 1841936256, 1743810944, 1741225088, 1247752064, 1263304704, 1454017024, 1747740800, 1535490304, 1506494976], pads = [1, 1, 1, 1], quant_mode = #tpu<rq_mode QDM>, relu_limit = -1.000000e+00 : f64, rshift = [6, 6, 7, 7, 8, 7, 6, 8, 7, 6, 7, 7, 7, 7, 6, 6, 7, 6, 7, 7, 7, 8, 6, 7, 7, 7, 7, 8, 7, 7, 7, 7], strides = [1, 1], use_3ic_optimize = 0 : i64, weight_is_coeff = 1 : i64, with_bias = true} : (tensor<1x32x160x160x!quant.uniform<i8:f32, 0.23781815511811022>>, tensor<32x32x3x3xsi8>, tensor<1x32x1x1xi32>) -> tensor<1x32x160x160x!quant.uniform<i8:f32, 0.30551811259842521>> loc(#loc22)
    %23 = "top.Weight"() : () -> tensor<1x1x1x256xsi8> loc(#loc23)
    %24 = "tpu.Lut"(%22, %23) : (tensor<1x32x160x160x!quant.uniform<i8:f32, 0.30551811259842521>>, tensor<1x1x1x256xsi8>) -> tensor<1x32x160x160x!quant.uniform<i8:f32, 0.2259418968503937>> loc(#loc24)
    %25 = "top.Weight"() : () -> tensor<32x32x3x3xsi8> loc(#loc25)
    %26 = "top.Weight"() : () -> tensor<1x32x1x1xi32> loc(#loc26)
    %27 = "tpu.Conv2D"(%24, %25, %26) {coeff_merged = false, dilations = [1, 1], do_relu = false, do_winograd = false, dynweight_reorderd = false, group = 1 : i64, kernel_shape = [3, 3], kernel_zp = 0 : i64, multiplier = [1422918656, 1222686592, 1489004160, 1183626240, 1446121600, 1135194752, 2059077760, 1749702144, 1628918400, 1176187264, 2108989696, 1312244992, 1648986496, 1570681216, 1524410880, 1986861184, 1208741504, 2011464704, 1580734208, 1114618240, 1444094720, 1200514688, 1510314240, 1289750784, 1170698240, 1429523200, 1731440128, 1768029312, 1502447488, 1312821248, 1285001472, 2039450624], pads = [1, 1, 1, 1], quant_mode = #tpu<rq_mode QDM>, relu_limit = -1.000000e+00 : f64, rshift = [8, 8, 9, 8, 8, 9, 9, 9, 10, 9, 9, 9, 9, 8, 9, 10, 9, 8, 8, 8, 8, 7, 8, 9, 8, 8, 9, 9, 9, 9, 8, 9], strides = [1, 1], use_3ic_optimize = 0 : i64, weight_is_coeff = 1 : i64, with_bias = true} : (tensor<1x32x160x160x!quant.uniform<i8:f32, 0.2259418968503937>>, tensor<32x32x3x3xsi8>, tensor<1x32x1x1xi32>) -> tensor<1x32x160x160x!quant.uniform<i8:f32, 0.25557005905511809>> loc(#loc27)
    %28 = "top.Weight"() : () -> tensor<1x1x1x256xsi8> loc(#loc28)
    %29 = "tpu.Lut"(%27, %28) : (tensor<1x32x160x160x!quant.uniform<i8:f32, 0.25557005905511809>>, tensor<1x1x1x256xsi8>) -> tensor<1x32x160x160x!quant.uniform<i8:f32, 0.215743762992126>> loc(#loc29)
    %30 = "tpu.Add"(%19, %29) {do_relu = false, multipliers = [113, 102], relu_limit = -1.000000e+00 : f64, rshifts = [7]} : (tensor<1x32x160x160x!quant.uniform<i8:f32, 0.23781815511811022>>, tensor<1x32x160x160x!quant.uniform<i8:f32, 0.215743762992126>>) -> tensor<1x32x160x160x!quant.uniform<i8:f32, 0.26931933149606302>> loc(#loc30)
    %31 = "tpu.Concat"(%18, %19, %30) {axis = 1 : si32, do_relu = false, multipliers = [115, 115, 65], only_merge = false, relu_limit = -1.000000e+00 : f64, rshifts = [7, 7, 6]} : (tensor<1x32x160x160x!quant.uniform<i8:f32, 0.23781815511811022>>, tensor<1x32x160x160x!quant.uniform<i8:f32, 0.23781815511811022>>, tensor<1x32x160x160x!quant.uniform<i8:f32, 0.26931933149606302>>) -> tensor<1x96x160x160x!quant.uniform<i8:f32, 0.26296856299212601>> loc(#loc31)
    %32 = "top.Weight"() : () -> tensor<64x96x1x1xsi8> loc(#loc32)
    %33 = "top.Weight"() : () -> tensor<1x64x1x1xi32> loc(#loc33)
    %34 = "tpu.Conv2D"(%31, %32, %33) {coeff_merged = false, dilations = [1, 1], do_relu = false, do_winograd = false, dynweight_reorderd = false, group = 1 : i64, kernel_shape = [1, 1], kernel_zp = 0 : i64, multiplier = [1167045888, 1169340416, 1256389632, 1682853376, 1129982848, 1691638400, 1230412672, 1307337472, 2069560320, 1757716864, 1931640064, 1685925760, 1612127488, 1731933056, 1542815232, 1990307584, 2140196608, 1556721664, 1252941184, 1823525376, 1872765440, 1640107008, 1660796544, 1776545280, 1442672640, 1608440576, 1425988608, 1318824064, 1833093504, 1314437376, 1220445952, 1126637312, 1392575872, 1918030848, 1585630720, 1260463872, 1246602880, 1539371904, 2067045760, 2073598208, 1271529216, 1822797568, 1564533632, 2041083264, 1673495808, 1446973824, 1585017984, 2058641024, 1431940992, 1640452352, 1662055296, 1582896256, 1931774720, 1375032064, 1262427136, 1382281472, 1160403968, 1316197504, 1333574784, 1586187648, 1206147584, 1326988928, 1673462912, 1074493312], pads = [0, 0, 0, 0], quant_mode = #tpu<rq_mode QDM>, relu_limit = -1.000000e+00 : f64, rshift = [8, 7, 7, 8, 8, 8, 8, 7, 8, 8, 9, 8, 7, 8, 8, 8, 9, 8, 8, 8, 7, 8, 8, 8, 7, 8, 8, 8, 7, 8, 7, 7, 8, 8, 7, 8, 7, 8, 8, 8, 7, 7, 7, 8, 9, 8, 7, 8, 7, 7, 8, 7, 7, 7, 7, 7, 8, 8, 8, 8, 7, 7, 8, 7], strides = [1, 1], use_3ic_optimize = 0 : i64, weight_is_coeff = 1 : i64, with_bias = true} : (tensor<1x96x160x160x!quant.uniform<i8:f32, 0.26296856299212601>>, tensor<64x96x1x1xsi8>, tensor<1x64x1x1xi32>) -> tensor<1x64x160x160x!quant.uniform<i8:f32, 0.20622726535433072>> loc(#loc34)
    %35 = "top.Weight"() : () -> tensor<1x1x1x256xsi8> loc(#loc35)
    %36 = "tpu.Lut"(%34, %35) : (tensor<1x64x160x160x!quant.uniform<i8:f32, 0.20622726535433072>>, tensor<1x1x1x256xsi8>) -> tensor<1x64x160x160x!quant.uniform<i8:f32, 0.12394116614173228>> loc(#loc36)
    %37 = "top.Weight"() : () -> tensor<128x64x3x3xsi8> loc(#loc37)
    %38 = "top.Weight"() : () -> tensor<1x128x1x1xi32> loc(#loc38)
    %39 = "tpu.Conv2D"(%36, %37, %38) {coeff_merged = false, dilations = [1, 1], do_relu = false, do_winograd = false, dynweight_reorderd = false, group = 1 : i64, kernel_shape = [3, 3], kernel_zp = 0 : i64, multiplier = [2052202496, 1438046208, 1225073536, 1231972736, 2123591936, 1077081088, 1333081216, 1508206976, 1268975744, 1712182784, 1550769280, 1272066944, 1399048192, 1339275776, 1210324224, 1428794496, 1173782272, 1508357760, 1991797248, 1914389888, 1170595840, 2079613184, 1208864512, 1180845056, 1860455552, 2015415552, 1238850432, 1452017664, 1387527552, 1950619008, 1799034496, 1475439488, 1564643072, 1464486400, 1088562304, 1854392192, 1278379264, 1462628224, 1409664128, 1174187648, 1146238080, 1799729280, 2092002048, 1127500032, 1902903168, 1727705728, 1139529856, 1871576960, 1505707776, 1210342400, 1082818048, 1156428416, 1457528704, 1264578816, 2126430592, 1852297600, 1943828992, 1119695616, 1748042624, 1328591360, 1981888128, 1370513664, 1081965824, 1573498752, 2124565888, 1985368576, 1097819648, 1082278528, 1786869376, 1833081856, 1826463232, 1196154240, 1173661184, 1185488256, 1393407872, 1613361536, 1297590656, 2054518656, 1898156032, 1668135296, 1947959296, 2044569344, 1248964096, 1168143872, 2129465088, 1723141248, 1951523456, 1648573952, 1139737856, 1152699392, 1322464384, 1653471616, 1235492736, 1177800704, 1108858496, 1703649024, 1999324160, 1708846080, 1568658944, 1340822272, 1878213632, 1721429504, 1480499072, 1326640768, 1131636352, 1959697664, 1820836736, 1899887488, 1332178048, 1868521984, 1710985216, 1311607808, 1373232128, 1396013824, 1307467264, 1493342080, 1842825472, 1155350656, 1289891072, 2024067328, 2061738368, 1420365952, 1089806080, 2019882112, 1364679936, 1754387584, 1560645120, 1281755392], pads = [1, 1, 1, 1], quant_mode = #tpu<rq_mode QDM>, relu_limit = -1.000000e+00 : f64, rshift = [10, 9, 8, 8, 10, 8, 8, 8, 8, 9, 10, 9, 8, 9, 9, 9, 8, 9, 9, 9, 8, 9, 8, 9, 9, 9, 10, 8, 8, 9, 9, 9, 9, 9, 9, 8, 8, 9, 9, 9, 8, 10, 9, 8, 9, 9, 8, 10, 9, 8, 8, 8, 9, 8, 10, 9, 10, 8, 9, 8, 9, 9, 8, 9, 9, 10, 9, 9, 10, 10, 9, 8, 8, 9, 8, 9, 8, 10, 10, 9, 9, 10, 8, 9, 9, 9, 10, 9, 9, 8, 9, 9, 9, 9, 9, 10, 9, 9, 9, 9, 9, 8, 9, 8, 8, 10, 10, 9, 9, 9, 9, 8, 9, 9, 8, 9, 9, 8, 9, 9, 9, 9, 8, 10, 9, 9, 8, 9], strides = [2, 2], use_3ic_optimize = 0 : i64, weight_is_coeff = 1 : i64, with_bias = true} : (tensor<1x64x160x160x!quant.uniform<i8:f32, 0.12394116614173228>>, tensor<128x64x3x3xsi8>, tensor<1x128x1x1xi32>) -> tensor<1x128x80x80x!quant.uniform<i8:f32, 0.08196778897637795>> loc(#loc39)
    %40 = "top.Weight"() : () -> tensor<1x1x1x256xsi8> loc(#loc40)
    %41 = "tpu.Lut"(%39, %40) : (tensor<1x128x80x80x!quant.uniform<i8:f32, 0.08196778897637795>>, tensor<1x1x1x256xsi8>) -> tensor<1x128x80x80x!quant.uniform<i8:f32, 0.066642506299212589>> loc(#loc41)
    %42 = "top.Weight"() : () -> tensor<128x128x1x1xsi8> loc(#loc42)
    %43 = "top.Weight"() : () -> tensor<1x128x1x1xi32> loc(#loc43)
    %44 = "tpu.Conv2D"(%41, %42, %43) {coeff_merged = false, dilations = [1, 1], do_relu = false, do_winograd = false, dynweight_reorderd = false, group = 1 : i64, kernel_shape = [1, 1], kernel_zp = 0 : i64, multiplier = [1173015424, 1295719040, 1354727552, 1418360064, 1300982272, 1490777344, 1401826688, 1291589888, 1833322624, 2066844032, 1295991296, 2073389696, 1697185408, 1197918976, 1603460736, 1280391552, 1314347776, 1994505344, 1729886848, 1190796544, 1294648832, 1127877120, 1125365376, 1772243840, 1699061120, 1809890304, 1528451584, 2039632768, 1786195200, 1391684352, 1336969344, 1914359680, 1236765440, 2081276800, 1323398912, 1177938432, 1191287936, 2010141056, 1218146432, 1636026240, 1904115584, 2120342400, 1298136576, 1302882048, 1209318144, 1612046592, 2007489792, 1440563456, 1921987840, 1665720320, 1633497856, 1548969344, 1520197760, 1451420416, 2017232128, 1082193664, 1718830848, 1354309760, 1481331840, 1155671296, 1477040000, 1973102336, 1335938048, 1921526912, 1581174400, 1813888768, 1172627328, 1160700032, 1173317504, 1533380736, 1087667712, 1357337856, 1446299392, 1095137024, 1755507584, 1906771968, 1734521600, 2137574144, 1784904832, 1132047232, 1090210432, 1804850816, 1827618048, 2049112448, 1470900736, 1638092032, 1287429632, 1944419584, 1181773184, 1685534976, 1189945216, 1721702656, 2016513024, 1390535296, 1644079360, 1376562944, 1930955008, 2078285568, 1243850496, 1558801920, 2107726720, 1160404096, 1320841216, 1177848064, 1105018752, 1092855936, 1731399296, 1881799040, 1591479424, 1469000192, 1558371072, 1262815872, 1138916352, 1922546688, 1588537984, 1494688000, 2102710912, 1151969536, 1175256576, 2085422592, 1338892544, 1459378304, 1472100480, 1127286528, 1256095104, 1139334912, 1468971904, 1972547968], pads = [0, 0, 0, 0], quant_mode = #tpu<rq_mode QDM>, relu_limit = -1.000000e+00 : f64, rshift = [8, 8, 8, 8, 8, 7, 7, 7, 9, 9, 7, 8, 7, 8, 7, 7, 8, 8, 8, 7, 8, 7, 8, 8, 8, 8, 8, 7, 7, 7, 8, 9, 7, 8, 8, 7, 7, 8, 7, 9, 8, 8, 6, 8, 6, 7, 7, 7, 8, 8, 8, 7, 8, 7, 9, 6, 7, 7, 8, 8, 7, 8, 7, 8, 9, 9, 8, 9, 9, 9, 9, 9, 9, 8, 9, 9, 8, 10, 9, 8, 9, 9, 9, 10, 8, 9, 8, 10, 9, 8, 8, 10, 9, 9, 9, 9, 9, 9, 9, 9, 10, 8, 9, 8, 9, 8, 9, 10, 9, 8, 9, 9, 9, 10, 10, 9, 10, 8, 9, 9, 8, 9, 8, 8, 8, 9, 8, 9], strides = [1, 1], use_3ic_optimize = 0 : i64, weight_is_coeff = 1 : i64, with_bias = true} : (tensor<1x128x80x80x!quant.uniform<i8:f32, 0.066642506299212589>>, tensor<128x128x1x1xsi8>, tensor<1x128x1x1xi32>) -> tensor<1x128x80x80x!quant.uniform<i8:f32, 0.096222118897637792>> loc(#loc44)
    %45 = "top.Weight"() : () -> tensor<1x1x1x256xsi8> loc(#loc45)
    %46 = "tpu.Lut"(%44, %45) : (tensor<1x128x80x80x!quant.uniform<i8:f32, 0.096222118897637792>>, tensor<1x1x1x256xsi8>) -> tensor<1x128x80x80x!quant.uniform<i8:f32, 0.066550658267716542>> loc(#loc46)
    %47 = "tpu.Slice"(%46, %0, %0, %0, %0) {axes = [], ends = [-1, 64, -1, -1], offset = [0, 0, 0, 0], steps = [1, 1, 1, 1]} : (tensor<1x128x80x80x!quant.uniform<i8:f32, 0.066550658267716542>>, none, none, none, none) -> tensor<1x64x80x80x!quant.uniform<i8:f32, 0.066550658267716542>> loc(#loc47)
    %48 = "tpu.Slice"(%46, %0, %0, %0, %0) {axes = [], ends = [-1, 128, -1, -1], offset = [0, 64, 0, 0], steps = [1, 1, 1, 1]} : (tensor<1x128x80x80x!quant.uniform<i8:f32, 0.066550658267716542>>, none, none, none, none) -> tensor<1x64x80x80x!quant.uniform<i8:f32, 0.066550658267716542>> loc(#loc48)
    %49 = "top.Weight"() : () -> tensor<64x64x3x3xsi8> loc(#loc49)
    %50 = "top.Weight"() : () -> tensor<1x64x1x1xi32> loc(#loc50)
    %51 = "tpu.Conv2D"(%48, %49, %50) {coeff_merged = false, dilations = [1, 1], do_relu = false, do_winograd = false, dynweight_reorderd = false, group = 1 : i64, kernel_shape = [3, 3], kernel_zp = 0 : i64, multiplier = [1301090944, 1117404928, 1388020224, 1960411904, 1645737472, 1342053888, 1077984128, 1329275392, 1087311360, 1278305536, 1157146112, 1079085824, 1126173440, 1218617472, 1912918144, 1946417408, 1871856256, 1929801728, 1559888384, 2113561472, 1880899072, 1347757056, 1108258304, 2086855808, 1544738304, 1615086976, 2008516864, 1802723584, 1092312320, 1365754496, 1206017664, 1827129216, 1162155904, 1875279744, 1926600320, 1847589632, 1238704640, 2136090112, 1527523328, 1937097344, 1730950144, 1229338752, 1608302464, 1129860736, 1957908480, 1923667328, 2127939712, 1712240000, 1103887488, 2115192192, 1163342336, 1213299968, 1180752256, 2133051136, 1710099200, 1611037184, 2014162816, 1430191488, 1148256000, 1685585536, 1345192448, 1868146560, 2004943616, 1425652736], pads = [1, 1, 1, 1], quant_mode = #tpu<rq_mode QDM>, relu_limit = -1.000000e+00 : f64, rshift = [8, 8, 8, 9, 9, 8, 8, 8, 8, 9, 8, 7, 9, 8, 8, 9, 9, 9, 8, 10, 9, 9, 8, 9, 8, 8, 8, 9, 8, 8, 8, 8, 8, 10, 8, 9, 7, 8, 8, 8, 8, 8, 9, 8, 9, 8, 9, 9, 8, 9, 8, 7, 8, 9, 8, 9, 9, 8, 9, 9, 8, 9, 8, 8], strides = [1, 1], use_3ic_optimize = 0 : i64, weight_is_coeff = 1 : i64, with_bias = true} : (tensor<1x64x80x80x!quant.uniform<i8:f32, 0.066550658267716542>>, tensor<64x64x3x3xsi8>, tensor<1x64x1x1xi32>) -> tensor<1x64x80x80x!quant.uniform<i8:f32, 0.084716969291338581>> loc(#loc51)
    %52 = "top.Weight"() : () -> tensor<1x1x1x256xsi8> loc(#loc52)
    %53 = "tpu.Lut"(%51, %52) : (tensor<1x64x80x80x!quant.uniform<i8:f32, 0.084716969291338581>>, tensor<1x1x1x256xsi8>) -> tensor<1x64x80x80x!quant.uniform<i8:f32, 0.046328659842519687>> loc(#loc53)
    %54 = "top.Weight"() : () -> tensor<64x64x3x3xsi8> loc(#loc54)
    %55 = "top.Weight"() : () -> tensor<1x64x1x1xi32> loc(#loc55)
    %56 = "tpu.Conv2D"(%53, %54, %55) {coeff_merged = false, dilations = [1, 1], do_relu = false, do_winograd = false, dynweight_reorderd = false, group = 1 : i64, kernel_shape = [3, 3], kernel_zp = 0 : i64, multiplier = [1499715200, 1996274560, 1280808704, 1548901504, 1417786880, 1299178752, 1284519296, 1771626752, 1655584512, 1299736320, 1764334336, 1227682688, 1179828480, 1393300224, 2032886016, 1139612672, 1649854464, 1136180480, 2127520000, 1628201984, 1402012032, 1850354944, 1314682240, 1310345600, 1394125312, 1144239232, 1635088512, 1668281088, 1546843136, 1599564544, 1284406656, 1162461056, 1406555136, 1930308096, 2086550144, 2005169280, 2086743168, 2061251840, 1169970304, 1733725056, 1164487552, 1492604800, 1299828992, 1719224064, 1074363520, 1259258240, 1356989568, 1137075840, 1588263680, 1263400576, 1786372096, 1494869376, 2036995584, 2003546624, 1723406592, 1355824128, 1808959744, 1759217536, 1603010176, 1328224128, 1479485952, 2003103488, 1201562496, 1895440768], pads = [1, 1, 1, 1], quant_mode = #tpu<rq_mode QDM>, relu_limit = -1.000000e+00 : f64, rshift = [9, 9, 9, 9, 10, 9, 9, 9, 9, 9, 10, 9, 7, 9, 10, 9, 10, 9, 10, 10, 9, 9, 9, 9, 8, 9, 10, 9, 9, 9, 9, 8, 9, 10, 10, 10, 10, 10, 8, 9, 8, 10, 10, 10, 9, 9, 9, 9, 9, 9, 9, 9, 10, 9, 10, 9, 9, 9, 8, 9, 9, 10, 8, 9], strides = [1, 1], use_3ic_optimize = 0 : i64, weight_is_coeff = 1 : i64, with_bias = true} : (tensor<1x64x80x80x!quant.uniform<i8:f32, 0.046328659842519687>>, tensor<64x64x3x3xsi8>, tensor<1x64x1x1xi32>) -> tensor<1x64x80x80x!quant.uniform<i8:f32, 0.065331917322834651>> loc(#loc56)
    %57 = "top.Weight"() : () -> tensor<1x1x1x256xsi8> loc(#loc57)
    %58 = "tpu.Lut"(%56, %57) : (tensor<1x64x80x80x!quant.uniform<i8:f32, 0.065331917322834651>>, tensor<1x1x1x256xsi8>) -> tensor<1x64x80x80x!quant.uniform<i8:f32, 0.040026512598425198>> loc(#loc58)
    %59 = "tpu.Add"(%48, %58) {do_relu = false, multipliers = [119, 71], relu_limit = -1.000000e+00 : f64, rshifts = [7]} : (tensor<1x64x80x80x!quant.uniform<i8:f32, 0.066550658267716542>>, tensor<1x64x80x80x!quant.uniform<i8:f32, 0.040026512598425198>>) -> tensor<1x64x80x80x!quant.uniform<i8:f32, 0.071270800000000009>> loc(#loc59)
    %60 = "top.Weight"() : () -> tensor<64x64x3x3xsi8> loc(#loc60)
    %61 = "top.Weight"() : () -> tensor<1x64x1x1xi32> loc(#loc61)
    %62 = "tpu.Conv2D"(%59, %60, %61) {coeff_merged = false, dilations = [1, 1], do_relu = false, do_winograd = false, dynweight_reorderd = false, group = 1 : i64, kernel_shape = [3, 3], kernel_zp = 0 : i64, multiplier = [1376854144, 1527446784, 1749315840, 1492653824, 1417656576, 1254835456, 2098268672, 1243796224, 1309187200, 1796673664, 1669499776, 1982110208, 2009087744, 1421119104, 1375859200, 1926000640, 1161752448, 2121294592, 1271574144, 1725177600, 1179962752, 1382970752, 1807126912, 1771422848, 1480896256, 1203892096, 1580970880, 1538352000, 1444810624, 1626921600, 1115749504, 1796994560, 1388323200, 1178070784, 1838733952, 1952194944, 2069896320, 1168333440, 1405495680, 1830177536, 1270703360, 1131894144, 2050997760, 1239600896, 1466318848, 1081061888, 1856276864, 1302364288, 1476350080, 1733303424, 1594542336, 1237270016, 1319334400, 1256885632, 1767276160, 1702719872, 1339458944, 1706449536, 1214634880, 1295596032, 1831827456, 1365462912, 1673477504, 1633768704], pads = [1, 1, 1, 1], quant_mode = #tpu<rq_mode QDM>, relu_limit = -1.000000e+00 : f64, rshift = [9, 9, 8, 9, 10, 8, 10, 8, 9, 8, 9, 9, 10, 8, 8, 10, 9, 9, 9, 9, 8, 9, 8, 9, 9, 9, 9, 9, 9, 9, 8, 9, 9, 9, 9, 9, 9, 9, 9, 9, 9, 8, 9, 9, 9, 8, 9, 8, 8, 8, 9, 8, 8, 9, 9, 9, 9, 9, 9, 9, 9, 8, 9, 9], strides = [1, 1], use_3ic_optimize = 0 : i64, weight_is_coeff = 1 : i64, with_bias = true} : (tensor<1x64x80x80x!quant.uniform<i8:f32, 0.071270800000000009>>, tensor<64x64x3x3xsi8>, tensor<1x64x1x1xi32>) -> tensor<1x64x80x80x!quant.uniform<i8:f32, 0.061430120472440945>> loc(#loc62)
    %63 = "top.Weight"() : () -> tensor<1x1x1x256xsi8> loc(#loc63)
    %64 = "tpu.Lut"(%62, %63) : (tensor<1x64x80x80x!quant.uniform<i8:f32, 0.061430120472440945>>, tensor<1x1x1x256xsi8>) -> tensor<1x64x80x80x!quant.uniform<i8:f32, 0.038892557480314963>> loc(#loc64)
    %65 = "top.Weight"() : () -> tensor<64x64x3x3xsi8> loc(#loc65)
    %66 = "top.Weight"() : () -> tensor<1x64x1x1xi32> loc(#loc66)
    %67 = "tpu.Conv2D"(%64, %65, %66) {coeff_merged = false, dilations = [1, 1], do_relu = false, do_winograd = false, dynweight_reorderd = false, group = 1 : i64, kernel_shape = [3, 3], kernel_zp = 0 : i64, multiplier = [1162291968, 1612852608, 1484345088, 1603067776, 1568148864, 1757399040, 1405473536, 1821186304, 1331745792, 2000385664, 1915878912, 1465811840, 1217793408, 2037650816, 1372380032, 2106691328, 1298870784, 1201396608, 1274644864, 1311653248, 1241603584, 1809452672, 1098244736, 1189082112, 1710943744, 1288310400, 1657670528, 1174112768, 1421616896, 1487391488, 1449158912, 1976171264, 1998362624, 1974964224, 1683291264, 1731777024, 1309197056, 1561861376, 1944360960, 1750944768, 1363951488, 1841261056, 1601466112, 1558408960, 1267350656, 1091304064, 1445989760, 1772077312, 1302381696, 1955021952, 1813726208, 1636121088, 1180493312, 2006891904, 1743011968, 1308671872, 1468486144, 1131909504, 1761969152, 1697256192, 1326883968, 2040189696, 1567109760, 1175837440], pads = [1, 1, 1, 1], quant_mode = #tpu<rq_mode QDM>, relu_limit = -1.000000e+00 : f64, rshift = [9, 9, 9, 9, 9, 9, 8, 9, 9, 10, 9, 9, 9, 9, 9, 9, 8, 9, 8, 9, 8, 9, 8, 9, 9, 9, 9, 8, 8, 9, 8, 9, 9, 9, 9, 9, 9, 9, 9, 8, 9, 9, 9, 9, 9, 8, 9, 9, 8, 9, 9, 9, 9, 9, 9, 8, 8, 9, 9, 9, 8, 9, 9, 8], strides = [1, 1], use_3ic_optimize = 0 : i64, weight_is_coeff = 1 : i64, with_bias = true} : (tensor<1x64x80x80x!quant.uniform<i8:f32, 0.038892557480314963>>, tensor<64x64x3x3xsi8>, tensor<1x64x1x1xi32>) -> tensor<1x64x80x80x!quant.uniform<i8:f32, 0.077801366141732289>> loc(#loc67)
    %68 = "top.Weight"() : () -> tensor<1x1x1x256xsi8> loc(#loc68)
    %69 = "tpu.Lut"(%67, %68) : (tensor<1x64x80x80x!quant.uniform<i8:f32, 0.077801366141732289>>, tensor<1x1x1x256xsi8>) -> tensor<1x64x80x80x!quant.uniform<i8:f32, 0.071317785039370085>> loc(#loc69)
    %70 = "tpu.Add"(%59, %69) {do_relu = false, multipliers = [109, 109], relu_limit = -1.000000e+00 : f64, rshifts = [7]} : (tensor<1x64x80x80x!quant.uniform<i8:f32, 0.071270800000000009>>, tensor<1x64x80x80x!quant.uniform<i8:f32, 0.071317785039370085>>) -> tensor<1x64x80x80x!quant.uniform<i8:f32, 0.08312323700787401>> loc(#loc70)
    %71 = "tpu.Concat"(%47, %48, %59, %70) {axis = 1 : si32, do_relu = false, multipliers = [64, 64, 69, 81], only_merge = false, relu_limit = -1.000000e+00 : f64, rshifts = [6, 6, 6, 6]} : (tensor<1x64x80x80x!quant.uniform<i8:f32, 0.066550658267716542>>, tensor<1x64x80x80x!quant.uniform<i8:f32, 0.066550658267716542>>, tensor<1x64x80x80x!quant.uniform<i8:f32, 0.071270800000000009>>, tensor<1x64x80x80x!quant.uniform<i8:f32, 0.08312323700787401>>) -> tensor<1x256x80x80x!quant.uniform<i8:f32, 0.065660866141732277>> loc(#loc71)
    %72 = "top.Weight"() : () -> tensor<128x256x1x1xsi8> loc(#loc72)
    %73 = "top.Weight"() : () -> tensor<1x128x1x1xi32> loc(#loc73)
    %74 = "tpu.Conv2D"(%71, %72, %73) {coeff_merged = false, dilations = [1, 1], do_relu = false, do_winograd = false, dynweight_reorderd = false, group = 1 : i64, kernel_shape = [1, 1], kernel_zp = 0 : i64, multiplier = [1583342336, 1335441408, 1412560256, 1589745024, 1135815680, 1204967168, 1241252224, 1792285440, 1440006912, 1980255232, 2109530624, 2061436032, 1432526080, 1444198528, 1969373952, 1096820224, 1359276288, 1304939264, 1283833600, 1105637888, 1414365824, 1270241280, 1101897088, 1570192768, 1808855552, 1749076352, 1774410752, 2003709568, 1693507968, 1199324288, 1990885120, 1688507264, 1995542400, 1819280896, 1368462976, 1553298432, 1814750976, 1622993792, 1928386176, 1804425344, 1636429440, 1628289280, 1701465088, 1883350400, 1130258432, 1536612224, 1669825792, 1123473024, 1675764864, 1180918528, 1453123072, 1434756992, 1803291008, 2137528320, 1698045568, 1891752448, 1532549888, 1426731520, 1330050304, 1417164928, 1911334272, 1585003776, 1344734592, 1216144512, 1141186944, 1509020928, 1084829952, 2145028480, 1403487104, 1754886528, 1163823360, 1603863936, 1075852416, 1173469696, 1684145792, 1764854016, 1382416768, 1950689536, 1576667008, 1190116608, 1466106112, 1219371776, 1649990912, 1954033792, 2106669568, 2129861376, 1623590016, 1350279936, 2097726976, 1228926720, 1652567680, 1372386944, 1876541568, 1118840704, 1403150080, 1254500992, 1517945728, 1694981248, 1561582720, 1788101504, 1465816960, 1550483328, 1755335040, 1518777728, 1112964864, 1635514368, 1898492032, 1455396992, 1165523200, 1448099712, 1158077056, 1348304128, 1195739264, 2026523392, 1730589568, 1342697344, 1497303808, 1247741056, 1971489408, 2022218240, 1772528512, 1628901760, 1614476416, 1752285312, 1733603712, 1523616000, 1982327424, 1681317632], pads = [0, 0, 0, 0], quant_mode = #tpu<rq_mode QDM>, relu_limit = -1.000000e+00 : f64, rshift = [9, 8, 8, 9, 8, 8, 8, 9, 8, 9, 9, 9, 9, 9, 8, 9, 8, 8, 8, 8, 8, 8, 9, 8, 9, 9, 8, 9, 9, 8, 9, 8, 9, 9, 9, 9, 9, 9, 8, 10, 9, 9, 10, 9, 8, 8, 9, 7, 9, 9, 9, 10, 9, 10, 8, 9, 8, 9, 9, 9, 9, 9, 9, 9, 8, 9, 9, 9, 9, 9, 8, 9, 8, 7, 8, 9, 8, 9, 8, 7, 9, 8, 8, 9, 9, 9, 8, 8, 9, 9, 9, 9, 9, 8, 9, 8, 9, 8, 8, 10, 8, 9, 8, 9, 8, 9, 9, 8, 9, 8, 8, 9, 9, 9, 9, 8, 8, 8, 9, 10, 8, 9, 8, 9, 9, 9, 9, 9], strides = [1, 1], use_3ic_optimize = 0 : i64, weight_is_coeff = 1 : i64, with_bias = true} : (tensor<1x256x80x80x!quant.uniform<i8:f32, 0.065660866141732277>>, tensor<128x256x1x1xsi8>, tensor<1x128x1x1xi32>) -> tensor<1x128x80x80x!quant.uniform<i8:f32, 0.075149491338582675>> loc(#loc74)
    %75 = "top.Weight"() : () -> tensor<1x1x1x256xsi8> loc(#loc75)
    %76 = "tpu.Lut"(%74, %75) : (tensor<1x128x80x80x!quant.uniform<i8:f32, 0.075149491338582675>>, tensor<1x1x1x256xsi8>) -> tensor<1x128x80x80x!quant.uniform<i8:f32, 0.05504761181102362>> loc(#loc76)
    %77 = "top.Weight"() : () -> tensor<256x128x3x3xsi8> loc(#loc77)
    %78 = "top.Weight"() : () -> tensor<1x256x1x1xi32> loc(#loc78)
    %79 = "tpu.Conv2D"(%76, %77, %78) {coeff_merged = false, dilations = [1, 1], do_relu = false, do_winograd = false, dynweight_reorderd = false, group = 1 : i64, kernel_shape = [3, 3], kernel_zp = 0 : i64, multiplier = [1721454720, 1778333056, 1387415552, 1664514304, 2034158464, 1418207872, 1528444416, 2085824896, 1860855552, 2112162304, 1327941888, 1717711872, 1601085696, 1410650624, 2040507904, 1249453824, 1553485696, 1467722624, 1711230080, 1448061056, 1117666432, 1172492544, 1339794304, 1802640256, 1167113088, 1317273216, 1335036672, 2037561088, 1724959104, 1944467712, 1723804672, 2018630016, 1253685120, 1369758720, 1715614464, 1394974336, 1613454592, 1452974976, 1933394560, 1108815232, 1099139328, 1649097856, 1730817664, 1629872256, 1558231296, 1077758080, 1600312960, 1545136768, 1854941696, 2032400000, 1167063808, 1542307456, 1223828608, 1856777728, 1265237248, 1586398592, 1596633984, 1930828288, 1757834496, 1781378432, 1125784448, 1873864576, 1251301888, 1535186560, 1328204288, 1379481984, 1540558464, 1279318400, 1210043904, 1291627264, 1225484800, 1927408640, 1798217088, 1762962944, 1381023744, 2035822976, 1353226112, 1126096384, 1191818240, 1168214016, 2030363008, 1137633792, 1204858240, 1475228928, 2053308672, 1522326912, 1590913920, 1281938304, 1955415424, 1152628480, 2037954688, 1233368576, 1345831040, 1084556288, 1163495552, 1672865920, 1145731328, 1334851456, 1589020672, 1103410944, 1390938496, 1160098816, 1086167168, 2005290240, 1366298368, 1792197760, 1377214080, 2089929600, 1511398400, 1485418752, 1202433408, 1895330048, 1717691648, 1122634496, 1996425344, 1590408704, 1103717888, 1693194240, 1237182080, 1260199296, 1337744128, 2107811328, 1676847104, 1634962688, 1174871808, 1522745088, 1119922304, 1510735104, 1087873536, 2012266496, 1272315776, 1833096960, 1189241600, 1598931584, 1645244160, 1277510144, 1955774464, 1473578880, 1126602496, 1572546176, 1562009344, 2079139200, 1311630848, 1533192960, 1100531456, 1126012288, 1633369984, 2023595008, 1673853824, 1499183872, 2005304064, 1911233536, 2038129408, 1400553344, 1511950080, 1895595520, 1332497664, 1473339904, 1181219456, 1504735616, 1209904384, 1471859072, 1790528000, 1194948608, 2017694208, 1278952960, 2012797312, 1299915520, 1170899456, 1262050432, 1590529408, 1160253184, 2038120320, 1407661312, 1706260224, 2036970752, 2045869056, 1392705536, 1397262848, 1885496448, 1274591104, 2068316544, 1393772544, 1790158464, 1424389248, 1276158464, 1232787200, 1271569664, 2002489472, 1223192320, 1884215936, 1226621696, 1812074496, 1319088384, 1793971328, 1822004864, 1767509760, 1445720448, 1680587392, 1129051520, 1422125184, 1471037952, 1397195520, 1694232192, 1523672960, 1584505600, 1807081088, 1976341248, 2147226368, 2009830912, 2042149248, 1699211392, 1287645184, 1587572736, 1220276992, 1254005376, 1707292928, 1940352896, 1694259712, 1280957440, 1746848640, 1440615424, 1681511552, 1085124352, 1367095936, 1785507200, 2123885696, 1243809152, 1241862912, 1425723776, 1078706816, 1151946368, 1830892800, 1414849920, 1628342400, 1223107968, 1824727552, 1801683968, 1101486336, 1631065472, 1083435520, 1123201792, 1380990720, 1772228992, 1314967040, 1887699200, 1108290432, 1802782464, 1092242304, 1199216128, 2096981504, 1666357504, 1120235520, 1577741312, 1410475392, 1497493120], pads = [1, 1, 1, 1], quant_mode = #tpu<rq_mode QDM>, relu_limit = -1.000000e+00 : f64, rshift = [10, 10, 10, 10, 11, 10, 10, 10, 10, 11, 10, 10, 10, 10, 10, 10, 10, 10, 9, 10, 9, 9, 10, 10, 10, 10, 10, 11, 10, 10, 10, 10, 10, 10, 11, 10, 10, 10, 10, 10, 10, 10, 10, 11, 11, 9, 10, 10, 11, 11, 10, 10, 9, 10, 10, 10, 10, 10, 10, 10, 10, 10, 10, 10, 10, 10, 10, 10, 10, 10, 10, 10, 10, 10, 10, 11, 10, 9, 10, 10, 10, 10, 10, 9, 11, 10, 10, 10, 11, 10, 11, 10, 10, 10, 10, 10, 9, 10, 10, 10, 10, 10, 9, 10, 10, 10, 10, 11, 10, 10, 10, 10, 10, 10, 11, 10, 10, 10, 10, 10, 10, 10, 10, 10, 10, 10, 10, 10, 9, 11, 10, 11, 10, 10, 10, 10, 10, 10, 10, 10, 10, 10, 10, 10, 10, 10, 10, 10, 10, 10, 10, 10, 11, 9, 11, 10, 10, 10, 10, 10, 10, 10, 10, 10, 11, 10, 10, 10, 10, 10, 10, 9, 10, 10, 10, 10, 11, 10, 10, 9, 9, 11, 10, 11, 10, 10, 9, 10, 10, 10, 10, 10, 11, 10, 11, 11, 11, 10, 10, 8, 10, 10, 10, 10, 10, 11, 10, 10, 10, 11, 11, 10, 10, 10, 9, 10, 9, 11, 10, 10, 10, 11, 11, 10, 10, 10, 10, 10, 9, 10, 9, 10, 10, 10, 10, 10, 10, 10, 9, 10, 10, 9, 10, 10, 10, 11, 10, 11, 9, 10, 11, 10, 10, 10, 10, 10], strides = [2, 2], use_3ic_optimize = 0 : i64, weight_is_coeff = 1 : i64, with_bias = true} : (tensor<1x128x80x80x!quant.uniform<i8:f32, 0.05504761181102362>>, tensor<256x128x3x3xsi8>, tensor<1x256x1x1xi32>) -> tensor<1x256x40x40x!quant.uniform<i8:f32, 0.065766281889763772>> loc(#loc79)
    %80 = "top.Weight"() : () -> tensor<1x1x1x256xsi8> loc(#loc80)
    %81 = "tpu.Lut"(%79, %80) : (tensor<1x256x40x40x!quant.uniform<i8:f32, 0.065766281889763772>>, tensor<1x1x1x256xsi8>) -> tensor<1x256x40x40x!quant.uniform<i8:f32, 0.045889892125984252>> loc(#loc81)
    %82 = "top.Weight"() : () -> tensor<256x256x1x1xsi8> loc(#loc82)
    %83 = "top.Weight"() : () -> tensor<1x256x1x1xi32> loc(#loc83)
    %84 = "tpu.Conv2D"(%81, %82, %83) {coeff_merged = false, dilations = [1, 1], do_relu = false, do_winograd = false, dynweight_reorderd = false, group = 1 : i64, kernel_shape = [1, 1], kernel_zp = 0 : i64, multiplier = [2118337152, 1579822080, 1627230336, 1161973632, 1960760320, 1226632320, 2049514368, 2080896000, 1488643840, 1806531456, 2055455744, 1255110784, 1306290176, 1267195776, 1220184960, 1370027776, 1076299776, 1457171712, 1151755904, 1888104576, 1198941312, 1568873856, 1917988608, 2076094848, 1143795584, 2086521984, 2070548096, 1400553344, 1893502336, 1574146304, 1966959872, 1276891776, 1349894912, 1279109632, 1278079232, 1934928384, 1423912064, 1113973760, 1548923648, 1215101568, 1957693184, 2092168704, 1106839168, 1731797120, 2133691520, 1158014592, 1419855744, 1271645312, 1187654016, 1270273408, 1153967488, 1802867840, 1314997248, 1602242432, 1234417664, 1105538304, 1768181248, 1214315648, 1538350976, 1551054208, 1313537408, 1095852544, 1197479680, 1350807808, 1379941504, 1612207232, 1363747968, 1944387584, 1272854016, 1384174848, 1383598976, 1159006464, 2114365696, 1929152000, 1220796672, 1343073664, 1108327552, 1138173184, 1325785472, 1243070976, 1801094784, 1145067136, 1087932800, 1099992448, 1725770368, 1115658624, 1137300608, 1982768768, 1896956416, 2008204288, 2035226368, 1798272384, 2037455360, 1854922368, 1653814912, 2014922752, 1219278464, 1309704320, 1283673600, 1262482432, 1229794432, 1218663040, 1112616704, 1856778240, 2130244480, 1142560640, 1109896704, 1794615168, 2094062976, 1656808064, 1278582144, 1905871872, 1095324672, 1342458368, 1268555264, 1319081216, 2115311616, 1323934848, 1663728896, 1195676928, 1151888512, 1314752896, 1969960064, 1172931456, 1578174976, 1270713728, 1142346368, 1400830336, 1373803904, 1449424128, 1322367872, 1136817792, 1295006976, 1344679424, 1682170752, 1239939968, 1213021568, 1253608576, 1124203520, 1138585344, 1675350528, 1414293248, 1779452672, 1745915136, 1572480128, 1468137344, 1332101120, 1944786304, 1716902400, 1342505344, 1823571456, 1664386176, 1198674432, 2026019328, 1563024000, 1837532800, 1076407168, 1674771200, 1339946752, 1833678336, 1083860224, 1153129088, 1472497792, 1130597504, 1107825536, 1362109696, 1185140224, 1911955968, 1536282496, 1502838528, 1302264960, 1844432640, 1726671104, 1375584384, 1219966848, 1941660160, 1355053824, 1673689984, 1287938304, 1165858432, 2064329472, 1591093376, 1606916736, 1254670848, 1216614656, 1672620672, 1856397952, 1370851328, 1137133184, 1572998912, 1930486144, 1332369408, 1135602304, 1616154368, 1515856768, 1651737344, 1349760512, 1326527488, 1541787776, 1617120256, 2048833280, 1865862784, 1228625792, 1979158272, 1106318464, 1430944640, 1590937856, 1200243840, 2023112448, 1323871360, 1518655488, 1123191808, 1290180480, 1786360960, 1383701760, 1468159232, 1209242368, 1187144064, 1819973760, 1179539456, 1855128320, 1107852416, 1646129152, 1728693504, 1399481344, 1750013440, 1181788544, 2101786752, 1489641216, 1443483520, 1097502592, 1814249728, 1443074688, 1285496960, 1733034368, 1401534080, 2010301824, 1808850304, 2089478784, 1116343296, 1214736896, 1511878528, 1095046912, 1290386816, 1243281408, 1371690752, 1348177536, 1450698368, 1911333632, 1108530176, 1158464640, 1598580864, 1342464768, 1089407232, 1955679872, 1937417088], pads = [0, 0, 0, 0], quant_mode = #tpu<rq_mode QDM>, relu_limit = -1.000000e+00 : f64, rshift = [8, 8, 8, 8, 9, 8, 8, 9, 9, 9, 9, 8, 8, 8, 8, 8, 8, 8, 8, 9, 8, 8, 9, 8, 8, 9, 8, 8, 8, 8, 9, 8, 8, 8, 9, 9, 8, 8, 7, 8, 9, 9, 8, 8, 9, 7, 8, 8, 8, 8, 7, 9, 8, 8, 8, 8, 8, 8, 9, 8, 8, 7, 8, 8, 8, 8, 8, 9, 8, 8, 8, 8, 9, 8, 8, 8, 8, 8, 8, 8, 8, 8, 7, 8, 9, 8, 8, 9, 8, 8, 9, 8, 9, 9, 8, 9, 8, 7, 8, 7, 8, 8, 8, 7, 9, 8, 8, 9, 8, 9, 8, 8, 8, 8, 8, 8, 9, 8, 8, 8, 8, 8, 9, 8, 8, 8, 7, 8, 10, 10, 8, 10, 9, 9, 10, 10, 8, 9, 8, 8, 9, 9, 9, 10, 10, 9, 9, 10, 9, 10, 10, 9, 9, 10, 9, 10, 9, 9, 9, 9, 8, 9, 9, 9, 9, 9, 9, 9, 8, 9, 10, 10, 9, 9, 9, 11, 9, 9, 9, 9, 10, 10, 9, 9, 9, 10, 8, 9, 9, 10, 10, 10, 9, 10, 10, 10, 9, 9, 9, 9, 9, 9, 10, 10, 9, 9, 9, 9, 8, 9, 9, 9, 9, 9, 10, 9, 10, 9, 10, 9, 10, 9, 10, 9, 9, 10, 9, 10, 9, 9, 9, 10, 9, 9, 9, 10, 10, 9, 10, 8, 9, 9, 9, 9, 9, 10, 10, 9, 10, 9, 8, 9, 9, 10, 10, 10], strides = [1, 1], use_3ic_optimize = 0 : i64, weight_is_coeff = 1 : i64, with_bias = true} : (tensor<1x256x40x40x!quant.uniform<i8:f32, 0.045889892125984252>>, tensor<256x256x1x1xsi8>, tensor<1x256x1x1xi32>) -> tensor<1x256x40x40x!quant.uniform<i8:f32, 0.068604169291338585>> loc(#loc84)
    %85 = "top.Weight"() : () -> tensor<1x1x1x256xsi8> loc(#loc85)
    %86 = "tpu.Lut"(%84, %85) : (tensor<1x256x40x40x!quant.uniform<i8:f32, 0.068604169291338585>>, tensor<1x1x1x256xsi8>) -> tensor<1x256x40x40x!quant.uniform<i8:f32, 0.056326437795275595>> loc(#loc86)
    %87 = "tpu.Slice"(%86, %0, %0, %0, %0) {axes = [], ends = [-1, 128, -1, -1], offset = [0, 0, 0, 0], steps = [1, 1, 1, 1]} : (tensor<1x256x40x40x!quant.uniform<i8:f32, 0.056326437795275595>>, none, none, none, none) -> tensor<1x128x40x40x!quant.uniform<i8:f32, 0.056326437795275595>> loc(#loc87)
    %88 = "tpu.Slice"(%86, %0, %0, %0, %0) {axes = [], ends = [-1, 256, -1, -1], offset = [0, 128, 0, 0], steps = [1, 1, 1, 1]} : (tensor<1x256x40x40x!quant.uniform<i8:f32, 0.056326437795275595>>, none, none, none, none) -> tensor<1x128x40x40x!quant.uniform<i8:f32, 0.056326437795275595>> loc(#loc88)
    %89 = "top.Weight"() : () -> tensor<128x128x3x3xsi8> loc(#loc89)
    %90 = "top.Weight"() : () -> tensor<1x128x1x1xi32> loc(#loc90)
    %91 = "tpu.Conv2D"(%88, %89, %90) {coeff_merged = false, dilations = [1, 1], do_relu = false, do_winograd = false, dynweight_reorderd = false, group = 1 : i64, kernel_shape = [3, 3], kernel_zp = 0 : i64, multiplier = [2071720064, 1356954240, 1360446592, 1870708224, 1099796096, 1404892160, 1746237568, 1580706176, 1263858560, 1556946304, 1337126144, 1294814208, 1299364480, 1671244800, 1746979840, 1229606656, 1387285888, 1228190080, 1599232640, 1593070080, 1760665984, 1368010880, 1289225856, 1103854720, 1653180032, 1711663744, 1521079552, 1100898816, 1933653120, 1820257536, 1319508352, 1661066624, 1197941376, 1127887360, 1306455040, 1938152960, 1466607360, 1805192320, 1299948544, 1483149184, 1441896960, 1746509824, 1483594624, 1109642624, 1580942464, 1540659712, 1166396032, 1566273664, 1119675776, 1734070784, 1440896128, 1568545664, 1272931072, 2028651904, 1682439040, 1693864576, 1901429888, 1730920576, 1512946176, 1205135616, 1162636928, 1125032832, 1191541888, 1247725696, 1660040192, 1107106816, 1400865152, 1569385216, 1405457152, 1238451456, 1936558848, 1197081600, 1501354752, 1636246912, 1499577856, 2009133696, 2118496512, 2027637888, 2129587840, 1122278016, 1221629696, 1719672832, 1419180032, 1839255552, 1833197312, 1179645696, 1490791424, 1337033344, 1462265088, 1281669632, 1411944192, 1300649600, 1940858752, 1288676096, 1643326720, 1339082240, 1216387968, 1646228480, 1946839936, 2001415424, 1075748480, 2125315968, 1770233088, 1753533440, 1397035136, 1649049856, 1852426240, 1091353728, 1897294848, 1995125760, 1410959744, 1108619776, 2006912768, 1384571776, 1629083904, 1704909568, 1751748864, 1357841408, 1572770048, 1802012800, 1291955200, 1386374528, 1663216256, 1202747904, 1804994944, 1677587712, 1803642112, 2045827584], pads = [1, 1, 1, 1], quant_mode = #tpu<rq_mode QDM>, relu_limit = -1.000000e+00 : f64, rshift = [10, 9, 9, 10, 10, 9, 9, 9, 9, 9, 7, 9, 9, 9, 10, 9, 9, 9, 9, 9, 9, 9, 8, 8, 9, 9, 9, 9, 9, 9, 9, 9, 9, 9, 9, 10, 8, 10, 9, 10, 10, 10, 9, 8, 10, 9, 9, 9, 8, 9, 9, 9, 9, 9, 9, 9, 9, 9, 9, 9, 9, 9, 9, 9, 10, 8, 9, 9, 7, 9, 9, 8, 8, 9, 10, 9, 10, 10, 10, 9, 9, 10, 9, 9, 9, 8, 9, 9, 9, 9, 9, 8, 9, 8, 9, 10, 9, 9, 10, 9, 8, 10, 9, 9, 10, 8, 9, 7, 10, 10, 9, 8, 9, 9, 9, 9, 8, 9, 9, 9, 10, 9, 9, 10, 9, 8, 9, 10], strides = [1, 1], use_3ic_optimize = 0 : i64, weight_is_coeff = 1 : i64, with_bias = true} : (tensor<1x128x40x40x!quant.uniform<i8:f32, 0.056326437795275595>>, tensor<128x128x3x3xsi8>, tensor<1x128x1x1xi32>) -> tensor<1x128x40x40x!quant.uniform<i8:f32, 0.060954687401574802>> loc(#loc91)
    %92 = "top.Weight"() : () -> tensor<1x1x1x256xsi8> loc(#loc92)
    %93 = "tpu.Lut"(%91, %92) : (tensor<1x128x40x40x!quant.uniform<i8:f32, 0.060954687401574802>>, tensor<1x1x1x256xsi8>) -> tensor<1x128x40x40x!quant.uniform<i8:f32, 0.053819701574803154>> loc(#loc93)
    %94 = "top.Weight"() : () -> tensor<128x128x3x3xsi8> loc(#loc94)
    %95 = "top.Weight"() : () -> tensor<1x128x1x1xi32> loc(#loc95)
    %96 = "tpu.Conv2D"(%93, %94, %95) {coeff_merged = false, dilations = [1, 1], do_relu = false, do_winograd = false, dynweight_reorderd = false, group = 1 : i64, kernel_shape = [3, 3], kernel_zp = 0 : i64, multiplier = [1636354944, 1585559296, 1986910464, 1254932736, 1492672768, 1594755584, 1810266752, 1412481536, 1385971456, 1228290176, 1699866880, 1867649792, 1234153984, 1713028864, 2084817280, 2090990848, 1076115072, 1794394368, 1234510080, 1292319360, 1478686336, 1314366208, 1837835776, 1193382272, 1230575104, 1392763904, 1442868992, 1994061568, 1702317184, 1995669760, 1336392704, 1079275648, 1291911168, 1409837184, 1647424384, 2125741184, 1781088640, 1860044032, 1458923136, 1202154112, 1179092224, 1566452480, 1273875072, 1642187264, 1314188032, 1708878592, 1220484992, 1100722688, 1111667584, 1233576320, 1191119360, 1395169152, 1226923776, 1693446784, 1375508736, 1396252544, 2133796608, 1959134080, 1959696512, 1796428160, 2127759872, 1263998848, 1186029184, 1703088896, 1964103552, 1117009536, 1082911616, 1673944576, 1101653504, 1404019328, 1631882752, 1685901056, 1148701568, 1295150208, 1573530752, 2102682240, 1970084864, 1098357504, 1243156352, 1236598272, 1311428480, 1139936896, 1805094784, 2067680768, 1309740288, 1106217088, 1695822208, 1841550976, 1631907328, 1678173184, 1887601792, 2090996992, 1236366336, 1671078272, 1323383680, 1280846848, 2145595392, 1477440640, 1805330304, 1414024832, 1565802624, 1154991872, 1399781376, 1588009984, 1856815104, 2021875840, 1139581184, 1154997504, 1571632512, 1275666304, 1772283136, 1884379904, 1532022912, 1498405632, 1105257216, 1171259008, 2104496640, 1314515456, 2045937408, 1436267520, 1843257600, 1082643840, 1366768896, 1592807296, 1340685824, 1284563840, 1723941248, 1504103424], pads = [1, 1, 1, 1], quant_mode = #tpu<rq_mode QDM>, relu_limit = -1.000000e+00 : f64, rshift = [10, 9, 10, 10, 10, 10, 11, 10, 10, 9, 11, 11, 9, 10, 10, 11, 9, 10, 10, 10, 9, 10, 10, 10, 10, 10, 10, 10, 10, 11, 9, 9, 10, 10, 10, 10, 10, 10, 10, 10, 10, 10, 10, 9, 10, 10, 10, 10, 10, 10, 9, 8, 10, 10, 10, 10, 10, 10, 10, 10, 10, 10, 10, 10, 10, 10, 9, 10, 10, 10, 10, 9, 9, 10, 10, 10, 11, 9, 10, 9, 9, 8, 10, 11, 10, 9, 10, 11, 10, 10, 11, 11, 10, 10, 10, 9, 11, 8, 10, 10, 10, 10, 9, 10, 10, 10, 9, 10, 10, 10, 10, 11, 10, 10, 9, 10, 10, 10, 11, 10, 10, 10, 10, 10, 10, 10, 10, 10], strides = [1, 1], use_3ic_optimize = 0 : i64, weight_is_coeff = 1 : i64, with_bias = true} : (tensor<1x128x40x40x!quant.uniform<i8:f32, 0.053819701574803154>>, tensor<128x128x3x3xsi8>, tensor<1x128x1x1xi32>) -> tensor<1x128x40x40x!quant.uniform<i8:f32, 0.07626308661417322>> loc(#loc96)
    %97 = "top.Weight"() : () -> tensor<1x1x1x256xsi8> loc(#loc97)
    %98 = "tpu.Lut"(%96, %97) : (tensor<1x128x40x40x!quant.uniform<i8:f32, 0.07626308661417322>>, tensor<1x1x1x256xsi8>) -> tensor<1x128x40x40x!quant.uniform<i8:f32, 0.055568004724409446>> loc(#loc98)
    %99 = "tpu.Add"(%88, %98) {do_relu = false, multipliers = [116, 115], relu_limit = -1.000000e+00 : f64, rshifts = [7]} : (tensor<1x128x40x40x!quant.uniform<i8:f32, 0.056326437795275595>>, tensor<1x128x40x40x!quant.uniform<i8:f32, 0.055568004724409446>>) -> tensor<1x128x40x40x!quant.uniform<i8:f32, 0.061820126771653543>> loc(#loc99)
    %100 = "top.Weight"() : () -> tensor<128x128x3x3xsi8> loc(#loc100)
    %101 = "top.Weight"() : () -> tensor<1x128x1x1xi32> loc(#loc101)
    %102 = "tpu.Conv2D"(%99, %100, %101) {coeff_merged = false, dilations = [1, 1], do_relu = false, do_winograd = false, dynweight_reorderd = false, group = 1 : i64, kernel_shape = [3, 3], kernel_zp = 0 : i64, multiplier = [1141010048, 1907836544, 1359631616, 1176809728, 1120834688, 1317757184, 1416044160, 1326095872, 1395279488, 1807350400, 1853914752, 1574316544, 1139274624, 1767847296, 1420687616, 1093842304, 1485007744, 1418123392, 1958684160, 1135065344, 1334882304, 1507377280, 1294117888, 1474073088, 1552149632, 1489821952, 1694657024, 1363252992, 1694795776, 1403544448, 1714440576, 1408207488, 1494544128, 1276961024, 1379653632, 1904292352, 1474795776, 1256237952, 2021861632, 1350602880, 1750886656, 1970426624, 1353326464, 1440877184, 1461290368, 1348528256, 1889310080, 1938952832, 1442773888, 1686851072, 2010700032, 1571693312, 1371897856, 1133038720, 1076235520, 1211481216, 2011659008, 1540242432, 1425013632, 1501441024, 2038773888, 1766168064, 2086599936, 1865061888, 1981111168, 1774475520, 2133057536, 1593697920, 1637373824, 1523214592, 1078016640, 1972723968, 1489590784, 1107313024, 1434615424, 1721523200, 1271909504, 1199938432, 2092563328, 1882109056, 1744932480, 1948643968, 1083183488, 1604033152, 1396528640, 1275451136, 1144802560, 1880170752, 1915859200, 1543970560, 2030537472, 1606994048, 1392109824, 1820508416, 1507451392, 2033552768, 1802460672, 1840229504, 1458309120, 1658280320, 1172735616, 1540135552, 1209389184, 1780178432, 1222832128, 1458891648, 1428466176, 1485612544, 1669971840, 2101111168, 1331207808, 1507561344, 2115790080, 1548245504, 2023549568, 1592909696, 1716467200, 2137608832, 1875491072, 1728584832, 1433657344, 1211392640, 1166040704, 1098152960, 1929194496, 1401262080, 1254748928, 1970265088], pads = [1, 1, 1, 1], quant_mode = #tpu<rq_mode QDM>, relu_limit = -1.000000e+00 : f64, rshift = [9, 10, 10, 10, 9, 10, 10, 10, 10, 11, 10, 10, 9, 10, 9, 9, 10, 10, 11, 10, 10, 10, 9, 10, 10, 10, 10, 10, 9, 10, 10, 9, 9, 9, 10, 10, 10, 10, 10, 9, 10, 11, 10, 10, 10, 10, 10, 10, 10, 10, 10, 11, 10, 10, 10, 10, 10, 10, 10, 10, 10, 10, 10, 11, 10, 10, 11, 10, 10, 10, 9, 10, 10, 10, 9, 10, 9, 9, 10, 10, 9, 10, 10, 10, 10, 10, 9, 10, 11, 9, 10, 10, 10, 11, 10, 10, 10, 10, 10, 10, 9, 10, 10, 10, 9, 9, 10, 10, 9, 10, 10, 10, 10, 10, 10, 10, 10, 10, 11, 10, 10, 9, 10, 10, 11, 10, 10, 10], strides = [1, 1], use_3ic_optimize = 0 : i64, weight_is_coeff = 1 : i64, with_bias = true} : (tensor<1x128x40x40x!quant.uniform<i8:f32, 0.061820126771653543>>, tensor<128x128x3x3xsi8>, tensor<1x128x1x1xi32>) -> tensor<1x128x40x40x!quant.uniform<i8:f32, 0.071009462992125988>> loc(#loc102)
    %103 = "top.Weight"() : () -> tensor<1x1x1x256xsi8> loc(#loc103)
    %104 = "tpu.Lut"(%102, %103) : (tensor<1x128x40x40x!quant.uniform<i8:f32, 0.071009462992125988>>, tensor<1x1x1x256xsi8>) -> tensor<1x128x40x40x!quant.uniform<i8:f32, 0.044721665354330711>> loc(#loc104)
    %105 = "top.Weight"() : () -> tensor<128x128x3x3xsi8> loc(#loc105)
    %106 = "top.Weight"() : () -> tensor<1x128x1x1xi32> loc(#loc106)
    %107 = "tpu.Conv2D"(%104, %105, %106) {coeff_merged = false, dilations = [1, 1], do_relu = false, do_winograd = false, dynweight_reorderd = false, group = 1 : i64, kernel_shape = [3, 3], kernel_zp = 0 : i64, multiplier = [1916927488, 1813212672, 1189280256, 1601166464, 1758932224, 1260823552, 1226297216, 1690021504, 1121105792, 1311456000, 1077677696, 2041762560, 1737371392, 1146530048, 1590105216, 1596231680, 1450224256, 1931836800, 1329027968, 1950539392, 1151637504, 1406722944, 2127287936, 1483721856, 1636553728, 1077371008, 1517485184, 1441623552, 1175609600, 1155554304, 1536092288, 1761457280, 1373606016, 1793673088, 1605094400, 1074703104, 1092885376, 1772248448, 1354042624, 1424478336, 1513778816, 1200799104, 1329690624, 1534854912, 1335443840, 1213721856, 1226411136, 1399041664, 1635143040, 1983085824, 1586009728, 1688486656, 1261050880, 1080238464, 1263032064, 1332121984, 2016240256, 2058315136, 1115526912, 1258799232, 1612984448, 2081320960, 1648205952, 1203736448, 1671353728, 1861259648, 1806551552, 1270696960, 1331465728, 1817261824, 1939541888, 1594553728, 1886750720, 1622938624, 1925600384, 1109559936, 1874560000, 1544780160, 1212977920, 2139189504, 1308613248, 1136954240, 2103469952, 1972140288, 1939673088, 2113489408, 1336333312, 1769192064, 1193654528, 1863862528, 1150805120, 1086034432, 1375204480, 1784960512, 1424693248, 1605383808, 1462252288, 1225196544, 1993664768, 1814628736, 1541044608, 1455087616, 1379557504, 1202402688, 1118309888, 1120346368, 1308063360, 1337780864, 1144026368, 1794655360, 1925271552, 1975476608, 1631444480, 1161240192, 2004039296, 1254672384, 2102000896, 1349286144, 1434090496, 1570647680, 1991466240, 1449359104, 1074541824, 2059550720, 1148076544, 1156887424, 1833618048, 2141973376], pads = [1, 1, 1, 1], quant_mode = #tpu<rq_mode QDM>, relu_limit = -1.000000e+00 : f64, rshift = [10, 10, 9, 10, 10, 10, 9, 10, 9, 10, 9, 10, 10, 9, 10, 10, 10, 10, 9, 10, 9, 9, 10, 10, 10, 9, 10, 10, 9, 10, 10, 9, 10, 10, 10, 9, 9, 10, 9, 9, 9, 10, 9, 10, 10, 8, 10, 10, 10, 10, 10, 8, 9, 9, 9, 10, 10, 10, 9, 9, 10, 10, 10, 9, 9, 10, 10, 9, 10, 10, 10, 10, 10, 10, 10, 9, 10, 10, 9, 10, 10, 9, 10, 10, 10, 10, 10, 10, 9, 10, 10, 9, 9, 10, 10, 10, 10, 9, 10, 10, 9, 10, 10, 9, 9, 9, 9, 9, 9, 10, 10, 10, 9, 9, 10, 9, 10, 9, 9, 10, 10, 10, 9, 10, 9, 9, 10, 10], strides = [1, 1], use_3ic_optimize = 0 : i64, weight_is_coeff = 1 : i64, with_bias = true} : (tensor<1x128x40x40x!quant.uniform<i8:f32, 0.044721665354330711>>, tensor<128x128x3x3xsi8>, tensor<1x128x1x1xi32>) -> tensor<1x128x40x40x!quant.uniform<i8:f32, 0.10128279133858269>> loc(#loc107)
    %108 = "top.Weight"() : () -> tensor<1x1x1x256xsi8> loc(#loc108)
    %109 = "tpu.Lut"(%107, %108) : (tensor<1x128x40x40x!quant.uniform<i8:f32, 0.10128279133858269>>, tensor<1x1x1x256xsi8>) -> tensor<1x128x40x40x!quant.uniform<i8:f32, 0.08879540708661418>> loc(#loc109)
    %110 = "tpu.Add"(%99, %109) {do_relu = false, multipliers = [45, 65], relu_limit = -1.000000e+00 : f64, rshifts = [6]} : (tensor<1x128x40x40x!quant.uniform<i8:f32, 0.061820126771653543>>, tensor<1x128x40x40x!quant.uniform<i8:f32, 0.08879540708661418>>) -> tensor<1x128x40x40x!quant.uniform<i8:f32, 0.087104112598425196>> loc(#loc110)
    %111 = "tpu.Concat"(%87, %88, %99, %110) {axis = 1 : si32, do_relu = false, multipliers = [79, 79, 87, 123], only_merge = false, relu_limit = -1.000000e+00 : f64, rshifts = [7, 7, 7, 7]} : (tensor<1x128x40x40x!quant.uniform<i8:f32, 0.056326437795275595>>, tensor<1x128x40x40x!quant.uniform<i8:f32, 0.056326437795275595>>, tensor<1x128x40x40x!quant.uniform<i8:f32, 0.061820126771653543>>, tensor<1x128x40x40x!quant.uniform<i8:f32, 0.087104112598425196>>) -> tensor<1x512x40x40x!quant.uniform<i8:f32, 0.090386350393700785>> loc(#loc111)
    %112 = "top.Weight"() : () -> tensor<256x512x1x1xsi8> loc(#loc112)
    %113 = "top.Weight"() : () -> tensor<1x256x1x1xi32> loc(#loc113)
    %114 = "tpu.Conv2D"(%111, %112, %113) {coeff_merged = false, dilations = [1, 1], do_relu = false, do_winograd = false, dynweight_reorderd = false, group = 1 : i64, kernel_shape = [1, 1], kernel_zp = 0 : i64, multiplier = [1454690944, 1144139648, 1965883264, 2124062464, 1105585280, 1392159104, 1223065984, 1525543168, 1128801664, 1298377600, 1683232256, 1232733696, 1551930112, 1189978112, 1659345024, 1847474304, 1257080704, 1699475840, 1080833920, 1198357376, 1520887168, 1964696960, 1087707520, 1414633728, 1190529920, 1521341184, 1075277568, 1650084736, 1999894144, 1524132352, 1902179072, 1557066368, 1184865024, 1333556608, 1325451392, 1423852288, 1803172352, 1921105536, 1512527872, 1303248128, 1420581888, 1417728768, 1709849216, 1751282304, 1579138176, 1364242688, 2035245312, 1205890432, 1174696064, 1771153152, 1286148608, 1352746368, 1915605888, 1558650368, 1182743040, 1189410816, 1113304448, 1077939840, 1998040704, 2126211712, 1565464960, 1946730240, 1937640064, 1482016640, 1974573824, 1667357568, 1347264384, 1107591296, 2131373568, 1741708800, 1434891520, 1526316800, 1334422656, 1567963776, 2075468032, 1968875776, 1573582464, 1338463744, 1371020544, 1640492928, 1505112320, 1120773120, 2115703680, 1725244160, 2075585792, 2091341056, 1363951360, 1140552448, 1513910784, 1784936704, 1493223552, 1286076032, 1139302400, 1181472384, 1504347008, 1380722944, 1702689152, 1163748480, 1441480192, 2109754240, 1483925504, 1511707392, 1197514624, 2069415296, 1413501824, 1259743360, 1469247104, 1223200384, 1923368320, 1305315200, 1277250304, 1382264576, 2042742272, 1592888832, 1904583936, 1935267200, 1695689472, 1326674944, 1907471488, 1262032896, 1239978624, 1208410880, 1733968128, 1746699264, 1920112000, 1674514688, 1532474240, 1185676160, 1946650240, 1731227264, 1573174144, 1331365248, 1396521344, 1508346112, 1716599168, 1553637760, 1860861952, 1376598656, 1100765184, 1541309312, 1693940096, 1476058240, 1162587776, 1503342336, 1720497664, 1331025792, 1112360064, 1694591872, 1664938496, 1456286464, 1135068032, 2018176000, 1282996736, 1352660864, 1645348736, 1575367552, 1453817472, 1208319232, 1691956352, 1082150528, 1573455104, 1420881280, 1555382144, 2009389184, 1674513152, 1848882688, 1739705600, 1336155392, 2111547264, 1645280512, 2018165248, 1457748992, 1137860864, 2100218240, 1521041024, 2001812864, 1569508608, 1345715712, 1929163264, 1862828032, 1265037440, 1735045632, 1444094464, 1104330880, 1400602368, 1180796288, 1852035584, 1869103616, 1638871424, 1625092608, 1313152640, 1515959424, 1276260224, 1522454400, 1482430720, 1293550848, 1849591296, 1869628416, 1486437888, 1480336768, 1339267584, 1127229312, 1302316800, 2099917056, 1603970176, 1663152256, 1505065344, 1560041984, 1167162624, 1384647808, 1370659968, 1941838208, 2101859456, 1210167552, 1514934272, 2111139456, 1794451456, 1556534656, 1469270656, 1347815424, 1223774592, 1650929792, 1193930752, 1878502400, 1829070592, 1841272960, 2092041344, 1504680320, 1387847552, 1097796736, 1136643968, 1190820224, 1193066496, 1500044672, 1175766400, 1617135744, 1242890496, 1178062336, 1577534464, 1946696832, 1751145472, 1479944576, 1160051456, 1215081344, 1434402816, 1300887040, 1496219904, 1173987072, 1605712896, 1173319168, 1746084992, 1517752704, 1512605056, 1163296128, 1270033152, 1153739008], pads = [0, 0, 0, 0], quant_mode = #tpu<rq_mode QDM>, relu_limit = -1.000000e+00 : f64, rshift = [9, 9, 9, 10, 9, 9, 9, 9, 9, 9, 10, 9, 9, 9, 9, 9, 10, 10, 9, 9, 9, 10, 8, 9, 9, 9, 9, 10, 9, 9, 9, 9, 9, 9, 9, 9, 9, 10, 9, 9, 9, 9, 10, 9, 10, 10, 10, 10, 9, 9, 9, 9, 10, 9, 9, 9, 9, 8, 9, 10, 10, 10, 10, 9, 10, 10, 10, 9, 10, 9, 9, 10, 9, 8, 9, 10, 9, 9, 9, 9, 9, 8, 10, 9, 10, 10, 9, 9, 9, 10, 9, 9, 9, 9, 9, 9, 10, 9, 9, 10, 9, 9, 9, 10, 9, 9, 9, 9, 9, 9, 9, 9, 10, 9, 9, 10, 9, 10, 9, 9, 9, 9, 9, 10, 10, 10, 10, 9, 10, 9, 9, 9, 9, 10, 10, 9, 9, 9, 10, 9, 9, 10, 9, 9, 10, 10, 10, 8, 9, 9, 9, 10, 9, 9, 10, 9, 9, 9, 9, 8, 9, 9, 9, 9, 8, 10, 9, 8, 10, 9, 10, 9, 9, 9, 9, 10, 10, 9, 9, 9, 9, 9, 9, 9, 10, 9, 9, 9, 9, 9, 9, 9, 8, 9, 10, 9, 9, 9, 10, 9, 9, 9, 9, 10, 10, 9, 10, 9, 9, 10, 9, 9, 10, 9, 8, 9, 9, 9, 10, 9, 9, 10, 8, 10, 9, 10, 10, 10, 9, 9, 9, 9, 9, 9, 9, 10, 9, 8, 9, 10, 10, 10, 9, 9, 9, 9, 9, 9, 9, 9, 8, 9, 8, 9, 9, 9], strides = [1, 1], use_3ic_optimize = 0 : i64, weight_is_coeff = 1 : i64, with_bias = true} : (tensor<1x512x40x40x!quant.uniform<i8:f32, 0.090386350393700785>>, tensor<256x512x1x1xsi8>, tensor<1x256x1x1xi32>) -> tensor<1x256x40x40x!quant.uniform<i8:f32, 0.071502497637795273>> loc(#loc114)
    %115 = "top.Weight"() : () -> tensor<1x1x1x256xsi8> loc(#loc115)
    %116 = "tpu.Lut"(%114, %115) : (tensor<1x256x40x40x!quant.uniform<i8:f32, 0.071502497637795273>>, tensor<1x1x1x256xsi8>) -> tensor<1x256x40x40x!quant.uniform<i8:f32, 0.068194662992125982>> loc(#loc116)
    %117 = "top.Weight"() : () -> tensor<512x256x3x3xsi8> loc(#loc117)
    %118 = "top.Weight"() : () -> tensor<1x512x1x1xi32> loc(#loc118)
    %119 = "tpu.Conv2D"(%116, %117, %118) {coeff_merged = false, dilations = [1, 1], do_relu = false, do_winograd = false, dynweight_reorderd = false, group = 1 : i64, kernel_shape = [3, 3], kernel_zp = 0 : i64, multiplier = [1825399552, 1450278912, 1674912640, 1387087104, 1386727552, 1838670592, 1566969088, 1298114432, 1331639168, 1372285568, 1726181632, 1517116928, 1412028928, 1716468224, 1102602240, 1820069632, 1214858240, 1732724608, 1468203136, 1681155968, 1852320128, 2038530048, 1487483136, 1139246336, 1279936896, 1730210688, 1323528576, 1559641600, 1162912000, 2057939200, 1930460800, 2146220928, 1488246272, 1198021248, 1135089024, 1757095936, 1432381312, 2113993984, 1357125504, 1744927744, 1459394432, 2087233920, 1528700544, 1145215104, 1658154368, 1403496576, 1335057152, 1341531776, 1628649344, 1965365504, 1908997376, 1653268864, 1652251648, 1327491200, 1090890240, 1110838656, 1229290624, 1602936448, 2120260992, 1214398208, 1968321280, 1381031296, 1667487232, 1210508800, 1689802368, 1098457856, 1181035776, 1749575936, 2139537280, 2071329024, 1806999296, 1922889344, 1166930688, 1397879168, 1869741824, 1428730880, 2047845504, 1858425728, 1808695296, 1187826176, 1176663296, 1770700032, 1689672960, 1210538112, 1346473600, 1182976000, 1219184128, 1558398208, 1675676160, 1437812608, 1276164992, 1953613440, 1469672320, 1864895360, 1148881536, 1488409472, 1186473088, 1867618688, 1607793792, 1606963968, 1117408384, 1648498048, 1559387008, 1672902528, 1159017984, 1910502528, 1910537472, 1580435200, 1096849152, 1565731456, 1157314688, 1196209280, 1325633024, 1413436160, 1544737280, 1583021824, 1840521088, 1340243712, 1935121920, 1196832896, 1599631232, 1845331456, 1199705088, 1602925440, 1471486976, 1360456192, 1915036032, 1538718464, 1614061056, 1346539136, 1387642368, 1162466176, 1887608576, 1321820416, 2009250304, 1436448000, 2120659200, 1421556096, 2046619776, 1811035136, 1193845120, 2106647040, 1157180544, 1785380224, 1770372352, 1234167552, 1507400448, 1930165632, 1209513344, 1568378240, 1530560512, 1172314112, 1981443200, 1436457984, 1728266624, 1388974464, 1338070272, 1202796160, 1512094080, 1384004992, 2036261632, 1519519232, 1359058048, 1369735680, 1615511424, 1505619456, 1494925440, 1666783360, 1950495104, 1695014144, 1087298816, 1553977984, 1140640256, 1639854720, 1342049920, 1743811072, 1792255744, 1591560960, 2137711104, 1403986816, 1213258496, 1335839232, 1687324544, 1404891776, 1387055744, 1289961984, 2029265664, 1398814336, 1274163712, 1669737088, 2071415040, 1136267392, 1516089984, 1132741376, 1346854912, 1882230400, 1693326336, 1678360704, 1597730560, 1459590400, 1435471872, 1829468416, 1517622144, 1663469952, 1231647488, 1117653376, 1684155392, 1648493440, 1195904384, 1195623936, 1555702272, 2079753856, 1650221184, 1367790208, 1219717248, 1599457152, 1348715392, 1686411904, 1345455488, 1930704384, 1178002944, 1096098048, 1402083712, 1744605440, 1730999680, 1286914176, 2126235264, 1426279936, 1877164416, 1099728896, 1596681728, 1337915520, 1841104768, 1442784896, 1224287488, 1228565376, 1163776000, 2091124224, 1434474368, 1293209216, 2083370880, 1212269568, 1765201920, 1575736832, 1878575232, 1206901632, 1539072768, 1085193856, 1349467136, 1934544128, 1614218624, 1283847296, 1128332288, 1105367680, 2031986688, 1376284416, 1891711488, 1213042560, 1467645568, 1544836480, 1800479232, 1536681088, 1528346112, 1299960960, 1191362816, 1186693632, 1347120512, 1616528128, 1462815104, 1792347264, 1193027584, 1648403840, 1802977024, 1598473984, 1550016384, 1890636416, 1542907904, 1311035008, 1405104896, 1431914880, 1618292992, 1116486912, 2084660352, 1278024960, 1625531008, 2029943680, 1379485824, 1703983872, 2027779072, 1529716480, 1708009472, 1476521472, 1959711232, 1623794688, 1608417920, 1427010688, 1839571840, 1573394560, 1694820224, 1247525504, 2096537216, 1378420608, 1281433728, 1136620032, 1723438976, 1230017536, 1973725952, 1667762176, 1340658816, 1366108928, 1366454016, 1762852736, 1976992000, 1762847488, 1105320320, 1514064384, 1199268480, 1207067776, 1079997312, 1403889408, 1252172800, 1342647168, 1641919360, 1408000896, 1819116800, 1372959872, 1256918784, 1580979712, 1611925888, 1246991872, 1604737024, 1345400064, 1294810112, 1175103744, 1881633408, 1746624000, 1420035456, 1938535424, 1259557760, 2032666240, 1304507136, 1614345216, 1270823680, 1863564416, 2022497408, 1676520448, 1282191232, 1262156288, 1342408320, 1595898112, 1255499008, 1320218624, 1295034368, 1560672000, 1545393280, 1698682112, 1639854336, 1748430976, 2065787776, 1642216576, 1625544576, 1433368064, 1211664512, 1116375808, 1197728512, 1637215872, 1294654720, 1446798336, 1378379008, 2138509312, 1804901760, 1373200768, 1187762048, 1378978176, 1148078208, 2145780224, 1791371008, 1494126976, 2090951680, 1305078272, 1187958528, 2128860672, 1091337984, 1410865920, 2133615104, 1629463936, 1303982976, 1828030208, 1212569088, 1475369728, 1209941760, 1425468544, 1472376832, 1595107328, 2049922944, 1249260416, 1578952320, 1708100480, 2118869120, 1644908544, 1549052032, 1166704640, 1584152832, 1301388416, 1879398912, 1702040832, 1306523904, 1395160832, 1469209984, 1737809792, 1540032256, 1427681920, 1227384704, 1459064192, 2141888512, 1651448320, 1329908992, 1790061184, 1233022720, 1241726720, 1661273856, 1494307712, 1497132160, 1153579520, 1356123136, 1932595072, 1693424128, 1585259904, 1968118656, 1161871232, 1407164416, 1444349056, 1606180992, 1458502272, 1958707200, 2071129984, 1179514240, 1905112320, 1412604416, 1468634368, 1621101824, 1259909632, 1502307840, 2108248704, 1392686080, 1504227968, 2004768384, 1348641536, 1227596416, 1450874880, 1333142784, 1107592320, 1297184512, 1289723136, 1564001920, 2130494464, 1333931520, 1437236864, 1910836736, 1190534528, 1497979008, 1143840128, 1772190080, 1309192448, 1517224192, 1348166912, 1151146368, 1394428288, 1771022464, 1093483136, 1660868480, 1170585216, 1560735232, 1211250304, 1744077568, 1744128768, 2118341376, 1328379648, 1377486336, 1664025344, 1359958144, 1207663232, 1682362112, 1773218304, 1728453760, 1673821696, 1548019072, 1165936768, 1133904000, 1179667584, 1428293888, 1886017024, 1975505664, 1426207360, 1160507264, 1359769984, 2020631296, 1200505600, 1182345856, 1177641344, 1414354688, 1422060160, 1552833664, 1697581312, 1081820544, 1178808832, 1278637312, 1344641792, 1921410560, 1947912320, 1084940160, 1302887808], pads = [1, 1, 1, 1], quant_mode = #tpu<rq_mode QDM>, relu_limit = -1.000000e+00 : f64, rshift = [10, 10, 10, 10, 10, 10, 10, 10, 10, 10, 10, 10, 10, 10, 9, 10, 9, 10, 10, 10, 11, 10, 10, 10, 10, 10, 10, 10, 10, 11, 10, 11, 10, 10, 10, 10, 10, 11, 10, 9, 10, 11, 10, 10, 10, 10, 10, 10, 10, 11, 10, 10, 10, 10, 10, 10, 9, 10, 11, 10, 10, 10, 10, 10, 10, 10, 10, 10, 10, 11, 11, 10, 10, 10, 11, 10, 11, 10, 11, 10, 10, 10, 10, 10, 10, 10, 10, 11, 10, 10, 9, 10, 10, 11, 10, 10, 10, 10, 10, 10, 9, 10, 10, 10, 10, 11, 10, 10, 9, 10, 10, 10, 10, 10, 10, 10, 9, 10, 10, 10, 10, 10, 10, 10, 10, 10, 10, 10, 10, 10, 10, 9, 10, 10, 10, 10, 11, 10, 10, 10, 10, 10, 10, 10, 10, 9, 10, 11, 10, 10, 10, 9, 10, 10, 10, 10, 10, 10, 10, 10, 10, 10, 10, 10, 10, 10, 10, 10, 10, 10, 10, 10, 10, 10, 10, 10, 10, 10, 11, 10, 10, 10, 10, 10, 10, 10, 11, 10, 10, 10, 10, 10, 10, 10, 10, 10, 10, 10, 10, 10, 10, 10, 10, 10, 10, 9, 10, 10, 10, 10, 10, 10, 10, 10, 9, 10, 10, 10, 10, 10, 10, 9, 10, 10, 11, 10, 11, 10, 9, 10, 10, 10, 10, 9, 10, 10, 10, 9, 10, 9, 11, 10, 10, 10, 10, 10, 10, 10, 10, 10, 10, 10, 10, 10, 11, 10, 11, 10, 10, 10, 10, 10, 10, 10, 10, 10, 10, 10, 10, 10, 10, 9, 10, 10, 10, 10, 10, 10, 10, 10, 10, 9, 11, 10, 10, 10, 10, 10, 11, 10, 10, 10, 10, 10, 11, 10, 11, 10, 10, 10, 10, 10, 10, 10, 10, 10, 10, 10, 10, 10, 10, 10, 10, 10, 9, 10, 10, 10, 10, 10, 10, 10, 10, 10, 11, 10, 10, 10, 10, 10, 10, 10, 10, 10, 11, 10, 10, 11, 10, 11, 10, 10, 10, 11, 11, 10, 10, 9, 10, 10, 10, 10, 10, 10, 10, 10, 10, 10, 10, 10, 10, 10, 10, 10, 10, 10, 9, 10, 10, 10, 10, 10, 10, 10, 10, 10, 10, 10, 10, 10, 10, 10, 9, 10, 11, 10, 10, 11, 10, 10, 9, 9, 10, 10, 10, 10, 10, 10, 11, 10, 10, 10, 10, 10, 10, 10, 10, 10, 10, 10, 10, 10, 10, 10, 11, 10, 10, 10, 10, 10, 10, 10, 10, 10, 10, 11, 10, 10, 10, 10, 10, 8, 10, 10, 11, 10, 10, 11, 10, 10, 10, 10, 10, 10, 10, 10, 11, 10, 10, 10, 10, 10, 10, 9, 10, 10, 10, 10, 10, 10, 10, 10, 10, 10, 10, 10, 9, 10, 10, 10, 10, 10, 10, 10, 10, 10, 11, 10, 10, 10, 10, 10, 10, 10, 10, 10, 10, 10, 10, 9, 10, 10, 11, 10, 10, 10, 10, 10, 10, 10, 10, 10, 10, 10, 9, 10, 10, 10, 11, 11, 9, 10], strides = [2, 2], use_3ic_optimize = 0 : i64, weight_is_coeff = 1 : i64, with_bias = true} : (tensor<1x256x40x40x!quant.uniform<i8:f32, 0.068194662992125982>>, tensor<512x256x3x3xsi8>, tensor<1x512x1x1xi32>) -> tensor<1x512x20x20x!quant.uniform<i8:f32, 0.064728999999999995>> loc(#loc119)
    %120 = "top.Weight"() : () -> tensor<1x1x1x256xsi8> loc(#loc120)
    %121 = "tpu.Lut"(%119, %120) : (tensor<1x512x20x20x!quant.uniform<i8:f32, 0.064728999999999995>>, tensor<1x1x1x256xsi8>) -> tensor<1x512x20x20x!quant.uniform<i8:f32, 0.053923037795275588>> loc(#loc121)
    %122 = "top.Weight"() : () -> tensor<512x512x1x1xsi8> loc(#loc122)
    %123 = "top.Weight"() : () -> tensor<1x512x1x1xi32> loc(#loc123)
    %124 = "tpu.Conv2D"(%121, %122, %123) {coeff_merged = false, dilations = [1, 1], do_relu = false, do_winograd = false, dynweight_reorderd = false, group = 1 : i64, kernel_shape = [1, 1], kernel_zp = 0 : i64, multiplier = [1323977600, 1430048384, 1747101440, 2105624576, 1722709248, 1990612608, 1527491840, 1611471872, 1307942528, 1085396352, 1798143232, 1198795264, 1778895744, 2140333568, 1279983232, 1844469504, 1912225024, 1768742656, 1190478720, 1192748800, 1832736640, 1657802624, 1226661760, 1191613184, 2107753728, 1212798720, 1544525440, 1170097664, 1929498368, 1999001856, 1778451584, 1527709568, 1186607744, 1391420032, 1242987776, 2118763904, 1830751872, 1896860800, 1125656960, 1975710720, 1389958912, 1750295424, 1108508800, 1991681920, 1152078464, 1366031232, 1113094144, 2017931776, 1188487680, 1226292992, 1435531648, 1210833536, 1115438080, 1181817472, 1775807488, 1927586688, 1296912640, 1660057344, 1809666048, 2087494144, 1538120960, 2074944000, 1768739072, 1518512768, 1243705728, 1240090496, 1452537728, 1176035712, 1601661696, 1195161984, 1907527296, 1082567936, 1315992704, 2033418624, 1555539456, 1616292096, 1513559552, 1969198848, 1089011840, 1272901888, 1156527232, 2129691264, 1763055104, 1962746496, 2073032320, 1523458304, 1268978176, 1149810816, 1775075072, 1085423616, 1891872384, 1343384064, 1314335744, 1174459392, 1866058752, 2111342208, 2135190784, 1203615488, 1627377920, 1645195520, 1733184768, 1562010752, 1101276800, 2072424704, 1674662016, 1382926208, 1545213184, 1449628672, 2028510720, 2122713856, 1825975296, 1222770816, 1803298176, 1575606784, 1376508544, 1187227520, 1397448960, 2043884416, 1818848768, 1120595968, 1586733312, 2099394944, 1829708160, 1350187136, 2055385600, 1075983872, 1441370496, 1925570176, 1933496064, 2026907520, 1198189952, 1359054848, 1942237696, 1800600320, 1301681536, 1178009856, 1246031104, 1648933120, 1215183744, 2137970304, 1354905856, 1841048832, 2041552384, 1489881344, 1186008832, 1394749184, 1584225792, 1776830080, 1935536640, 1959301760, 1216996992, 1138109440, 1181530240, 1547612928, 1363443072, 1643944832, 1588324352, 1890974720, 2121166080, 2105027328, 1098762368, 1383433088, 1266433920, 1552984448, 1204953472, 1642683392, 1827824128, 1800443904, 1766230912, 1806383104, 1128236544, 1940442112, 1335531776, 1257446400, 1943145728, 1672711296, 1121957760, 1961218176, 1964170752, 1107233920, 1900212224, 1932706816, 1138076672, 1707782144, 1419471104, 1380495360, 1494528512, 1662525184, 1293531648, 1703724800, 1574271872, 1950741632, 1199587712, 1403435776, 1302592384, 1233996160, 1113090432, 2030184704, 1095112064, 1333813248, 1083139456, 1180469248, 1351164672, 1284916480, 2096436352, 1935085056, 1346657792, 1730507776, 1139675648, 1615901312, 1272062848, 1727309696, 1658646784, 1491553280, 2007618304, 2031359616, 1708014976, 1236734720, 1100981888, 1491632896, 1476566912, 1342633600, 2098141184, 1398070400, 1583741184, 1692439040, 1666982016, 1287067136, 1160490240, 1692221568, 1827779840, 1544364928, 1143167488, 1620581120, 1455843072, 1132398464, 1308118784, 1298356608, 1083252736, 1920575232, 1852460416, 1436024320, 1945666432, 1405350528, 1289620992, 1081301888, 1538386816, 1982094336, 1193512960, 1417425664, 1075230976, 2006632576, 1636043264, 1111696512, 1725313536, 1969036672, 1234685184, 1620043008, 1618075520, 1715057664, 1538219264, 1298665216, 1123958528, 1115626368, 1151923840, 1650616832, 1874395136, 2016838912, 1169733376, 1628242944, 1927153024, 1232435712, 2078941568, 1749516928, 1936901504, 1729280512, 2126808320, 1680725248, 2032974336, 1695954048, 1587360128, 1195127808, 1287265408, 1332047360, 2136286592, 1338458112, 1618743680, 1934925568, 1764219904, 2105051904, 1551576832, 1656640896, 1500865408, 1636649856, 1759816576, 1166402176, 1936095872, 1824634112, 1805409792, 1412040320, 1612865792, 1614142464, 1978988416, 1196942208, 1843507456, 1542556032, 1660964608, 1870328704, 1561610112, 1563082496, 1172633984, 1583107072, 1445124096, 1194227328, 1603911296, 1392078464, 1304005120, 1423037056, 1316004096, 2062350592, 1210888576, 1416452736, 1456188032, 1223720192, 1332646656, 1411496192, 2055949440, 1721926784, 1571367168, 1263103744, 1238994048, 1856319744, 1115897344, 2107721984, 1640385024, 1338665088, 2124265472, 2113430272, 1959321088, 1186872064, 1654144512, 1519582080, 1776435968, 1763541888, 1466969856, 1957047936, 1969665792, 1146815104, 2087640192, 1448159616, 1983486464, 2025674240, 1140110336, 1230651008, 1117995520, 1373287040, 1433721728, 1202031232, 2067708928, 1239519488, 1487203584, 1730791424, 1140870656, 1849510272, 1619652224, 1698199168, 1220325120, 1448436480, 1148196224, 2006943232, 1106096768, 1326531072, 1258870656, 1311371136, 1160799616, 1724470016, 1081552768, 1263689344, 1343776000, 1167099392, 1524739968, 1484944256, 1270580608, 1455986432, 1151793792, 1259538688, 1746616192, 1141198720, 2121209600, 1373672704, 1241975680, 1245237504, 1648163456, 1649660800, 1387120512, 1436890368, 1671961856, 1525741184, 1530771456, 1453688832, 1529841792, 1262158208, 1711992192, 2055558656, 1279419392, 1794300288, 2115057024, 1667218560, 2119686912, 1252905088, 1106499584, 1575698688, 1108261376, 1381895040, 1648758784, 1439219328, 1133967488, 1355695360, 1222204800, 1706520192, 1949426176, 1897587968, 1589636736, 1191516416, 1826261760, 1142776320, 1619593728, 1133997952, 1087214720, 1870468992, 1593998208, 1541911680, 1105223040, 1221971328, 1169667840, 1784980608, 1947802368, 2041492096, 1353408640, 1947688704, 1840166400, 1428445056, 1652954368, 1214904576, 1776936576, 1306370048, 1533777408, 1540461568, 1798128768, 2105723392, 1271035648, 1543341824, 1890189824, 1630169472, 2100912896, 1152454144, 1883296256, 1978989568, 2041351808, 1105175808, 1865605888, 1315663616, 1633750656, 1275810176, 2098549376, 1590455808, 1939509120, 1598981888, 1680207232, 1690725504, 1942712320, 1830026368, 2001132416, 1240256768, 1107832064, 1507613312, 1381563648, 1655261440, 1333549312, 1517192064, 1275194880, 1327213440, 1334687872, 1557348864, 1544822784, 1083309056, 1494207488, 1299395840, 1628438016, 1283885696, 1816545536, 1881905536, 1775742720, 1595464064, 1768942720, 1598759296, 1117111680, 1675705984, 1236680832, 1812227840, 1528558336, 1080545920, 1084177920, 1625702656, 1237729536, 1456235648, 1196746368, 1266109184, 2100668288, 2014976768, 2117143296, 1120581888], pads = [0, 0, 0, 0], quant_mode = #tpu<rq_mode QDM>, relu_limit = -1.000000e+00 : f64, rshift = [9, 9, 10, 10, 10, 10, 10, 10, 9, 9, 10, 9, 10, 10, 9, 10, 10, 10, 9, 9, 10, 10, 9, 9, 10, 9, 10, 9, 10, 10, 10, 9, 9, 9, 9, 10, 10, 10, 9, 10, 9, 10, 9, 10, 9, 9, 9, 10, 9, 9, 9, 9, 9, 9, 10, 10, 9, 10, 10, 10, 9, 10, 10, 9, 9, 9, 10, 9, 10, 9, 10, 9, 9, 10, 9, 10, 10, 10, 9, 9, 9, 10, 10, 10, 10, 9, 9, 9, 9, 9, 10, 9, 9, 9, 10, 10, 10, 9, 10, 10, 9, 10, 9, 10, 9, 10, 9, 9, 10, 10, 10, 9, 10, 9, 9, 9, 10, 10, 10, 9, 9, 10, 10, 9, 10, 9, 9, 10, 10, 10, 9, 9, 10, 9, 9, 9, 9, 10, 9, 10, 9, 10, 10, 10, 9, 9, 9, 9, 10, 10, 9, 9, 9, 9, 9, 10, 10, 10, 10, 10, 9, 9, 9, 10, 9, 10, 10, 10, 10, 10, 9, 10, 9, 9, 10, 10, 9, 10, 10, 9, 10, 10, 9, 10, 9, 9, 9, 10, 9, 10, 10, 10, 9, 9, 9, 9, 8, 10, 9, 9, 9, 9, 9, 9, 10, 10, 9, 10, 9, 9, 9, 10, 10, 10, 10, 10, 10, 9, 9, 9, 10, 9, 10, 9, 9, 10, 10, 9, 9, 10, 10, 9, 9, 10, 9, 9, 9, 9, 9, 10, 10, 9, 10, 9, 10, 9, 9, 10, 9, 9, 9, 10, 10, 9, 10, 10, 10, 12, 10, 9, 10, 10, 9, 9, 9, 10, 10, 9, 10, 10, 10, 10, 10, 11, 10, 10, 10, 10, 11, 10, 10, 10, 10, 10, 10, 10, 10, 10, 10, 9, 9, 10, 9, 10, 10, 10, 11, 10, 10, 10, 10, 11, 11, 10, 10, 9, 10, 10, 9, 10, 9, 9, 10, 9, 10, 10, 10, 10, 9, 10, 10, 10, 9, 9, 9, 9, 10, 10, 10, 10, 10, 10, 9, 10, 9, 10, 10, 10, 10, 9, 10, 10, 10, 10, 10, 10, 10, 10, 9, 9, 10, 10, 9, 10, 10, 9, 10, 10, 10, 10, 9, 10, 9, 10, 9, 10, 9, 11, 10, 10, 9, 9, 10, 9, 9, 9, 9, 9, 10, 9, 10, 10, 9, 10, 10, 9, 10, 9, 10, 10, 8, 10, 10, 10, 10, 10, 10, 10, 9, 10, 10, 11, 10, 10, 10, 10, 10, 10, 10, 10, 8, 10, 10, 9, 10, 10, 9, 10, 10, 10, 11, 10, 9, 9, 10, 10, 10, 9, 10, 10, 10, 10, 9, 10, 10, 10, 10, 11, 9, 10, 10, 10, 10, 9, 10, 9, 10, 10, 10, 10, 10, 10, 10, 10, 10, 9, 10, 10, 11, 9, 10, 10, 10, 9, 10, 10, 10, 10, 9, 10, 10, 11, 11, 10, 9, 9, 10, 10, 10, 10, 10, 9, 9, 10, 10, 9, 10, 10, 10, 10, 10, 10, 10, 10, 10, 10, 9, 10, 9, 10, 10, 9, 9, 10, 10, 10, 10, 10, 10, 11, 10, 9], strides = [1, 1], use_3ic_optimize = 0 : i64, weight_is_coeff = 1 : i64, with_bias = true} : (tensor<1x512x20x20x!quant.uniform<i8:f32, 0.053923037795275588>>, tensor<512x512x1x1xsi8>, tensor<1x512x1x1xi32>) -> tensor<1x512x20x20x!quant.uniform<i8:f32, 0.083325618897637788>> loc(#loc124)
    %125 = "top.Weight"() : () -> tensor<1x1x1x256xsi8> loc(#loc125)
    %126 = "tpu.Lut"(%124, %125) : (tensor<1x512x20x20x!quant.uniform<i8:f32, 0.083325618897637788>>, tensor<1x1x1x256xsi8>) -> tensor<1x512x20x20x!quant.uniform<i8:f32, 0.068145899212598435>> loc(#loc126)
    %127 = "tpu.Slice"(%126, %0, %0, %0, %0) {axes = [], ends = [-1, 256, -1, -1], offset = [0, 0, 0, 0], steps = [1, 1, 1, 1]} : (tensor<1x512x20x20x!quant.uniform<i8:f32, 0.068145899212598435>>, none, none, none, none) -> tensor<1x256x20x20x!quant.uniform<i8:f32, 0.068145899212598435>> loc(#loc127)
    %128 = "tpu.Slice"(%126, %0, %0, %0, %0) {axes = [], ends = [-1, 512, -1, -1], offset = [0, 256, 0, 0], steps = [1, 1, 1, 1]} : (tensor<1x512x20x20x!quant.uniform<i8:f32, 0.068145899212598435>>, none, none, none, none) -> tensor<1x256x20x20x!quant.uniform<i8:f32, 0.068145899212598435>> loc(#loc128)
    %129 = "top.Weight"() : () -> tensor<256x256x3x3xsi8> loc(#loc129)
    %130 = "top.Weight"() : () -> tensor<1x256x1x1xi32> loc(#loc130)
    %131 = "tpu.Conv2D"(%128, %129, %130) {coeff_merged = false, dilations = [1, 1], do_relu = false, do_winograd = false, dynweight_reorderd = false, group = 1 : i64, kernel_shape = [3, 3], kernel_zp = 0 : i64, multiplier = [1571988480, 1384077696, 2009140352, 1914390912, 1101604352, 1081474176, 1984433408, 1738548608, 1370929664, 1119926400, 1690579712, 1636364544, 2031327232, 1858079488, 1196139904, 1566097152, 1867412480, 1126921088, 1313616256, 2065979264, 1696550272, 1231473664, 1287955328, 1240098304, 1753041152, 1694613888, 1566553216, 1786434048, 1212409856, 1393641344, 1285540352, 1282192256, 1086514432, 1370007808, 1616218880, 1624223232, 1862976000, 1226129024, 1446986496, 1547927168, 1382579712, 1231490688, 1862256512, 1829913472, 1916884096, 1424327168, 1269083264, 1457541888, 1734292992, 1092558464, 1074052224, 1738661632, 2041494272, 1961430272, 1343437312, 1740035456, 1866091904, 1354248064, 1918020864, 1442470656, 1679989120, 1154448256, 1201283072, 1468936448, 1835870464, 1124048384, 1928891008, 1538408576, 1666158080, 1925255040, 2036578944, 2120784128, 1356896384, 2147401984, 1192025088, 2107088256, 1075703680, 1322734336, 1330646272, 1420968960, 1463524352, 1371582080, 1769912960, 2101500288, 1954884608, 1888284160, 1882047104, 1617220224, 1525025280, 1413462784, 2005948544, 1329677696, 1278824576, 1769004288, 1594020352, 1967622656, 1458079104, 1607785088, 1520945280, 1837587968, 1460224128, 1841148160, 1275338368, 1448676224, 1868248320, 1419767680, 1162035456, 1855351040, 1783377408, 1465477888, 1258957440, 1760876672, 1422064512, 1398208896, 1880612736, 1805971456, 1215272448, 1110491136, 1679167616, 1339250944, 1577716352, 1586928000, 1114580352, 1412313856, 1854094080, 1208624384, 1498243200, 1444267392, 1634518400, 1941972224, 2010847744, 1840422144, 1450892800, 1708567296, 1748308352, 1530186752, 1690823680, 1555296000, 1169658112, 1487802880, 1919217920, 1948956416, 1677077888, 1334831616, 1515904384, 1857788800, 1252133888, 1778182784, 1454094848, 1696372992, 1540848384, 1440642816, 1179419904, 1287607552, 1849374848, 1598892928, 1623928576, 1236580608, 2078947456, 1673172224, 1513763712, 1919943424, 1833210880, 1373674368, 2057719552, 2139487872, 1645139328, 1814212736, 1614292608, 1119372544, 1408248832, 1108838784, 1182667392, 1544880256, 1377025792, 1176939136, 1612169728, 1225078528, 1506059136, 1965524736, 1673416320, 1789756416, 1894500352, 1387439232, 1822632576, 1141057408, 1385411328, 1192838784, 1212522624, 1508961408, 1093949184, 1115310720, 1256891392, 1301521280, 2016275456, 1956940672, 1503235584, 1274433024, 1393296256, 1107301504, 1357088640, 1206534656, 1208596224, 1594357632, 1586446208, 1458125568, 1608113664, 1879498240, 1666266368, 1309383296, 1127692800, 1909980672, 1878364928, 1326602368, 1607394304, 1623980288, 1881619328, 1794888192, 1165301376, 1731642880, 1859889792, 1181311360, 1711657984, 1190870400, 2074010624, 1529992320, 1245725312, 1674035200, 1146888576, 1734078080, 1106132736, 1352770816, 1920535040, 2043906432, 2020224384, 1720812416, 1253112960, 1756610560, 1850605568, 1327687808, 2033551232, 2050544256, 1523708032, 2021247744, 1342745856, 2061265280, 1675803136, 1370290816, 1167900800, 1569568256, 1389490688, 1921818624, 2082302848, 1335836544, 2088463360, 1211360768], pads = [1, 1, 1, 1], quant_mode = #tpu<rq_mode QDM>, relu_limit = -1.000000e+00 : f64, rshift = [10, 9, 11, 10, 10, 8, 9, 10, 10, 9, 10, 10, 10, 10, 9, 10, 10, 8, 9, 9, 9, 10, 9, 10, 10, 10, 9, 10, 9, 10, 10, 9, 8, 9, 10, 10, 10, 10, 9, 10, 9, 10, 10, 10, 10, 10, 10, 9, 10, 9, 9, 10, 10, 10, 10, 12, 10, 10, 10, 9, 10, 8, 9, 10, 10, 9, 10, 9, 10, 10, 10, 10, 9, 10, 10, 9, 9, 10, 9, 10, 9, 10, 10, 10, 11, 10, 10, 9, 10, 9, 10, 10, 9, 9, 9, 10, 10, 10, 9, 10, 10, 10, 10, 9, 10, 9, 10, 10, 10, 10, 10, 10, 10, 10, 10, 10, 9, 9, 8, 10, 10, 10, 9, 8, 10, 9, 10, 10, 10, 10, 10, 10, 10, 10, 10, 10, 10, 10, 9, 9, 10, 10, 10, 10, 10, 10, 10, 10, 9, 10, 11, 9, 9, 9, 10, 10, 10, 10, 10, 9, 10, 10, 10, 9, 10, 10, 10, 10, 10, 10, 10, 9, 9, 10, 9, 9, 10, 9, 9, 10, 10, 10, 10, 9, 10, 9, 10, 10, 9, 10, 9, 9, 8, 9, 10, 10, 10, 9, 9, 8, 10, 9, 9, 10, 10, 8, 10, 9, 10, 10, 9, 10, 10, 10, 10, 10, 10, 10, 9, 10, 9, 9, 10, 10, 10, 9, 9, 9, 9, 10, 10, 9, 10, 10, 10, 10, 9, 10, 10, 9, 10, 9, 10, 10, 10, 10, 10, 9, 9, 10, 9, 10, 10, 10, 10, 10], strides = [1, 1], use_3ic_optimize = 0 : i64, weight_is_coeff = 1 : i64, with_bias = true} : (tensor<1x256x20x20x!quant.uniform<i8:f32, 0.068145899212598435>>, tensor<256x256x3x3xsi8>, tensor<1x256x1x1xi32>) -> tensor<1x256x20x20x!quant.uniform<i8:f32, 0.082138704724409442>> loc(#loc131)
    %132 = "top.Weight"() : () -> tensor<1x1x1x256xsi8> loc(#loc132)
    %133 = "tpu.Lut"(%131, %132) : (tensor<1x256x20x20x!quant.uniform<i8:f32, 0.082138704724409442>>, tensor<1x1x1x256xsi8>) -> tensor<1x256x20x20x!quant.uniform<i8:f32, 0.088517822047244093>> loc(#loc133)
    %134 = "top.Weight"() : () -> tensor<256x256x3x3xsi8> loc(#loc134)
    %135 = "top.Weight"() : () -> tensor<1x256x1x1xi32> loc(#loc135)
    %136 = "tpu.Conv2D"(%133, %134, %135) {coeff_merged = false, dilations = [1, 1], do_relu = false, do_winograd = false, dynweight_reorderd = false, group = 1 : i64, kernel_shape = [3, 3], kernel_zp = 0 : i64, multiplier = [1727133568, 1125232256, 1307662336, 1118398464, 1661857664, 1895767552, 1893970944, 1545089920, 1296287232, 1096831744, 1460129536, 1290200448, 1324176384, 2066897408, 1309372160, 1503831808, 1421395200, 1307248896, 1176688128, 1782142592, 2101349248, 1083586688, 1935032064, 1284583296, 1256491136, 1284809472, 1768618496, 1407496960, 2103289728, 1652241152, 1167297536, 1747361024, 1945451264, 1827954688, 1956640384, 1324899840, 2012624000, 1151340928, 1775240064, 1256968192, 1312214784, 1966318976, 1588110336, 1800599936, 1716925696, 1135934464, 1220622080, 1939512576, 1124217600, 1346518528, 1450976384, 1449002368, 1610505984, 1298434816, 1841417088, 1323214080, 1366401920, 1185474304, 1305398144, 1085546112, 1076885760, 1462185344, 1295702528, 2102521984, 1397298944, 1401284480, 1491862528, 1249911296, 1146669312, 1608962176, 1856138240, 1169905408, 2036670848, 1787904000, 1634622464, 1372695296, 1193954816, 1829551872, 1517919360, 1665307648, 1387079424, 1092697472, 1088525440, 1136066048, 1165010816, 1809319552, 1536944256, 1772745216, 1990492800, 1153449728, 2141320704, 1536530560, 1809783808, 1882591360, 1158575744, 1251571072, 1857264896, 1665931776, 1101000704, 1192084992, 1438101888, 1728139648, 1644484992, 1112873728, 1791378176, 1676377856, 1314022400, 1404724992, 1777460096, 1215346560, 1355948416, 1626856832, 1470243200, 1386546304, 2116936320, 1934394752, 2006073984, 1773261824, 1994062720, 1113142016, 1173056512, 1935342976, 1285055616, 1126265984, 1345744128, 1645918976, 1919802496, 1100114816, 1387151616, 2126832256, 1341340544, 2099646592, 1821334656, 1411636352, 2058548224, 1586455424, 1128358912, 1673629696, 2086922624, 1111400960, 1176811136, 1134646016, 1406410496, 1275405568, 1738683008, 1454110208, 1279544448, 1929746176, 1076150400, 2043956736, 1115300352, 1505726336, 1424966656, 1903943552, 1687244672, 1889349888, 1855263872, 1146446592, 1764823936, 1873865088, 1497957632, 1689779968, 1137681920, 1788077184, 1615262848, 1370411648, 1529702400, 1139086336, 1830661504, 1314046976, 1107756672, 1589737984, 2017233152, 1740462720, 1378117760, 2094993408, 1219297024, 1868563584, 1892713088, 1660621824, 1797017856, 2103915776, 1291224832, 1075585664, 1222652928, 1851758208, 1218176384, 1684834816, 1253310336, 1561675648, 1593006208, 1930226304, 1934660608, 1124081664, 1080462592, 1296516736, 1775825280, 1600330496, 2062918912, 1503666560, 2018198656, 1715309184, 1586773376, 1081458176, 1178861440, 1317190400, 1281442304, 1635528832, 1597686912, 1692627712, 1866199552, 1148716672, 1377395968, 1316151424, 1715505792, 1891468928, 1975416832, 2055578624, 1781494144, 1599700224, 1203862528, 1262759552, 1519024512, 1709743360, 1685083648, 1244731776, 1639456256, 1089261184, 1328652160, 1653253120, 1352829824, 1950989696, 1234254080, 1454887680, 2093025920, 2129775232, 2134059264, 1700802304, 1257328512, 1276808192, 2065287424, 2018994816, 1085116288, 1205700096, 1373566976, 1665377536, 1272481792, 2118920064, 1261067392, 2099513344, 1589562624, 1648372992, 1336152832, 1195856128, 2063209856, 1251082112], pads = [1, 1, 1, 1], quant_mode = #tpu<rq_mode QDM>, relu_limit = -1.000000e+00 : f64, rshift = [10, 8, 10, 10, 11, 11, 11, 11, 10, 10, 11, 10, 10, 11, 11, 10, 10, 11, 10, 10, 11, 10, 11, 10, 10, 10, 11, 10, 12, 11, 10, 11, 10, 11, 11, 10, 11, 9, 11, 10, 10, 10, 10, 10, 9, 10, 10, 11, 10, 10, 10, 10, 10, 9, 11, 10, 11, 10, 10, 10, 10, 11, 10, 11, 10, 10, 9, 10, 9, 10, 11, 10, 11, 11, 11, 10, 10, 11, 11, 11, 11, 10, 10, 10, 10, 11, 9, 11, 11, 9, 11, 10, 11, 10, 10, 10, 11, 11, 10, 10, 11, 11, 10, 10, 11, 11, 10, 11, 11, 9, 10, 10, 10, 11, 11, 11, 11, 10, 11, 10, 10, 11, 10, 10, 10, 11, 11, 10, 11, 11, 10, 11, 11, 10, 10, 11, 10, 11, 11, 9, 10, 9, 10, 10, 10, 9, 10, 11, 10, 11, 10, 11, 11, 11, 10, 11, 11, 10, 11, 11, 10, 11, 10, 11, 11, 10, 11, 10, 11, 10, 10, 10, 11, 11, 10, 11, 10, 10, 11, 9, 11, 11, 10, 10, 10, 10, 10, 11, 10, 10, 9, 11, 11, 10, 10, 10, 11, 11, 11, 11, 10, 11, 10, 10, 10, 10, 10, 10, 10, 11, 11, 10, 10, 10, 10, 11, 11, 11, 11, 11, 10, 10, 11, 11, 11, 10, 11, 10, 10, 11, 11, 11, 10, 10, 11, 11, 11, 11, 10, 10, 11, 11, 10, 10, 9, 10, 10, 11, 10, 11, 9, 10, 10, 10, 11, 10], strides = [1, 1], use_3ic_optimize = 0 : i64, weight_is_coeff = 1 : i64, with_bias = true} : (tensor<1x256x20x20x!quant.uniform<i8:f32, 0.088517822047244093>>, tensor<256x256x3x3xsi8>, tensor<1x256x1x1xi32>) -> tensor<1x256x20x20x!quant.uniform<i8:f32, 0.12362240629921259>> loc(#loc136)
    %137 = "top.Weight"() : () -> tensor<1x1x1x256xsi8> loc(#loc137)
    %138 = "tpu.Lut"(%136, %137) : (tensor<1x256x20x20x!quant.uniform<i8:f32, 0.12362240629921259>>, tensor<1x1x1x256xsi8>) -> tensor<1x256x20x20x!quant.uniform<i8:f32, 0.12780522283464565>> loc(#loc138)
    %139 = "tpu.Add"(%128, %138) {do_relu = false, multipliers = [46, 86], relu_limit = -1.000000e+00 : f64, rshifts = [6]} : (tensor<1x256x20x20x!quant.uniform<i8:f32, 0.068145899212598435>>, tensor<1x256x20x20x!quant.uniform<i8:f32, 0.12780522283464565>>) -> tensor<1x256x20x20x!quant.uniform<i8:f32, 0.094787297637795281>> loc(#loc139)
    %140 = "tpu.Concat"(%127, %128, %139) {axis = 1 : si32, do_relu = false, multipliers = [67, 67, 94], only_merge = false, relu_limit = -1.000000e+00 : f64, rshifts = [7, 7, 7]} : (tensor<1x256x20x20x!quant.uniform<i8:f32, 0.068145899212598435>>, tensor<1x256x20x20x!quant.uniform<i8:f32, 0.068145899212598435>>, tensor<1x256x20x20x!quant.uniform<i8:f32, 0.094787297637795281>>) -> tensor<1x768x20x20x!quant.uniform<i8:f32, 0.12885147716535433>> loc(#loc140)
    %141 = "top.Weight"() : () -> tensor<512x768x1x1xsi8> loc(#loc141)
    %142 = "top.Weight"() : () -> tensor<1x512x1x1xi32> loc(#loc142)
    %143 = "tpu.Conv2D"(%140, %141, %142) {coeff_merged = false, dilations = [1, 1], do_relu = false, do_winograd = false, dynweight_reorderd = false, group = 1 : i64, kernel_shape = [1, 1], kernel_zp = 0 : i64, multiplier = [1295797376, 1340033664, 1757463808, 1752813312, 1767575040, 1256592128, 1273766784, 1830524800, 1205406976, 1644793600, 1746405888, 1374440576, 1813510656, 1430747776, 1091264768, 1440920064, 1869005440, 1643569920, 2146875392, 1132770304, 2127263872, 1514915712, 1723557120, 2058463616, 1351260160, 1243821312, 1238622336, 2070906496, 1235141376, 1703495168, 1946409344, 1573328256, 1093070848, 1240445568, 1571576960, 1294082816, 1219645824, 1310019328, 1860641664, 2090959360, 1964797440, 1113263488, 1880160768, 1387722624, 1959417984, 1619081600, 2051823616, 1885969024, 1923803264, 2131122560, 1926653312, 1074589184, 1268948096, 2035027584, 1097556352, 1755073024, 1963830016, 1133134336, 1362055296, 1491079680, 1308995328, 1085257984, 2005404032, 1663541888, 2064070656, 1600250880, 1623574656, 1895066624, 2119105536, 1126151296, 1454516864, 1509114240, 1681921280, 1739390720, 1656985216, 1358596480, 1557973248, 1202759552, 1986299648, 2077886464, 1238144512, 1451142400, 1270867200, 1804803968, 2053860224, 1262322688, 1295763584, 1253494528, 1840906624, 1176780032, 1966871168, 1963848192, 1348854656, 1817161472, 2005243392, 1119891328, 1215079680, 1370708992, 1267849728, 1971034624, 1116338816, 1292520064, 1642546816, 1867531008, 2108488192, 1763436800, 1764427136, 1161387392, 1351544576, 1625347456, 1122561792, 1864399232, 1146608128, 1960392320, 2028618496, 1378937984, 1833269248, 1138853888, 1382334720, 1702709120, 2057114496, 2072062592, 1848807936, 2079875584, 1094969344, 1464988160, 1188173568, 1135287680, 1232458752, 1487809664, 2072757248, 2123218176, 1088845440, 1097165824, 2052649856, 2115301888, 1907897984, 1604040064, 1441532288, 2094903808, 1601788160, 2053946752, 1411284480, 1973153792, 1360424960, 2002354688, 1129715456, 1957535360, 1630590336, 1562882432, 1127610880, 1903134592, 1860873472, 2062412288, 1973007360, 1218660224, 1130784128, 1396727936, 1084689920, 1662135168, 1703427840, 1866128896, 1824274944, 2113582592, 2127311360, 1268877184, 1969125248, 1115741824, 1934713216, 1922097152, 1160057088, 1379609216, 1508522496, 1132642560, 1824270592, 1239231744, 1517230976, 1461515392, 1916261120, 2096757504, 1611961088, 1255637504, 1264165120, 1657530752, 1854107648, 1282480128, 1194739072, 1292245888, 1530110592, 2033224064, 2111051264, 2034751488, 1886823680, 1756162688, 1736970112, 1174464384, 1360594560, 1134302080, 2015050496, 1537889792, 1582171904, 1749163904, 2117339136, 1331826432, 1710616320, 1844537216, 1673918592, 1094480128, 1583055104, 1494257664, 1521918592, 1376596864, 1383659008, 1173586176, 1917886336, 1265523840, 2145965568, 1394726400, 1841692288, 1302581888, 1185353088, 1749800704, 1922408576, 1678965504, 1937654016, 1683603712, 1139563008, 2026273920, 1248755584, 1242261120, 1557001344, 1601502848, 1231319936, 1135622016, 1271090944, 1962147072, 1076057728, 2047286912, 2011592960, 1199970816, 1603341184, 1748033536, 1244701568, 1801598208, 1839971328, 1394628736, 1914295808, 1339002496, 1224367872, 1340997632, 1831011200, 1709592064, 1730700160, 2074903296, 1727340416, 2079515776, 1287872256, 1996604160, 1898285440, 2055802240, 1306334336, 1645704832, 1095609344, 1712405248, 1928996992, 1303977856, 1077804544, 1982575104, 1162623360, 1345987712, 1949334912, 2146272000, 1827577088, 1484320384, 1281578752, 1081674112, 1235635968, 1733129344, 1168623616, 1770531200, 1760372736, 1612524928, 1974915200, 1946855424, 1864563072, 1565512064, 1231163008, 2036676224, 1723869056, 1080654848, 1715773184, 2098275072, 1433446016, 1223806464, 1414180352, 1237199232, 1831865984, 1391440896, 1465476864, 1326030720, 1164293632, 1657776128, 2034964864, 1085937280, 1463654528, 1775747840, 1145388672, 1186542208, 1633986176, 1104231552, 1817385856, 2104699392, 1508274048, 1374997760, 1978476800, 1498599424, 2105569152, 1385499776, 1381882880, 2042379008, 1139782144, 1247900928, 1303750144, 1290947712, 1530209920, 1419177472, 1927966976, 1950169984, 1419745536, 2069767168, 1412226560, 1837093760, 1786588416, 1220035968, 1229362816, 2034277248, 1335516416, 1825129088, 2015734784, 1993156736, 1944434688, 1870801536, 2022722048, 1917658496, 1956257408, 1534967936, 1106578560, 2005120512, 1434672256, 2146150272, 1989996544, 1608482432, 1330882176, 1214829696, 1831447808, 1088603904, 1211930752, 1231619840, 1181168640, 2103601408, 1369947520, 1577462144, 1787089152, 1250554368, 1122285696, 1768001920, 1073842944, 1726831360, 1370942080, 1881748224, 1932130048, 1341404160, 1903290624, 1479242752, 1311744640, 1791725568, 1176208256, 1491189120, 1638099840, 1908093568, 2020853760, 1351661824, 1390262912, 1621080704, 1414595968, 1077963520, 1473840512, 1353333248, 2089869568, 1225535488, 1228000768, 1287536640, 1465976704, 2035915648, 1496047872, 1364800384, 1744953856, 1210510848, 1532078848, 1241735808, 1521413888, 2099991936, 1481558144, 1643521280, 1351118080, 1538390144, 1835151744, 1474568320, 1382109440, 2139089280, 1902722176, 1146524544, 1337340416, 1538965760, 1139725184, 1311172224, 1206248448, 1692715520, 1974223104, 1141952512, 1989090944, 1193423744, 1505469440, 1774393856, 1978126208, 1502198016, 2121390464, 2116574208, 1221187968, 1393080192, 1652751360, 1334994944, 1390491264, 2088999168, 2056010112, 1612310144, 1865268096, 1352391936, 1119746688, 1127861504, 2081506560, 1236460160, 1113048064, 1189501952, 1878980224, 1608960640, 1948752896, 1169319424, 2114208512, 1235383936, 1365910272, 1300143744, 1736171008, 1728364160, 1077938816, 2019768832, 2019104768, 1977725312, 1755741312, 2106346624, 1122536192, 2086067072, 2130642048, 1556664320, 1679764352, 1824171136, 1134512128, 1312374912, 1618573056, 1714944640, 1848152448, 1250003072, 1256004864, 1886092160, 1751211520, 2112453376, 1242681088, 1451689088, 1271848704, 1911801216, 1662001920, 2032650368, 1406437504, 1167893376, 1732134144, 1953344384, 1778775936, 1493156480, 1327666304, 1094107520, 1159514752, 1090019840, 1111462912, 1788882048, 1465036928, 1278305792, 1150831360, 1273419904, 1990358016, 1422405376, 1876460032, 1179755520, 1195639424, 1181172736, 1886401408, 1316489472, 2033156992, 1500125056, 1285980032, 1409368064, 2041725952, 2018694784], pads = [0, 0, 0, 0], quant_mode = #tpu<rq_mode QDM>, relu_limit = -1.000000e+00 : f64, rshift = [9, 9, 10, 10, 10, 9, 9, 9, 9, 9, 10, 9, 10, 9, 8, 9, 10, 10, 10, 9, 10, 9, 10, 10, 9, 9, 9, 9, 9, 10, 10, 9, 9, 9, 10, 8, 9, 9, 10, 10, 10, 9, 10, 10, 10, 9, 10, 10, 10, 10, 9, 9, 9, 9, 9, 10, 10, 9, 9, 9, 9, 9, 10, 10, 10, 10, 9, 10, 10, 9, 9, 9, 10, 10, 10, 9, 10, 10, 10, 10, 9, 9, 9, 10, 10, 9, 9, 9, 9, 9, 10, 10, 9, 10, 10, 9, 9, 9, 9, 10, 7, 9, 10, 10, 10, 10, 10, 9, 10, 10, 9, 10, 9, 10, 10, 9, 10, 9, 9, 9, 10, 10, 10, 10, 9, 9, 9, 9, 9, 10, 10, 10, 9, 9, 10, 10, 10, 10, 10, 10, 9, 10, 9, 10, 9, 10, 9, 10, 10, 9, 9, 10, 10, 10, 10, 9, 9, 9, 9, 9, 10, 9, 10, 10, 10, 9, 10, 9, 10, 10, 9, 9, 9, 9, 10, 9, 9, 9, 10, 10, 10, 9, 9, 10, 9, 9, 9, 9, 9, 10, 10, 10, 10, 9, 10, 9, 9, 9, 10, 9, 10, 10, 10, 9, 10, 10, 9, 9, 10, 9, 9, 9, 9, 9, 10, 9, 10, 9, 10, 9, 9, 10, 10, 9, 10, 10, 9, 10, 9, 9, 10, 9, 9, 9, 9, 10, 9, 10, 9, 9, 9, 10, 9, 10, 10, 9, 10, 9, 9, 9, 10, 10, 10, 10, 10, 10, 9, 10, 10, 10, 9, 10, 9, 10, 10, 9, 9, 10, 9, 9, 10, 10, 9, 9, 9, 9, 9, 10, 9, 8, 9, 10, 10, 10, 10, 10, 9, 10, 10, 8, 10, 10, 9, 8, 9, 9, 10, 9, 9, 9, 9, 10, 10, 9, 10, 10, 9, 9, 10, 9, 10, 10, 9, 9, 10, 9, 10, 9, 9, 10, 9, 9, 9, 9, 9, 9, 10, 9, 9, 10, 10, 10, 10, 9, 9, 10, 10, 8, 10, 10, 10, 10, 10, 10, 10, 10, 9, 10, 10, 10, 10, 10, 9, 9, 10, 9, 9, 9, 9, 10, 9, 9, 9, 9, 9, 10, 9, 10, 9, 10, 10, 9, 8, 10, 9, 10, 9, 10, 9, 10, 10, 9, 9, 9, 9, 9, 9, 9, 10, 9, 9, 9, 9, 10, 8, 9, 10, 8, 9, 9, 9, 9, 10, 10, 9, 9, 9, 10, 9, 10, 10, 9, 9, 9, 9, 9, 9, 10, 10, 9, 10, 9, 9, 10, 10, 10, 10, 10, 9, 9, 10, 9, 9, 10, 9, 10, 10, 9, 9, 9, 10, 9, 9, 9, 10, 10, 10, 9, 10, 9, 10, 9, 10, 10, 9, 10, 10, 10, 10, 10, 9, 10, 10, 9, 9, 10, 9, 9, 10, 10, 10, 10, 9, 10, 10, 10, 9, 10, 9, 10, 9, 10, 9, 8, 9, 10, 10, 9, 9, 9, 9, 9, 9, 10, 9, 9, 8, 9, 10, 9, 9, 9, 9, 9, 10, 9, 10, 9, 9, 9, 10, 10], strides = [1, 1], use_3ic_optimize = 0 : i64, weight_is_coeff = 1 : i64, with_bias = true} : (tensor<1x768x20x20x!quant.uniform<i8:f32, 0.12885147716535433>>, tensor<512x768x1x1xsi8>, tensor<1x512x1x1xi32>) -> tensor<1x512x20x20x!quant.uniform<i8:f32, 0.091494522834645667>> loc(#loc143)
    %144 = "top.Weight"() : () -> tensor<1x1x1x256xsi8> loc(#loc144)
    %145 = "tpu.Lut"(%143, %144) : (tensor<1x512x20x20x!quant.uniform<i8:f32, 0.091494522834645667>>, tensor<1x1x1x256xsi8>) -> tensor<1x512x20x20x!quant.uniform<i8:f32, 0.087303185826771657>> loc(#loc145)
    %146 = "top.Weight"() : () -> tensor<256x512x1x1xsi8> loc(#loc146)
    %147 = "top.Weight"() : () -> tensor<1x256x1x1xi32> loc(#loc147)
    %148 = "tpu.Conv2D"(%145, %146, %147) {coeff_merged = false, dilations = [1, 1], do_relu = false, do_winograd = false, dynweight_reorderd = false, group = 1 : i64, kernel_shape = [1, 1], kernel_zp = 0 : i64, multiplier = [1831542144, 1553720832, 1098902656, 1468656512, 1824426752, 1334471680, 1533951488, 1571360512, 1239309056, 1940125824, 1864317952, 1148126592, 2108682112, 1319049728, 1487997952, 1950780160, 1149597952, 1855575040, 1089017344, 1701011200, 1082616832, 1887408000, 1228494976, 1253312640, 1296713984, 1520953984, 1097641088, 1188570752, 1584102016, 1494300416, 1250656128, 1440833536, 1473811584, 1868905344, 1839108864, 1993941120, 1625515904, 1321029248, 1857833984, 1605760896, 1260022144, 1085399808, 1248499328, 1668670720, 1590632320, 1971100032, 1303780992, 1763758336, 1999732608, 1145987712, 1433147648, 1176939136, 1340176512, 1757425152, 1568722432, 1296569600, 1775244288, 1832712448, 2105185280, 1372462336, 1928720000, 1143218048, 1754158080, 1285270912, 1227919104, 2080874112, 1769221504, 1075868416, 1206147840, 1763444992, 2028253312, 1611729792, 1519377024, 1765162752, 2031171712, 1127982976, 1553418752, 1520358272, 1080299904, 1928380928, 1600411904, 2006561024, 1876732032, 1115877632, 1175950336, 1807318400, 1543524864, 2093134592, 1146199296, 1379357824, 1652548608, 1579478528, 1699871488, 1758683904, 1849190144, 1083314816, 1628828416, 2103794176, 1196176000, 2008984576, 2138027392, 1848710272, 1498539904, 1154734848, 1231394688, 1469295488, 2043304192, 2083854208, 1750770432, 1136694016, 1554583936, 2143654016, 1104755200, 1644332288, 1829275904, 1624091008, 1900427648, 1746271488, 1110699904, 1888246016, 1998635008, 1543882752, 1455103232, 1923807360, 1090107008, 1478140032, 2106130048, 1585655808, 1252946560, 1993609728, 1941395968, 1784155008, 1577010816, 1791872640, 1393995648, 1513179136, 1992542720, 1439570304, 1876853376, 1668067456, 1730305792, 1097472512, 1488283648, 2000159616, 2098061696, 1319763712, 1144919680, 1358838528, 1270613632, 1566514816, 1807704832, 1845719680, 1167835648, 1507871488, 1326684672, 1860498816, 1781661440, 1582281472, 1344587776, 1350849536, 1358982656, 1961582208, 1213189120, 1514508160, 1664327296, 2038939136, 1899086080, 1546541824, 1831917184, 1962139904, 1673917568, 1137881216, 1102201088, 1786250496, 1351520384, 1844075136, 2133901056, 1594568576, 1427300480, 1921754112, 1320939008, 1328075264, 2005487232, 1431898880, 1552240256, 1178958976, 1292878336, 1455395456, 1199046016, 1527932672, 1793542016, 1763568384, 1603586432, 1569739648, 1897321216, 1942930432, 1793970432, 1802913280, 1442527232, 1811626496, 2022723200, 1666384512, 1336695424, 1574632192, 1413332480, 1702301568, 1168698496, 1977233152, 1742232832, 2078624512, 1908481152, 1502963584, 1808114560, 1653810432, 1519073280, 2147123584, 2071778304, 1691139328, 1219790208, 1154209536, 2045095424, 1613554560, 1465830912, 1110918784, 1147603328, 1110075392, 1155124608, 1811915008, 1395987200, 2117014400, 1664302976, 1952449536, 1785511040, 1598552448, 1498035328, 1729369728, 1164276480, 2050857856, 1584112512, 1149228160, 1722326144, 1321845632, 1979282176, 1134447360, 1091611776, 1159362816, 1815601280, 2104803584, 1989757184, 1362584192, 1903328512, 1136235136, 1258335360, 1426537728, 1779205120, 1317725184], pads = [0, 0, 0, 0], quant_mode = #tpu<rq_mode QDM>, relu_limit = -1.000000e+00 : f64, rshift = [10, 10, 9, 10, 10, 9, 10, 10, 9, 10, 10, 9, 10, 10, 10, 10, 10, 10, 9, 10, 9, 10, 9, 9, 9, 9, 8, 8, 10, 10, 9, 9, 9, 10, 10, 10, 10, 9, 10, 8, 9, 9, 9, 10, 10, 10, 9, 10, 8, 9, 7, 9, 9, 10, 9, 9, 10, 10, 10, 10, 10, 9, 10, 9, 8, 10, 10, 9, 9, 10, 8, 9, 9, 10, 10, 9, 10, 10, 9, 10, 9, 10, 10, 10, 9, 10, 9, 10, 9, 9, 8, 10, 10, 10, 10, 9, 9, 10, 8, 10, 10, 10, 10, 8, 9, 10, 8, 10, 10, 8, 9, 10, 9, 9, 10, 10, 10, 10, 9, 10, 9, 9, 9, 10, 9, 10, 9, 10, 10, 10, 10, 10, 9, 10, 10, 10, 10, 9, 10, 10, 10, 9, 10, 10, 10, 9, 9, 9, 8, 10, 9, 10, 9, 10, 10, 10, 10, 9, 10, 9, 9, 10, 9, 10, 10, 10, 10, 8, 9, 10, 10, 9, 9, 10, 9, 9, 10, 10, 9, 10, 9, 9, 10, 9, 9, 8, 9, 10, 9, 10, 10, 10, 10, 10, 10, 10, 10, 10, 10, 10, 10, 10, 9, 10, 9, 10, 9, 10, 10, 10, 10, 7, 10, 10, 9, 10, 10, 10, 9, 9, 10, 8, 9, 9, 9, 9, 9, 10, 10, 10, 9, 10, 10, 10, 10, 10, 9, 10, 10, 8, 10, 9, 10, 9, 9, 9, 10, 10, 9, 9, 10, 9, 8, 9, 10, 10], strides = [1, 1], use_3ic_optimize = 0 : i64, weight_is_coeff = 1 : i64, with_bias = true} : (tensor<1x512x20x20x!quant.uniform<i8:f32, 0.087303185826771657>>, tensor<256x512x1x1xsi8>, tensor<1x256x1x1xi32>) -> tensor<1x256x20x20x!quant.uniform<i8:f32, 0.084541425984251975>> loc(#loc148)
    %149 = "top.Weight"() : () -> tensor<1x1x1x256xsi8> loc(#loc149)
    %150 = "tpu.Lut"(%148, %149) : (tensor<1x256x20x20x!quant.uniform<i8:f32, 0.084541425984251975>>, tensor<1x1x1x256xsi8>) -> tensor<1x256x20x20x!quant.uniform<i8:f32, 0.1126667905511811>> loc(#loc150)
    %151 = "tpu.Pool2D"(%150) {count_include_pad = false, do_relu = false, keepdims = true, kernel_shape = [5, 5], pad_value = 0 : i64, pads = [2, 2, 2, 2], pool_mode = #tpu<pool_mode Max>, relu_limit = -1.000000e+00 : f64, strides = [1, 1]} : (tensor<1x256x20x20x!quant.uniform<i8:f32, 0.1126667905511811>>) -> tensor<1x256x20x20x!quant.uniform<i8:f32, 0.1126667905511811>> loc(#loc151)
    %152 = "tpu.Pool2D"(%151) {count_include_pad = false, do_relu = false, keepdims = true, kernel_shape = [5, 5], pad_value = 0 : i64, pads = [2, 2, 2, 2], pool_mode = #tpu<pool_mode Max>, relu_limit = -1.000000e+00 : f64, strides = [1, 1]} : (tensor<1x256x20x20x!quant.uniform<i8:f32, 0.1126667905511811>>) -> tensor<1x256x20x20x!quant.uniform<i8:f32, 0.1126667905511811>> loc(#loc152)
    %153 = "tpu.Pool2D"(%152) {count_include_pad = false, do_relu = false, keepdims = true, kernel_shape = [5, 5], pad_value = 0 : i64, pads = [2, 2, 2, 2], pool_mode = #tpu<pool_mode Max>, relu_limit = -1.000000e+00 : f64, strides = [1, 1]} : (tensor<1x256x20x20x!quant.uniform<i8:f32, 0.1126667905511811>>) -> tensor<1x256x20x20x!quant.uniform<i8:f32, 0.1126667905511811>> loc(#loc153)
    %154 = "tpu.Concat"(%150, %151, %152, %153) {axis = 1 : si32, do_relu = false, multipliers = [1, 1, 1, 1], only_merge = true, relu_limit = -1.000000e+00 : f64, rshifts = [0, 0, 0, 0]} : (tensor<1x256x20x20x!quant.uniform<i8:f32, 0.1126667905511811>>, tensor<1x256x20x20x!quant.uniform<i8:f32, 0.1126667905511811>>, tensor<1x256x20x20x!quant.uniform<i8:f32, 0.1126667905511811>>, tensor<1x256x20x20x!quant.uniform<i8:f32, 0.1126667905511811>>) -> tensor<1x1024x20x20x!quant.uniform<i8:f32, 0.1126667905511811>> loc(#loc154)
    %155 = "top.Weight"() : () -> tensor<512x1024x1x1xsi8> loc(#loc155)
    %156 = "top.Weight"() : () -> tensor<1x512x1x1xi32> loc(#loc156)
    %157 = "tpu.Conv2D"(%154, %155, %156) {coeff_merged = false, dilations = [1, 1], do_relu = false, do_winograd = false, dynweight_reorderd = false, group = 1 : i64, kernel_shape = [1, 1], kernel_zp = 0 : i64, multiplier = [1483054080, 1584192384, 1509542912, 1320387840, 1670534016, 1736941824, 1687585664, 1523954944, 1164123392, 1871277824, 1367274880, 1524389632, 1733568896, 1353106176, 1288324992, 1375660416, 1853621760, 1356540672, 1306448000, 1954696832, 1974087552, 1538553600, 1344741248, 1155295872, 1671947008, 1709145600, 1256679296, 1532267136, 1587191296, 1733333376, 1145597440, 2068174336, 1354109056, 1756126848, 1961582720, 1622317568, 1405808000, 2035098880, 1126768768, 1139973888, 1680577792, 1396685056, 1419678336, 1453747328, 1191091584, 1160838016, 1845401344, 1448389888, 1441076096, 1364442752, 2063638400, 2036600448, 2095276032, 1195201536, 1985039872, 1463842304, 2124946176, 1808401536, 1112901120, 1109349248, 1133665536, 1600636416, 1848838784, 1411870208, 1513078016, 1662091392, 1376952832, 2142458752, 1091200896, 1243499008, 1603806976, 1500887424, 1938398976, 1408639232, 1113065472, 2010288256, 1264302336, 1593720448, 1710915584, 1815940992, 2146066048, 1647683584, 1359755008, 1832233856, 1318213248, 1389820416, 1996859904, 2105965440, 1466442880, 1805771904, 1448528128, 1542422144, 1555457024, 1079340672, 1433912704, 1088356608, 1874652160, 1400837120, 1484823552, 1735050624, 1406182912, 2063880832, 1134171776, 1081942400, 1631120128, 1137655040, 1201037952, 2039121152, 1862865536, 1587740672, 1083687936, 1304983680, 1140205056, 1181005824, 1518886144, 1538720512, 1894815104, 1826748672, 1485414528, 1311681408, 1177126016, 1083352448, 1318966400, 1223504000, 1264892032, 1410490880, 1407835648, 1388905856, 1497166464, 2088357760, 1079137024, 2100265600, 2087026944, 1497814144, 1712769792, 1670003840, 2032162560, 1374186368, 1775932416, 1220943360, 1745554432, 1757313536, 1275089792, 1421466624, 1727872512, 1168820864, 1777605120, 1785627648, 1106988928, 1207046400, 1998177792, 1271512704, 1538603520, 1343331328, 2090627328, 1967983744, 1995120512, 1456440704, 1144109568, 1309455232, 1836429824, 1314296192, 1165259648, 2089280256, 1360006272, 1295272448, 1187197312, 1160839936, 1109723776, 1563082624, 1475649536, 1155514496, 1270208512, 1572027264, 1805147392, 1862744832, 1290868224, 1973276928, 1498088192, 1638004864, 1364072576, 1993922688, 1878005632, 1095312384, 1188657408, 1275446912, 1103729920, 1585914112, 1564671360, 1258688384, 1420232960, 1210634496, 1585767040, 1247562112, 1224689664, 1228539904, 1155118336, 1871573504, 1259079552, 1408537344, 2127387904, 1456990336, 1125473024, 1491047168, 1891859072, 1752545920, 1157479296, 1335606528, 1296114816, 1156583552, 1840318336, 1257299584, 1540888064, 1226026880, 1371139456, 2037880192, 1592643968, 1291002752, 1850595456, 1317245056, 1438435712, 1706102400, 1813614976, 1609063680, 1735005568, 1368493568, 1862036480, 1488284928, 1652258688, 2105277568, 1814695168, 1193219072, 1624150656, 1382573056, 2045297792, 1663585792, 1545562496, 1278590336, 1816223232, 1672438144, 1414642944, 1156673536, 1275698048, 1540295168, 1082105728, 1593817984, 1803480448, 2026983552, 1378098688, 1674797952, 1213276416, 1593896448, 1199557120, 1074276864, 1642222208, 1148066816, 1222269056, 1157311744, 1307372416, 1586182400, 1990275456, 1221250560, 1098079872, 1937284224, 1334219136, 1178997760, 2094529152, 1661602816, 1951282176, 1443275520, 1543402624, 1202384896, 1708024448, 1927594880, 1390829312, 1901867264, 1257902464, 1798122496, 1328207616, 1743701120, 1565251584, 1467959808, 1738115200, 1959204224, 2052992384, 1592575616, 1612895232, 1583342848, 1590959488, 1452082560, 1358652288, 2080954112, 1664352512, 1399423872, 1806899712, 1560074624, 1606737024, 1992246272, 1191669632, 1231570048, 1524600832, 1797442432, 1345307648, 1912512128, 1596919296, 1414374912, 2023837568, 1477764992, 1209117568, 1495942400, 1721097344, 1098178432, 1620803072, 1514377472, 1620656896, 1811866752, 1174555520, 1332950272, 1694283776, 1426142336, 1203554816, 1827962112, 1588146944, 1612710144, 1496164736, 1665896832, 1763982848, 1241398272, 1959332224, 1515186816, 1548326272, 1254391296, 1815497344, 1778689024, 1589274624, 2144313728, 1958556544, 1497676288, 1372673152, 1862587776, 1355800832, 1332754944, 1775055232, 1100015104, 2044308480, 1321183488, 1250338176, 1915805184, 1178259584, 1895315456, 1671451264, 1990023040, 2016121216, 1082568192, 1263689984, 1264033920, 1384409728, 1240001024, 2031148672, 1486152960, 2138575232, 1599713024, 1106544768, 1237407616, 1991683200, 1305954304, 1839289216, 1679043968, 2099739776, 1372730368, 1932780672, 1220256128, 1333589376, 1411247488, 1159145984, 1131758976, 1981361664, 1147022080, 1477414912, 1424331520, 1950100480, 2128169472, 1658733440, 1078104448, 2053520256, 1480535296, 1193080448, 1807123456, 1583469824, 2055446400, 1091713152, 1863869824, 1909786624, 1120527488, 1768853760, 1837429376, 2052482176, 1118324736, 1772050176, 1827402496, 1606652288, 1364572800, 1123254144, 1509324288, 1943473408, 1390336128, 2030028416, 1102082816, 1150200448, 1770957440, 1531690112, 1822646528, 1614812288, 2118175616, 2084199680, 1166720128, 1474204416, 1656258304, 1631313280, 1896434944, 1856124416, 1449817472, 2044292096, 1330609280, 1750847488, 1947568128, 1828868480, 1576382336, 1301019520, 1219104384, 1101290240, 1358374528, 1156106368, 1835251968, 1515827200, 1480898432, 1749602944, 1242635776, 1747452544, 1755987328, 1167282944, 1157319808, 1576631168, 1274420096, 2103433344, 1410290816, 1961630848, 1871396096, 1393041792, 1292504832, 1739602688, 1690313728, 1171677568, 1625049984, 1874397440, 1115042176, 1519775232, 1126140288, 1609845760, 1137152896, 1269479168, 1746103424, 1077719552, 1084433536, 1242555264, 1424445440, 1940354304, 1127107456, 1151206016, 1876506368, 1251191680, 1435344512, 1663950976, 1552713088, 1706710656, 1290650624, 1104291072, 1280133248, 1590881792, 1438409088, 1337697920, 1588979456, 1125137536, 1455528192, 1931594496, 1085643520, 2081120768, 1672061312, 1662654976, 1968016640, 2039759616, 1320132224, 1226680448, 1604087424, 1843779328, 1795654272, 2079704960, 2026593920, 2103735296, 1693469568, 1188561152, 1703824128, 1429489536, 1218773760, 1228372608, 1870427904, 1528045184, 1340430464, 1978871680, 1317683200, 1648381440, 1495455232], pads = [0, 0, 0, 0], quant_mode = #tpu<rq_mode QDM>, relu_limit = -1.000000e+00 : f64, rshift = [9, 11, 10, 10, 10, 11, 10, 9, 9, 11, 9, 10, 10, 9, 10, 10, 11, 10, 10, 11, 11, 10, 9, 9, 10, 11, 10, 10, 11, 10, 10, 11, 10, 10, 10, 9, 10, 10, 10, 9, 11, 9, 10, 10, 10, 10, 11, 10, 10, 9, 10, 10, 10, 10, 11, 10, 10, 10, 9, 10, 10, 11, 9, 10, 10, 10, 9, 11, 10, 10, 10, 10, 11, 10, 9, 11, 10, 10, 11, 10, 11, 10, 10, 9, 9, 10, 10, 11, 10, 11, 10, 10, 9, 9, 10, 9, 11, 10, 10, 10, 10, 11, 9, 10, 11, 9, 9, 11, 11, 9, 10, 10, 10, 10, 10, 11, 10, 9, 11, 10, 10, 9, 9, 9, 10, 11, 10, 10, 10, 11, 10, 11, 9, 10, 10, 10, 11, 10, 10, 8, 10, 10, 10, 11, 9, 10, 10, 10, 10, 9, 10, 10, 9, 10, 10, 10, 11, 9, 10, 10, 10, 9, 9, 11, 10, 10, 10, 10, 10, 11, 9, 10, 10, 10, 10, 10, 10, 11, 10, 10, 10, 10, 10, 10, 10, 10, 8, 10, 9, 10, 10, 10, 9, 10, 10, 10, 10, 10, 10, 10, 11, 10, 10, 10, 10, 9, 10, 9, 10, 10, 11, 10, 11, 9, 9, 11, 10, 9, 9, 8, 10, 10, 10, 10, 11, 9, 11, 10, 9, 9, 10, 10, 9, 10, 11, 11, 10, 10, 10, 10, 10, 9, 10, 10, 10, 10, 11, 11, 10, 10, 10, 10, 10, 9, 10, 8, 10, 10, 10, 10, 11, 10, 10, 10, 10, 10, 11, 11, 11, 10, 10, 9, 10, 10, 10, 11, 10, 10, 10, 10, 11, 9, 10, 11, 11, 10, 10, 11, 10, 10, 10, 11, 10, 10, 10, 10, 10, 10, 9, 10, 9, 11, 10, 9, 10, 10, 10, 9, 9, 10, 9, 9, 11, 10, 10, 10, 10, 11, 10, 9, 10, 10, 11, 10, 10, 11, 10, 10, 11, 11, 11, 10, 11, 10, 9, 10, 11, 10, 10, 11, 10, 10, 10, 10, 11, 10, 9, 10, 10, 10, 10, 11, 10, 8, 10, 10, 10, 9, 10, 10, 10, 10, 8, 9, 11, 10, 11, 11, 11, 10, 11, 10, 10, 11, 10, 10, 10, 10, 10, 10, 11, 10, 10, 8, 10, 9, 10, 9, 10, 11, 10, 11, 11, 9, 9, 10, 11, 8, 11, 10, 10, 10, 10, 9, 11, 10, 10, 10, 10, 11, 10, 9, 11, 11, 10, 10, 9, 10, 10, 10, 10, 11, 11, 10, 10, 10, 11, 10, 10, 10, 10, 10, 8, 10, 10, 10, 10, 9, 10, 10, 9, 10, 10, 8, 11, 11, 10, 10, 10, 10, 9, 11, 10, 10, 10, 8, 9, 10, 10, 8, 10, 10, 10, 10, 9, 10, 10, 10, 9, 10, 10, 9, 10, 9, 10, 10, 9, 10, 10, 10, 10, 9, 10, 10, 11, 10, 10, 10, 9, 10, 11, 10, 9, 11, 10, 10, 11, 10, 11, 10, 10, 10, 9, 9, 10, 10, 9, 9, 10, 9, 10, 11], strides = [1, 1], use_3ic_optimize = 0 : i64, weight_is_coeff = 1 : i64, with_bias = true} : (tensor<1x1024x20x20x!quant.uniform<i8:f32, 0.1126667905511811>>, tensor<512x1024x1x1xsi8>, tensor<1x512x1x1xi32>) -> tensor<1x512x20x20x!quant.uniform<i8:f32, 0.051372993700787399>> loc(#loc157)
    %158 = "top.Weight"() : () -> tensor<1x1x1x256xsi8> loc(#loc158)
    %159 = "tpu.Lut"(%157, %158) : (tensor<1x512x20x20x!quant.uniform<i8:f32, 0.051372993700787399>>, tensor<1x1x1x256xsi8>) -> tensor<1x512x20x20x!quant.uniform<i8:f32, 0.022859354330708664>> loc(#loc159)
    %160 = "top.Weight"() : () -> tensor<512x1x1x2x2xsi8> loc(#loc160)
    %161 = "tpu.Deconv"(%159, %160, %0) {dilations = [1, 1], do_relu = false, dynweight_reorderd = false, group = 512 : i64, inserts = [0, 0], kernel_shape = [2, 2], multiplier = [1285771776, 1285771776, 1285771776, 1285771776, 1285771776, 1285771776, 1285771776, 1285771776, 1285771776, 1285771776, 1285771776, 1285771776, 1285771776, 1285771776, 1285771776, 1285771776, 1285771776, 1285771776, 1285771776, 1285771776, 1285771776, 1285771776, 1285771776, 1285771776, 1285771776, 1285771776, 1285771776, 1285771776, 1285771776, 1285771776, 1285771776, 1285771776, 1285771776, 1285771776, 1285771776, 1285771776, 1285771776, 1285771776, 1285771776, 1285771776, 1285771776, 1285771776, 1285771776, 1285771776, 1285771776, 1285771776, 1285771776, 1285771776, 1285771776, 1285771776, 1285771776, 1285771776, 1285771776, 1285771776, 1285771776, 1285771776, 1285771776, 1285771776, 1285771776, 1285771776, 1285771776, 1285771776, 1285771776, 1285771776, 1285771776, 1285771776, 1285771776, 1285771776, 1285771776, 1285771776, 1285771776, 1285771776, 1285771776, 1285771776, 1285771776, 1285771776, 1285771776, 1285771776, 1285771776, 1285771776, 1285771776, 1285771776, 1285771776, 1285771776, 1285771776, 1285771776, 1285771776, 1285771776, 1285771776, 1285771776, 1285771776, 1285771776, 1285771776, 1285771776, 1285771776, 1285771776, 1285771776, 1285771776, 1285771776, 1285771776, 1285771776, 1285771776, 1285771776, 1285771776, 1285771776, 1285771776, 1285771776, 1285771776, 1285771776, 1285771776, 1285771776, 1285771776, 1285771776, 1285771776, 1285771776, 1285771776, 1285771776, 1285771776, 1285771776, 1285771776, 1285771776, 1285771776, 1285771776, 1285771776, 1285771776, 1285771776, 1285771776, 1285771776, 1285771776, 1285771776, 1285771776, 1285771776, 1285771776, 1285771776, 1285771776, 1285771776, 1285771776, 1285771776, 1285771776, 1285771776, 1285771776, 1285771776, 1285771776, 1285771776, 1285771776, 1285771776, 1285771776, 1285771776, 1285771776, 1285771776, 1285771776, 1285771776, 1285771776, 1285771776, 1285771776, 1285771776, 1285771776, 1285771776, 1285771776, 1285771776, 1285771776, 1285771776, 1285771776, 1285771776, 1285771776, 1285771776, 1285771776, 1285771776, 1285771776, 1285771776, 1285771776, 1285771776, 1285771776, 1285771776, 1285771776, 1285771776, 1285771776, 1285771776, 1285771776, 1285771776, 1285771776, 1285771776, 1285771776, 1285771776, 1285771776, 1285771776, 1285771776, 1285771776, 1285771776, 1285771776, 1285771776, 1285771776, 1285771776, 1285771776, 1285771776, 1285771776, 1285771776, 1285771776, 1285771776, 1285771776, 1285771776, 1285771776, 1285771776, 1285771776, 1285771776, 1285771776, 1285771776, 1285771776, 1285771776, 1285771776, 1285771776, 1285771776, 1285771776, 1285771776, 1285771776, 1285771776, 1285771776, 1285771776, 1285771776, 1285771776, 1285771776, 1285771776, 1285771776, 1285771776, 1285771776, 1285771776, 1285771776, 1285771776, 1285771776, 1285771776, 1285771776, 1285771776, 1285771776, 1285771776, 1285771776, 1285771776, 1285771776, 1285771776, 1285771776, 1285771776, 1285771776, 1285771776, 1285771776, 1285771776, 1285771776, 1285771776, 1285771776, 1285771776, 1285771776, 1285771776, 1285771776, 1285771776, 1285771776, 1285771776, 1285771776, 1285771776, 1285771776, 1285771776, 1285771776, 1285771776, 1285771776, 1285771776, 1285771776, 1285771776, 1285771776, 1285771776, 1285771776, 1285771776, 1285771776, 1285771776, 1285771776, 1285771776, 1285771776, 1285771776, 1285771776, 1285771776, 1285771776, 1285771776, 1285771776, 1285771776, 1285771776, 1285771776, 1285771776, 1285771776, 1285771776, 1285771776, 1285771776, 1285771776, 1285771776, 1285771776, 1285771776, 1285771776, 1285771776, 1285771776, 1285771776, 1285771776, 1285771776, 1285771776, 1285771776, 1285771776, 1285771776, 1285771776, 1285771776, 1285771776, 1285771776, 1285771776, 1285771776, 1285771776, 1285771776, 1285771776, 1285771776, 1285771776, 1285771776, 1285771776, 1285771776, 1285771776, 1285771776, 1285771776, 1285771776, 1285771776, 1285771776, 1285771776, 1285771776, 1285771776, 1285771776, 1285771776, 1285771776, 1285771776, 1285771776, 1285771776, 1285771776, 1285771776, 1285771776, 1285771776, 1285771776, 1285771776, 1285771776, 1285771776, 1285771776, 1285771776, 1285771776, 1285771776, 1285771776, 1285771776, 1285771776, 1285771776, 1285771776, 1285771776, 1285771776, 1285771776, 1285771776, 1285771776, 1285771776, 1285771776, 1285771776, 1285771776, 1285771776, 1285771776, 1285771776, 1285771776, 1285771776, 1285771776, 1285771776, 1285771776, 1285771776, 1285771776, 1285771776, 1285771776, 1285771776, 1285771776, 1285771776, 1285771776, 1285771776, 1285771776, 1285771776, 1285771776, 1285771776, 1285771776, 1285771776, 1285771776, 1285771776, 1285771776, 1285771776, 1285771776, 1285771776, 1285771776, 1285771776, 1285771776, 1285771776, 1285771776, 1285771776, 1285771776, 1285771776, 1285771776, 1285771776, 1285771776, 1285771776, 1285771776, 1285771776, 1285771776, 1285771776, 1285771776, 1285771776, 1285771776, 1285771776, 1285771776, 1285771776, 1285771776, 1285771776, 1285771776, 1285771776, 1285771776, 1285771776, 1285771776, 1285771776, 1285771776, 1285771776, 1285771776, 1285771776, 1285771776, 1285771776, 1285771776, 1285771776, 1285771776, 1285771776, 1285771776, 1285771776, 1285771776, 1285771776, 1285771776, 1285771776, 1285771776, 1285771776, 1285771776, 1285771776, 1285771776, 1285771776, 1285771776, 1285771776, 1285771776, 1285771776, 1285771776, 1285771776, 1285771776, 1285771776, 1285771776, 1285771776, 1285771776, 1285771776, 1285771776, 1285771776, 1285771776, 1285771776, 1285771776, 1285771776, 1285771776, 1285771776, 1285771776, 1285771776, 1285771776, 1285771776, 1285771776, 1285771776, 1285771776, 1285771776, 1285771776, 1285771776, 1285771776, 1285771776, 1285771776, 1285771776, 1285771776, 1285771776, 1285771776, 1285771776, 1285771776, 1285771776, 1285771776, 1285771776, 1285771776, 1285771776, 1285771776, 1285771776, 1285771776, 1285771776, 1285771776, 1285771776, 1285771776, 1285771776, 1285771776, 1285771776, 1285771776, 1285771776, 1285771776, 1285771776, 1285771776, 1285771776, 1285771776, 1285771776, 1285771776, 1285771776, 1285771776, 1285771776, 1285771776, 1285771776, 1285771776, 1285771776, 1285771776, 1285771776, 1285771776, 1285771776, 1285771776], pads = [0, 0, 0, 0], quant_mode = #tpu<rq_mode QDM>, relu_limit = -1.000000e+00 : f64, rshift = [7, 7, 7, 7, 7, 7, 7, 7, 7, 7, 7, 7, 7, 7, 7, 7, 7, 7, 7, 7, 7, 7, 7, 7, 7, 7, 7, 7, 7, 7, 7, 7, 7, 7, 7, 7, 7, 7, 7, 7, 7, 7, 7, 7, 7, 7, 7, 7, 7, 7, 7, 7, 7, 7, 7, 7, 7, 7, 7, 7, 7, 7, 7, 7, 7, 7, 7, 7, 7, 7, 7, 7, 7, 7, 7, 7, 7, 7, 7, 7, 7, 7, 7, 7, 7, 7, 7, 7, 7, 7, 7, 7, 7, 7, 7, 7, 7, 7, 7, 7, 7, 7, 7, 7, 7, 7, 7, 7, 7, 7, 7, 7, 7, 7, 7, 7, 7, 7, 7, 7, 7, 7, 7, 7, 7, 7, 7, 7, 7, 7, 7, 7, 7, 7, 7, 7, 7, 7, 7, 7, 7, 7, 7, 7, 7, 7, 7, 7, 7, 7, 7, 7, 7, 7, 7, 7, 7, 7, 7, 7, 7, 7, 7, 7, 7, 7, 7, 7, 7, 7, 7, 7, 7, 7, 7, 7, 7, 7, 7, 7, 7, 7, 7, 7, 7, 7, 7, 7, 7, 7, 7, 7, 7, 7, 7, 7, 7, 7, 7, 7, 7, 7, 7, 7, 7, 7, 7, 7, 7, 7, 7, 7, 7, 7, 7, 7, 7, 7, 7, 7, 7, 7, 7, 7, 7, 7, 7, 7, 7, 7, 7, 7, 7, 7, 7, 7, 7, 7, 7, 7, 7, 7, 7, 7, 7, 7, 7, 7, 7, 7, 7, 7, 7, 7, 7, 7, 7, 7, 7, 7, 7, 7, 7, 7, 7, 7, 7, 7, 7, 7, 7, 7, 7, 7, 7, 7, 7, 7, 7, 7, 7, 7, 7, 7, 7, 7, 7, 7, 7, 7, 7, 7, 7, 7, 7, 7, 7, 7, 7, 7, 7, 7, 7, 7, 7, 7, 7, 7, 7, 7, 7, 7, 7, 7, 7, 7, 7, 7, 7, 7, 7, 7, 7, 7, 7, 7, 7, 7, 7, 7, 7, 7, 7, 7, 7, 7, 7, 7, 7, 7, 7, 7, 7, 7, 7, 7, 7, 7, 7, 7, 7, 7, 7, 7, 7, 7, 7, 7, 7, 7, 7, 7, 7, 7, 7, 7, 7, 7, 7, 7, 7, 7, 7, 7, 7, 7, 7, 7, 7, 7, 7, 7, 7, 7, 7, 7, 7, 7, 7, 7, 7, 7, 7, 7, 7, 7, 7, 7, 7, 7, 7, 7, 7, 7, 7, 7, 7, 7, 7, 7, 7, 7, 7, 7, 7, 7, 7, 7, 7, 7, 7, 7, 7, 7, 7, 7, 7, 7, 7, 7, 7, 7, 7, 7, 7, 7, 7, 7, 7, 7, 7, 7, 7, 7, 7, 7, 7, 7, 7, 7, 7, 7, 7, 7, 7, 7, 7, 7, 7, 7, 7, 7, 7, 7, 7, 7, 7, 7, 7, 7, 7, 7, 7, 7, 7, 7, 7, 7, 7, 7, 7, 7, 7, 7, 7, 7, 7, 7, 7, 7, 7, 7, 7, 7, 7, 7, 7, 7, 7, 7, 7, 7, 7, 7, 7, 7, 7, 7, 7, 7, 7, 7], strides = [2, 2], with_bias = false} : (tensor<1x512x20x20x!quant.uniform<i8:f32, 0.022859354330708664>>, tensor<512x1x1x2x2xsi8>, none) -> tensor<1x512x40x40x!quant.uniform<i8:f32, 0.038480098425196847>> loc(#loc161)
    %162 = "tpu.Concat"(%161, %116) {axis = 1 : si32, do_relu = false, multipliers = [108, 96], only_merge = false, relu_limit = -1.000000e+00 : f64, rshifts = [7, 6]} : (tensor<1x512x40x40x!quant.uniform<i8:f32, 0.038480098425196847>>, tensor<1x256x40x40x!quant.uniform<i8:f32, 0.068194662992125982>>) -> tensor<1x768x40x40x!quant.uniform<i8:f32, 0.045266043307086612>> loc(#loc162)
    %163 = "top.Weight"() : () -> tensor<256x768x1x1xsi8> loc(#loc163)
    %164 = "top.Weight"() : () -> tensor<1x256x1x1xi32> loc(#loc164)
    %165 = "tpu.Conv2D"(%162, %163, %164) {coeff_merged = false, dilations = [1, 1], do_relu = false, do_winograd = false, dynweight_reorderd = false, group = 1 : i64, kernel_shape = [1, 1], kernel_zp = 0 : i64, multiplier = [1265689728, 1789776000, 1479665920, 1448877568, 1898560256, 1237310976, 1531127424, 1626414848, 1545994624, 2128179456, 2115543552, 1384362624, 1356675584, 1449274496, 1761530752, 1170484480, 1820687488, 1452272384, 1161100032, 1153708288, 1452008576, 1127893632, 1377684736, 1295500928, 1777708928, 1208032640, 1264990976, 1172363008, 1992257152, 1161451648, 1084764672, 1141832448, 2095137024, 1329515136, 2010944512, 1657843456, 1110577280, 1192011008, 1135748352, 1183026688, 1803906560, 1619995648, 1510462592, 1259260800, 1968620544, 1117250560, 1301635328, 1216336896, 1278491136, 2076675712, 1601239296, 2136976512, 1318825728, 1313086080, 1746119296, 1204438144, 1542685824, 1910191616, 1648160256, 1158212992, 2070578048, 1178498944, 1582078080, 1378550912, 1120607744, 1687876224, 1679303808, 1535898496, 1636198272, 1361001472, 1358641536, 1353220608, 1954161664, 1915168640, 1448848512, 1078825216, 1258013056, 1848772864, 1857769472, 1493209856, 1262388736, 1772795264, 1823593216, 1357577344, 1314150528, 1465909888, 1321791232, 1727644160, 1447591552, 1381729664, 1742439424, 1701963008, 1110604544, 1838941184, 1319888000, 1652275328, 1472214912, 1403373312, 1609586688, 1082751744, 1569429248, 1633148928, 1082071936, 1137835136, 2069892352, 1123024896, 1682148608, 1579538048, 1429264896, 1324914816, 2045618176, 1568442240, 2058812928, 1443359488, 1629311488, 1517149312, 1969239808, 1174839296, 1370571392, 1253740544, 1426937856, 1521170048, 1840315520, 1933587200, 1385622400, 1097154176, 1233648640, 1689264128, 1429961984, 1667928320, 1126434432, 1486739200, 1187816832, 1830908928, 1167759104, 1264163456, 2013455232, 1877986560, 1083969536, 2061333120, 1388099968, 1216615936, 2125621504, 1420396672, 1521654400, 1354929280, 1198182528, 1474710528, 1125606656, 1215902848, 1240961408, 1663521536, 1198179328, 1494454528, 1095012480, 1432306432, 1144106112, 2018977664, 1923584640, 1891481344, 1608639360, 1535155200, 1674711296, 1315177728, 2143032960, 1789880832, 2114012928, 1107745664, 1644593536, 1583208960, 1170395008, 1777139968, 2124083200, 1795790592, 2017979392, 1255237120, 1081270272, 1522109696, 1954948352, 1511055104, 1285526400, 2098642560, 1256652800, 1190925952, 1073854080, 1424422272, 1394392704, 1559736320, 1294456320, 1201239424, 1223603712, 1536829312, 2138843264, 1820249728, 1155278720, 1962754688, 1194891136, 2115005952, 1103085696, 2129584896, 1294153216, 2134455168, 1917338624, 1851962240, 1958641280, 1512616320, 1433710080, 1869217408, 1810731264, 1642951552, 1721093120, 1230920064, 2062941568, 1649475456, 1278907392, 1109482112, 1301969664, 1621001728, 1543893632, 1747388672, 1475823744, 1227764864, 1150736512, 1950978176, 1805794688, 1432939520, 1778936576, 1448333952, 1413652224, 1199550336, 1734915968, 1088941568, 1570371968, 1278094720, 1207445504, 1705223296, 1367298560, 2144550528, 2000836608, 1095204736, 1277327232, 1619120128, 1610866432, 1932910976, 1310503296, 1412793344, 1504884480, 1837400832, 1199722112, 1295275264, 1273839616, 2077886592, 1295429120, 2039344512, 1490662656, 1229193728], pads = [0, 0, 0, 0], quant_mode = #tpu<rq_mode QDM>, relu_limit = -1.000000e+00 : f64, rshift = [9, 9, 9, 9, 9, 9, 9, 10, 9, 9, 9, 9, 9, 9, 9, 9, 9, 9, 8, 9, 9, 9, 10, 9, 9, 9, 8, 9, 9, 9, 8, 9, 9, 9, 9, 9, 9, 8, 9, 9, 9, 9, 9, 9, 9, 9, 9, 9, 9, 10, 9, 10, 9, 9, 9, 8, 9, 10, 10, 9, 9, 9, 9, 9, 8, 9, 8, 9, 9, 9, 9, 9, 9, 9, 9, 9, 9, 10, 9, 9, 9, 9, 9, 9, 9, 9, 9, 9, 9, 10, 9, 9, 8, 9, 9, 9, 9, 9, 9, 9, 9, 9, 9, 9, 10, 9, 9, 9, 9, 9, 9, 9, 9, 8, 9, 9, 10, 9, 9, 8, 9, 9, 9, 9, 9, 9, 9, 9, 9, 10, 9, 9, 9, 10, 9, 9, 9, 8, 9, 10, 9, 8, 10, 9, 9, 9, 9, 9, 9, 9, 9, 9, 9, 9, 9, 9, 9, 10, 10, 10, 8, 9, 10, 9, 10, 10, 10, 9, 9, 9, 8, 10, 10, 10, 9, 9, 9, 9, 10, 9, 9, 9, 9, 9, 9, 10, 9, 10, 8, 9, 9, 9, 10, 10, 9, 9, 9, 9, 8, 9, 9, 9, 10, 10, 9, 9, 9, 9, 9, 9, 9, 9, 10, 9, 8, 9, 9, 9, 9, 9, 9, 9, 9, 10, 10, 9, 10, 10, 9, 9, 9, 8, 8, 9, 10, 9, 9, 10, 9, 8, 9, 9, 9, 10, 9, 9, 9, 10, 9, 9, 10, 9, 9, 11, 9, 9], strides = [1, 1], use_3ic_optimize = 0 : i64, weight_is_coeff = 1 : i64, with_bias = true} : (tensor<1x768x40x40x!quant.uniform<i8:f32, 0.045266043307086612>>, tensor<256x768x1x1xsi8>, tensor<1x256x1x1xi32>) -> tensor<1x256x40x40x!quant.uniform<i8:f32, 0.082929536220472444>> loc(#loc165)
    %166 = "top.Weight"() : () -> tensor<1x1x1x256xsi8> loc(#loc166)
    %167 = "tpu.Lut"(%165, %166) : (tensor<1x256x40x40x!quant.uniform<i8:f32, 0.082929536220472444>>, tensor<1x1x1x256xsi8>) -> tensor<1x256x40x40x!quant.uniform<i8:f32, 0.065625501574803152>> loc(#loc167)
    %168 = "tpu.Slice"(%167, %0, %0, %0, %0) {axes = [], ends = [-1, 128, -1, -1], offset = [0, 0, 0, 0], steps = [1, 1, 1, 1]} : (tensor<1x256x40x40x!quant.uniform<i8:f32, 0.065625501574803152>>, none, none, none, none) -> tensor<1x128x40x40x!quant.uniform<i8:f32, 0.065625501574803152>> loc(#loc168)
    %169 = "tpu.Slice"(%167, %0, %0, %0, %0) {axes = [], ends = [-1, 256, -1, -1], offset = [0, 128, 0, 0], steps = [1, 1, 1, 1]} : (tensor<1x256x40x40x!quant.uniform<i8:f32, 0.065625501574803152>>, none, none, none, none) -> tensor<1x128x40x40x!quant.uniform<i8:f32, 0.065625501574803152>> loc(#loc169)
    %170 = "top.Weight"() : () -> tensor<128x128x3x3xsi8> loc(#loc170)
    %171 = "top.Weight"() : () -> tensor<1x128x1x1xi32> loc(#loc171)
    %172 = "tpu.Conv2D"(%169, %170, %171) {coeff_merged = false, dilations = [1, 1], do_relu = false, do_winograd = false, dynweight_reorderd = false, group = 1 : i64, kernel_shape = [3, 3], kernel_zp = 0 : i64, multiplier = [1458296576, 1108636160, 1943207168, 1582352256, 1090351104, 1154171136, 1368400256, 1978043520, 1874764800, 1988528128, 1416955008, 1456902400, 1756149120, 1168409600, 1988639104, 1695971584, 1351471488, 1281768704, 1561163904, 1949222528, 2056058624, 1182402944, 1930134144, 1129232640, 1957443328, 2119404544, 1318185728, 1922985728, 1173121024, 1110200448, 1822260096, 1965919488, 1620794496, 1644963200, 1421136896, 1366933248, 1496247936, 1703131008, 1153763584, 1452703872, 1096331392, 1501518976, 1195179264, 1328033664, 1102407552, 1696179200, 1149172864, 1446367360, 1884939264, 1190348160, 1117558912, 1350811264, 2112736768, 1765978880, 2073528320, 1118822400, 1939940608, 1230424064, 1268831488, 1203259136, 1406004992, 1183354112, 1300633984, 1524530688, 1455708416, 1849708032, 1988186752, 1082750080, 1254204672, 1475921792, 1101343488, 2068102528, 1700062976, 1505628672, 1907620224, 1260015872, 1764627968, 1268209664, 1930478336, 1775312384, 1310148608, 1698037248, 1126990336, 1150399872, 2128925696, 1465908096, 1586273792, 1529014784, 1358718976, 1200683264, 1208576512, 1579183360, 1775416576, 1498621184, 2084467072, 1610673408, 1179591168, 1367781888, 1592217984, 1951191808, 1488219648, 1842641280, 1705715456, 1161693696, 1426151168, 1729169280, 1655601280, 1534336000, 1280240000, 1247804672, 1129038976, 1261734272, 1757336960, 1206905856, 1414415232, 1464225920, 1261343104, 2077352192, 1769859584, 1154358016, 1835057920, 1152873088, 1082220160, 1559991424, 1215347456, 1728897536, 1104595840, 1895710720], pads = [1, 1, 1, 1], quant_mode = #tpu<rq_mode QDM>, relu_limit = -1.000000e+00 : f64, rshift = [9, 9, 9, 9, 9, 9, 10, 10, 9, 9, 9, 10, 8, 9, 10, 9, 9, 9, 9, 9, 9, 9, 9, 8, 10, 10, 9, 10, 9, 8, 10, 10, 9, 10, 10, 9, 9, 10, 9, 8, 10, 10, 9, 9, 8, 10, 9, 10, 10, 8, 9, 9, 10, 9, 10, 9, 10, 9, 8, 9, 9, 9, 9, 9, 9, 10, 9, 10, 9, 9, 9, 10, 9, 10, 10, 9, 10, 10, 10, 10, 9, 10, 8, 9, 10, 9, 11, 9, 9, 9, 9, 9, 9, 9, 10, 10, 9, 9, 9, 10, 9, 10, 9, 9, 9, 9, 10, 9, 7, 9, 9, 9, 10, 9, 9, 9, 9, 9, 9, 9, 9, 9, 9, 9, 9, 10, 9, 10], strides = [1, 1], use_3ic_optimize = 0 : i64, weight_is_coeff = 1 : i64, with_bias = true} : (tensor<1x128x40x40x!quant.uniform<i8:f32, 0.065625501574803152>>, tensor<128x128x3x3xsi8>, tensor<1x128x1x1xi32>) -> tensor<1x128x40x40x!quant.uniform<i8:f32, 0.071789809448818895>> loc(#loc172)
    %173 = "top.Weight"() : () -> tensor<1x1x1x256xsi8> loc(#loc173)
    %174 = "tpu.Lut"(%172, %173) : (tensor<1x128x40x40x!quant.uniform<i8:f32, 0.071789809448818895>>, tensor<1x1x1x256xsi8>) -> tensor<1x128x40x40x!quant.uniform<i8:f32, 0.052923676377952755>> loc(#loc174)
    %175 = "top.Weight"() : () -> tensor<128x128x3x3xsi8> loc(#loc175)
    %176 = "top.Weight"() : () -> tensor<1x128x1x1xi32> loc(#loc176)
    %177 = "tpu.Conv2D"(%174, %175, %176) {coeff_merged = false, dilations = [1, 1], do_relu = false, do_winograd = false, dynweight_reorderd = false, group = 1 : i64, kernel_shape = [3, 3], kernel_zp = 0 : i64, multiplier = [1399888640, 2101060224, 1921580032, 1992580480, 1990729088, 2022653568, 1700025984, 1620504320, 1123690112, 1220225280, 1150453632, 1174789376, 1452179072, 1555263232, 1800028032, 1822557696, 2083775232, 2088124672, 1160652672, 1921602176, 1340372096, 1605589760, 1859108480, 1740982400, 1867041792, 1233097984, 1141103360, 1231675648, 1462363136, 2004396032, 1232087168, 1109386752, 1371675392, 1671592064, 1511100672, 1874515840, 1219796736, 1267187840, 1261431168, 1449393408, 1620598912, 1112863104, 1605444608, 1831725184, 1160522752, 1605366400, 1949572480, 1612383104, 1472652928, 1100811264, 1915784960, 1114851584, 1175420672, 1599080704, 1652621056, 1780165632, 2039352064, 1592011904, 1850219136, 1305853696, 1803953280, 1874066560, 1325962368, 1101327104, 1251402624, 1701013248, 1338560256, 2144467712, 2142783616, 1319146752, 1558036736, 1669765248, 2062404992, 2082214016, 1168647296, 2020647168, 2130935168, 1608708736, 1772916224, 1255566208, 1478843264, 1277835776, 2024356352, 1129979008, 1428427136, 1293593216, 1912300672, 1148020864, 1414550528, 1230261248, 1373840768, 1930389760, 1290301696, 1172592128, 1719352704, 1873466240, 1506624384, 1238174080, 1688685568, 1557639808, 1352579072, 1545810816, 1154216064, 2050325760, 1141044096, 1501309824, 2134796288, 2133609728, 1932852352, 1865655680, 1451629952, 1270476032, 1431363200, 1963324928, 1340279040, 1304412800, 1085947264, 1937473024, 1921310336, 1419206016, 1138535168, 1171790976, 1552340224, 1788049280, 1367178368, 1074136704, 2141121920, 1591156608], pads = [1, 1, 1, 1], quant_mode = #tpu<rq_mode QDM>, relu_limit = -1.000000e+00 : f64, rshift = [10, 11, 10, 10, 10, 10, 10, 10, 9, 8, 9, 9, 9, 8, 10, 10, 11, 10, 9, 10, 9, 10, 10, 10, 10, 8, 10, 10, 8, 10, 9, 9, 8, 9, 9, 9, 8, 9, 9, 9, 10, 8, 10, 10, 9, 9, 9, 10, 10, 9, 10, 10, 10, 9, 10, 10, 10, 10, 10, 9, 10, 10, 10, 10, 10, 10, 9, 10, 10, 10, 10, 10, 10, 10, 9, 10, 10, 9, 10, 9, 10, 10, 10, 8, 9, 8, 10, 9, 10, 8, 9, 10, 9, 9, 10, 9, 9, 8, 10, 10, 9, 10, 9, 10, 9, 8, 10, 10, 10, 10, 9, 9, 9, 9, 9, 8, 9, 10, 10, 9, 9, 10, 10, 9, 10, 9, 10, 9], strides = [1, 1], use_3ic_optimize = 0 : i64, weight_is_coeff = 1 : i64, with_bias = true} : (tensor<1x128x40x40x!quant.uniform<i8:f32, 0.052923676377952755>>, tensor<128x128x3x3xsi8>, tensor<1x128x1x1xi32>) -> tensor<1x128x40x40x!quant.uniform<i8:f32, 0.073047566141732273>> loc(#loc177)
    %178 = "top.Weight"() : () -> tensor<1x1x1x256xsi8> loc(#loc178)
    %179 = "tpu.Lut"(%177, %178) : (tensor<1x128x40x40x!quant.uniform<i8:f32, 0.073047566141732273>>, tensor<1x1x1x256xsi8>) -> tensor<1x128x40x40x!quant.uniform<i8:f32, 0.066642322047244087>> loc(#loc179)
    %180 = "tpu.Concat"(%168, %169, %179) {axis = 1 : si32, do_relu = false, multipliers = [126, 126, 1], only_merge = false, relu_limit = -1.000000e+00 : f64, rshifts = [7, 7, 0]} : (tensor<1x128x40x40x!quant.uniform<i8:f32, 0.065625501574803152>>, tensor<1x128x40x40x!quant.uniform<i8:f32, 0.065625501574803152>>, tensor<1x128x40x40x!quant.uniform<i8:f32, 0.066642322047244087>>) -> tensor<1x384x40x40x!quant.uniform<i8:f32, 0.066642322047244087>> loc(#loc180)
    %181 = "top.Weight"() : () -> tensor<256x384x1x1xsi8> loc(#loc181)
    %182 = "top.Weight"() : () -> tensor<1x256x1x1xi32> loc(#loc182)
    %183 = "tpu.Conv2D"(%180, %181, %182) {coeff_merged = false, dilations = [1, 1], do_relu = false, do_winograd = false, dynweight_reorderd = false, group = 1 : i64, kernel_shape = [1, 1], kernel_zp = 0 : i64, multiplier = [1981123968, 1152693248, 1237680512, 1313696384, 1198412288, 1546737152, 1190771456, 1778181632, 1752124032, 1318888192, 1249999744, 1986740864, 1250975616, 1736840704, 1533342720, 1792582784, 1662559232, 1943397248, 1986172928, 1802736384, 1521923968, 1730011264, 1466479488, 1726238592, 1395921792, 1267513216, 1877794048, 1386481152, 1536337152, 1338861440, 1990566272, 1905213440, 1630693760, 1147097088, 1189431168, 1083294720, 1086333056, 1593117184, 1273558016, 1962907136, 2129147136, 1381934464, 1790818944, 1314178304, 1211918336, 1950189056, 1123165312, 1444650112, 1270958464, 1425545728, 1092558336, 1412957568, 1512671488, 1139959296, 1686009600, 1269366528, 1313499392, 1956821760, 2106595968, 1350141696, 1080296704, 1468912512, 1631229824, 1744201216, 1191035648, 1852402560, 1883870976, 1910056448, 1717730688, 1106499712, 1352537984, 1136228992, 1246827264, 2137447424, 1656444800, 1481651200, 1788164736, 1491972608, 1372330240, 1296081664, 2070699392, 1103388800, 2034842880, 1105660032, 1455855360, 1358990592, 1248788736, 1209435264, 1484924160, 1359972992, 1789831808, 1194633472, 1357426176, 2110416128, 1288498432, 1626070784, 1474665728, 1285311744, 1536199680, 1088370432, 1365597056, 2037021952, 2118927232, 1348558208, 1431756160, 1704991744, 1159934208, 1870293632, 1278766720, 1322317056, 1587193088, 1661199744, 1179011200, 1474807424, 2017740160, 1147790336, 1114976896, 1153647232, 1621149312, 2066625920, 1165303552, 1966138880, 1846934144, 1413876224, 1547158144, 1234022528, 1495611904, 1631112320, 1151448960, 2070138240, 1330545920, 1961438976, 1854728832, 2103436928, 1097727872, 1666358144, 1460535296, 1805407872, 1532986624, 1463977088, 1385893248, 1506349952, 1746762624, 1924368896, 1117932800, 1595177728, 1159725184, 2102579328, 1100559232, 1914054784, 1444523008, 1577277312, 1895443328, 1312339200, 1101207808, 1730412800, 1790359040, 1561694464, 1093488000, 1689356032, 1162537728, 2033581568, 2035557888, 1861552128, 1575817344, 1777066752, 1493499392, 1989826816, 1572032000, 1136990080, 2018408576, 1984043648, 1361146112, 1504909952, 1916819328, 2003928704, 1114297600, 1680349696, 1148752128, 1798856704, 1621406080, 1597436544, 1624708096, 1601894144, 2117829504, 1578029568, 1612588928, 1332287488, 1144053376, 2094461312, 1723905664, 1132154496, 1611159680, 1957328256, 1122557184, 1839336832, 1456725760, 1100336128, 2064692864, 1871208192, 1695705344, 1679269632, 1203752960, 1642852224, 1451136896, 1312205696, 1214060416, 1339385088, 1713251584, 1437066752, 1098821888, 1391694848, 1099590272, 1636803200, 1427269888, 1812060032, 1250694144, 1077793280, 2085493120, 1993383552, 1502767232, 1330991232, 1791355648, 1493379456, 1753010304, 1073996672, 1091738496, 1417938176, 2028052864, 1177134848, 1783542016, 1962380032, 1781469440, 1465686656, 1340261376, 1759473280, 1457351680, 1200990336, 1507892864, 1251103232, 1148883584, 1166770688, 1794900096, 1443386752, 1910108672, 2126785536, 2110776192, 1723657344, 1123761152, 1174966272, 1116839936, 1835940352, 1136359424, 2073365504, 1853862016, 1954231424], pads = [0, 0, 0, 0], quant_mode = #tpu<rq_mode QDM>, relu_limit = -1.000000e+00 : f64, rshift = [10, 9, 9, 9, 9, 10, 9, 9, 10, 9, 9, 10, 9, 10, 9, 10, 10, 9, 9, 9, 9, 10, 10, 10, 9, 8, 9, 9, 10, 9, 8, 10, 9, 9, 9, 9, 9, 10, 10, 10, 10, 9, 10, 9, 10, 10, 9, 10, 9, 9, 8, 9, 9, 9, 10, 9, 9, 10, 10, 9, 9, 10, 10, 10, 9, 10, 10, 9, 10, 9, 10, 9, 10, 10, 9, 9, 10, 9, 10, 9, 10, 10, 9, 9, 10, 9, 9, 9, 10, 10, 9, 9, 7, 10, 9, 9, 10, 9, 9, 9, 9, 10, 10, 9, 9, 9, 9, 10, 9, 9, 10, 9, 9, 9, 10, 9, 9, 9, 10, 10, 9, 10, 10, 9, 10, 10, 10, 10, 9, 10, 9, 10, 9, 9, 9, 10, 10, 10, 10, 9, 10, 10, 10, 10, 9, 9, 9, 9, 9, 10, 9, 9, 10, 9, 9, 10, 10, 9, 9, 9, 9, 10, 11, 10, 10, 9, 9, 10, 9, 9, 10, 10, 9, 10, 10, 10, 10, 10, 9, 10, 10, 10, 10, 9, 10, 10, 10, 9, 9, 10, 9, 9, 10, 10, 8, 10, 9, 9, 9, 10, 10, 9, 9, 10, 9, 10, 9, 9, 10, 10, 9, 9, 9, 10, 9, 10, 9, 9, 9, 10, 10, 9, 10, 9, 10, 9, 10, 10, 10, 9, 10, 10, 10, 10, 10, 10, 9, 9, 10, 9, 9, 9, 10, 10, 10, 10, 10, 10, 9, 9, 9, 10, 9, 10, 10, 10], strides = [1, 1], use_3ic_optimize = 0 : i64, weight_is_coeff = 1 : i64, with_bias = true} : (tensor<1x384x40x40x!quant.uniform<i8:f32, 0.066642322047244087>>, tensor<256x384x1x1xsi8>, tensor<1x256x1x1xi32>) -> tensor<1x256x40x40x!quant.uniform<i8:f32, 0.11461695275590551>> loc(#loc183)
    %184 = "top.Weight"() : () -> tensor<1x1x1x256xsi8> loc(#loc184)
    %185 = "tpu.Lut"(%183, %184) : (tensor<1x256x40x40x!quant.uniform<i8:f32, 0.11461695275590551>>, tensor<1x1x1x256xsi8>) -> tensor<1x256x40x40x!quant.uniform<i8:f32, 0.0860876220472441>> loc(#loc185)
    %186 = "top.Weight"() : () -> tensor<256x1x1x2x2xsi8> loc(#loc186)
    %187 = "tpu.Deconv"(%185, %186, %0) {dilations = [1, 1], do_relu = false, dynweight_reorderd = false, group = 256 : i64, inserts = [0, 0], kernel_shape = [2, 2], multiplier = [1448680960, 1448680960, 1448680960, 1448680960, 1448680960, 1448680960, 1448680960, 1448680960, 1448680960, 1448680960, 1448680960, 1448680960, 1448680960, 1448680960, 1448680960, 1448680960, 1448680960, 1448680960, 1448680960, 1448680960, 1448680960, 1448680960, 1448680960, 1448680960, 1448680960, 1448680960, 1448680960, 1448680960, 1448680960, 1448680960, 1448680960, 1448680960, 1448680960, 1448680960, 1448680960, 1448680960, 1448680960, 1448680960, 1448680960, 1448680960, 1448680960, 1448680960, 1448680960, 1448680960, 1448680960, 1448680960, 1448680960, 1448680960, 1448680960, 1448680960, 1448680960, 1448680960, 1448680960, 1448680960, 1448680960, 1448680960, 1448680960, 1448680960, 1448680960, 1448680960, 1448680960, 1448680960, 1448680960, 1448680960, 1448680960, 1448680960, 1448680960, 1448680960, 1448680960, 1448680960, 1448680960, 1448680960, 1448680960, 1448680960, 1448680960, 1448680960, 1448680960, 1448680960, 1448680960, 1448680960, 1448680960, 1448680960, 1448680960, 1448680960, 1448680960, 1448680960, 1448680960, 1448680960, 1448680960, 1448680960, 1448680960, 1448680960, 1448680960, 1448680960, 1448680960, 1448680960, 1448680960, 1448680960, 1448680960, 1448680960, 1448680960, 1448680960, 1448680960, 1448680960, 1448680960, 1448680960, 1448680960, 1448680960, 1448680960, 1448680960, 1448680960, 1448680960, 1448680960, 1448680960, 1448680960, 1448680960, 1448680960, 1448680960, 1448680960, 1448680960, 1448680960, 1448680960, 1448680960, 1448680960, 1448680960, 1448680960, 1448680960, 1448680960, 1448680960, 1448680960, 1448680960, 1448680960, 1448680960, 1448680960, 1448680960, 1448680960, 1448680960, 1448680960, 1448680960, 1448680960, 1448680960, 1448680960, 1448680960, 1448680960, 1448680960, 1448680960, 1448680960, 1448680960, 1448680960, 1448680960, 1448680960, 1448680960, 1448680960, 1448680960, 1448680960, 1448680960, 1448680960, 1448680960, 1448680960, 1448680960, 1448680960, 1448680960, 1448680960, 1448680960, 1448680960, 1448680960, 1448680960, 1448680960, 1448680960, 1448680960, 1448680960, 1448680960, 1448680960, 1448680960, 1448680960, 1448680960, 1448680960, 1448680960, 1448680960, 1448680960, 1448680960, 1448680960, 1448680960, 1448680960, 1448680960, 1448680960, 1448680960, 1448680960, 1448680960, 1448680960, 1448680960, 1448680960, 1448680960, 1448680960, 1448680960, 1448680960, 1448680960, 1448680960, 1448680960, 1448680960, 1448680960, 1448680960, 1448680960, 1448680960, 1448680960, 1448680960, 1448680960, 1448680960, 1448680960, 1448680960, 1448680960, 1448680960, 1448680960, 1448680960, 1448680960, 1448680960, 1448680960, 1448680960, 1448680960, 1448680960, 1448680960, 1448680960, 1448680960, 1448680960, 1448680960, 1448680960, 1448680960, 1448680960, 1448680960, 1448680960, 1448680960, 1448680960, 1448680960, 1448680960, 1448680960, 1448680960, 1448680960, 1448680960, 1448680960, 1448680960, 1448680960, 1448680960, 1448680960, 1448680960, 1448680960, 1448680960, 1448680960, 1448680960, 1448680960, 1448680960, 1448680960, 1448680960, 1448680960, 1448680960, 1448680960, 1448680960], pads = [0, 0, 0, 0], quant_mode = #tpu<rq_mode QDM>, relu_limit = -1.000000e+00 : f64, rshift = [6, 6, 6, 6, 6, 6, 6, 6, 6, 6, 6, 6, 6, 6, 6, 6, 6, 6, 6, 6, 6, 6, 6, 6, 6, 6, 6, 6, 6, 6, 6, 6, 6, 6, 6, 6, 6, 6, 6, 6, 6, 6, 6, 6, 6, 6, 6, 6, 6, 6, 6, 6, 6, 6, 6, 6, 6, 6, 6, 6, 6, 6, 6, 6, 6, 6, 6, 6, 6, 6, 6, 6, 6, 6, 6, 6, 6, 6, 6, 6, 6, 6, 6, 6, 6, 6, 6, 6, 6, 6, 6, 6, 6, 6, 6, 6, 6, 6, 6, 6, 6, 6, 6, 6, 6, 6, 6, 6, 6, 6, 6, 6, 6, 6, 6, 6, 6, 6, 6, 6, 6, 6, 6, 6, 6, 6, 6, 6, 6, 6, 6, 6, 6, 6, 6, 6, 6, 6, 6, 6, 6, 6, 6, 6, 6, 6, 6, 6, 6, 6, 6, 6, 6, 6, 6, 6, 6, 6, 6, 6, 6, 6, 6, 6, 6, 6, 6, 6, 6, 6, 6, 6, 6, 6, 6, 6, 6, 6, 6, 6, 6, 6, 6, 6, 6, 6, 6, 6, 6, 6, 6, 6, 6, 6, 6, 6, 6, 6, 6, 6, 6, 6, 6, 6, 6, 6, 6, 6, 6, 6, 6, 6, 6, 6, 6, 6, 6, 6, 6, 6, 6, 6, 6, 6, 6, 6, 6, 6, 6, 6, 6, 6, 6, 6, 6, 6, 6, 6, 6, 6, 6, 6, 6, 6, 6, 6, 6, 6, 6, 6, 6, 6, 6, 6, 6, 6], strides = [2, 2], with_bias = false} : (tensor<1x256x40x40x!quant.uniform<i8:f32, 0.0860876220472441>>, tensor<256x1x1x2x2xsi8>, none) -> tensor<1x256x80x80x!quant.uniform<i8:f32, 0.064309346456692909>> loc(#loc187)
    %188 = "tpu.Concat"(%187, %76) {axis = 1 : si32, do_relu = false, multipliers = [1, 109], only_merge = false, relu_limit = -1.000000e+00 : f64, rshifts = [0, 7]} : (tensor<1x256x80x80x!quant.uniform<i8:f32, 0.064309346456692909>>, tensor<1x128x80x80x!quant.uniform<i8:f32, 0.05504761181102362>>) -> tensor<1x384x80x80x!quant.uniform<i8:f32, 0.064309346456692909>> loc(#loc188)
    %189 = "top.Weight"() : () -> tensor<128x384x1x1xsi8> loc(#loc189)
    %190 = "top.Weight"() : () -> tensor<1x128x1x1xi32> loc(#loc190)
    %191 = "tpu.Conv2D"(%188, %189, %190) {coeff_merged = false, dilations = [1, 1], do_relu = false, do_winograd = false, dynweight_reorderd = false, group = 1 : i64, kernel_shape = [1, 1], kernel_zp = 0 : i64, multiplier = [1677792000, 1167880064, 1644552960, 1581443456, 1562954496, 1530537856, 1805377920, 1457216768, 2082552832, 1095284608, 1402034048, 2138968192, 1347234944, 1869290752, 1495724288, 1206239360, 1920750720, 1458189056, 1754941184, 1300736384, 1111762688, 1497538432, 1179479296, 1462277760, 2115588480, 1147130112, 2006416640, 1269221376, 1933892864, 1873742080, 1818065920, 1929529344, 1983249664, 1081549824, 1245918592, 1286901888, 1955318656, 1473845632, 1502476672, 1848833536, 1568178048, 1528369920, 1840538880, 1179540864, 1877502080, 1667312768, 1109618944, 1219458048, 1814671360, 1134815488, 1703834112, 2136145024, 1544621440, 1463484800, 1362350592, 1767267456, 1397269376, 1087106816, 1788614272, 1823435904, 1765073792, 1091859968, 1275648768, 1303239296, 2057132288, 1340024960, 1170999936, 1213624832, 1835050752, 1804751872, 1687732224, 1802807296, 1603114880, 1228046464, 1267046528, 1390265344, 1989639168, 1759198080, 1394190336, 2026608128, 1883248128, 1973502848, 1480988288, 1528710016, 1138260736, 2067894272, 2039202944, 1447417088, 1074177920, 1394112768, 1720498688, 2040847232, 1800547456, 1189223680, 1849442688, 1725583232, 1255805952, 1256262912, 1145495680, 1369100800, 2017677696, 1287741440, 1556918144, 1960780160, 1857495424, 1703841664, 1528482816, 1210277888, 1818206208, 1145077760, 1911904640, 2083963904, 1361344384, 1869139072, 1448265472, 1529996416, 1523136640, 1941355648, 1387181952, 1874367488, 1206558976, 1545873536, 1816364928, 1116135168, 1611623168, 1822004480, 1235704448, 1302064768], pads = [0, 0, 0, 0], quant_mode = #tpu<rq_mode QDM>, relu_limit = -1.000000e+00 : f64, rshift = [8, 9, 9, 10, 9, 8, 8, 9, 10, 9, 9, 9, 9, 9, 9, 9, 10, 9, 9, 9, 8, 10, 9, 9, 10, 7, 10, 9, 10, 9, 9, 10, 9, 8, 9, 8, 9, 10, 9, 10, 9, 9, 9, 9, 9, 9, 9, 9, 10, 9, 9, 10, 9, 9, 10, 9, 10, 9, 9, 10, 9, 9, 9, 9, 9, 9, 9, 8, 9, 9, 10, 9, 8, 9, 9, 9, 9, 9, 9, 10, 9, 9, 8, 8, 9, 9, 10, 9, 9, 8, 9, 9, 9, 9, 10, 9, 8, 9, 9, 8, 9, 8, 8, 9, 10, 9, 9, 8, 9, 8, 9, 9, 9, 9, 10, 9, 9, 9, 8, 9, 8, 8, 9, 8, 9, 9, 9, 8], strides = [1, 1], use_3ic_optimize = 0 : i64, weight_is_coeff = 1 : i64, with_bias = true} : (tensor<1x384x80x80x!quant.uniform<i8:f32, 0.064309346456692909>>, tensor<128x384x1x1xsi8>, tensor<1x128x1x1xi32>) -> tensor<1x128x80x80x!quant.uniform<i8:f32, 0.079877237795275585>> loc(#loc191)
    %192 = "top.Weight"() : () -> tensor<1x1x1x256xsi8> loc(#loc192)
    %193 = "tpu.Lut"(%191, %192) : (tensor<1x128x80x80x!quant.uniform<i8:f32, 0.079877237795275585>>, tensor<1x1x1x256xsi8>) -> tensor<1x128x80x80x!quant.uniform<i8:f32, 0.068788246456692917>> loc(#loc193)
    %194 = "tpu.Slice"(%193, %0, %0, %0, %0) {axes = [], ends = [-1, 64, -1, -1], offset = [0, 0, 0, 0], steps = [1, 1, 1, 1]} : (tensor<1x128x80x80x!quant.uniform<i8:f32, 0.068788246456692917>>, none, none, none, none) -> tensor<1x64x80x80x!quant.uniform<i8:f32, 0.068788246456692917>> loc(#loc194)
    %195 = "tpu.Slice"(%193, %0, %0, %0, %0) {axes = [], ends = [-1, 128, -1, -1], offset = [0, 64, 0, 0], steps = [1, 1, 1, 1]} : (tensor<1x128x80x80x!quant.uniform<i8:f32, 0.068788246456692917>>, none, none, none, none) -> tensor<1x64x80x80x!quant.uniform<i8:f32, 0.068788246456692917>> loc(#loc195)
    %196 = "top.Weight"() : () -> tensor<64x64x3x3xsi8> loc(#loc196)
    %197 = "top.Weight"() : () -> tensor<1x64x1x1xi32> loc(#loc197)
    %198 = "tpu.Conv2D"(%195, %196, %197) {coeff_merged = false, dilations = [1, 1], do_relu = false, do_winograd = false, dynweight_reorderd = false, group = 1 : i64, kernel_shape = [3, 3], kernel_zp = 0 : i64, multiplier = [1157362048, 1851812224, 1576116224, 1617660288, 2043606528, 2118671488, 1132517888, 1454675072, 1612354048, 1985513600, 2031352704, 1761643520, 1189314304, 2055089024, 1703336704, 1601164672, 2072757760, 1311193984, 1331037440, 1226681088, 1780382464, 1704410368, 1515668992, 2019492992, 1163770240, 1694024704, 1719230848, 1143431552, 1240869760, 2031769088, 2072840064, 2141791104, 1197270272, 1342144896, 2050067968, 1493612032, 1887366144, 1289129344, 2016106752, 1576260352, 1700859776, 1331160832, 1822369792, 1699517824, 1820991872, 1803009024, 1263091584, 1467861504, 1360156928, 1448637952, 1401301504, 1809270400, 1688778496, 1194557952, 1646659840, 1734328576, 1371946624, 1898855936, 1445345024, 1416953984, 1581980288, 1229116544,…
11, 10, 9, 10, 10, 10, 10, 10, 10, 10, 9, 8, 8, 9, 9, 10, 10, 10, 10, 9, 9, 9, 9, 10, 9, 9, 9, 9, 9, 10, 9, 10, 10, 9, 10, 10, 8, 11, 9, 10, 11, 9, 9, 8, 9, 10, 10, 10, 9, 11, 9, 10, 10, 9, 10, 10, 10, 9, 10, 9, 10, 11, 10, 11, 9, 9, 9, 9, 9, 9, 10, 10, 9, 9, 10, 10, 10, 9, 10, 10, 11, 10, 10, 10, 10, 10, 10, 9, 9, 10, 9, 11, 9, 10, 10, 9, 10, 10, 8, 9, 10, 10, 10, 9, 10, 10, 9, 10, 11, 9, 10, 9, 11, 10, 9, 10, 11, 10, 9, 11, 10, 9, 10, 10, 10, 9, 10, 10, 9, 10, 10, 10, 10, 10, 9, 10, 10, 10, 9, 9, 9, 10, 9, 9, 10, 10, 10, 10, 10, 10, 10, 9, 9, 10, 10, 10, 10, 9, 10, 10, 10, 10, 10, 10, 9, 10, 10, 9, 10, 11, 10, 10, 9, 10, 9, 10, 9, 10, 10, 10, 9, 10, 10, 10, 9, 10, 10, 10, 8, 10, 10, 9, 9, 9, 10, 11, 10, 11, 10, 9, 10, 9, 10, 10, 9, 10, 10, 10, 9, 9, 10, 10, 9, 9, 9, 9, 10, 9, 10, 10, 10, 10, 10, 10, 10, 10, 10, 10, 10, 10, 10, 10, 10, 10, 9, 10, 10, 9, 9, 9], strides = [1, 1], use_3ic_optimize = 0 : i64, weight_is_coeff = 1 : i64, with_bias = true} : (tensor<1x256x20x20x!quant.uniform<i8:f32, 0.068294201574803148>>, tensor<256x256x3x3xsi8>, tensor<1x256x1x1xi32>) -> tensor<1x256x20x20x!quant.uniform<i8:f32, 0.10184211417322835>> loc(#loc317)
    %318 = "top.Weight"() : () -> tensor<1x1x1x256xsi8> loc(#loc318)
    %319 = "tpu.Lut"(%317, %318) : (tensor<1x256x20x20x!quant.uniform<i8:f32, 0.10184211417322835>>, tensor<1x1x1x256xsi8>) -> tensor<1x256x20x20x!quant.uniform<i8:f32, 0.14138108425196849>> loc(#loc319)
    %320 = "tpu.Concat"(%306, %307, %319) {axis = 1 : si32, do_relu = false, multipliers = [114, 114, 74], only_merge = false, relu_limit = -1.000000e+00 : f64, rshifts = [7, 7, 7]} : (tensor<1x256x20x20x!quant.uniform<i8:f32, 0.21550783070866139>>, tensor<1x256x20x20x!quant.uniform<i8:f32, 0.21550783070866139>>, tensor<1x256x20x20x!quant.uniform<i8:f32, 0.14138108425196849>>) -> tensor<1x768x20x20x!quant.uniform<i8:f32, 0.2418954220472441>> loc(#loc320)
    %321 = "top.Weight"() : () -> tensor<512x768x1x1xsi8> loc(#loc321)
    %322 = "top.Weight"() : () -> tensor<1x512x1x1xi32> loc(#loc322)
    %323 = "tpu.Conv2D"(%320, %321, %322) {coeff_merged = false, dilations = [1, 1], do_relu = false, do_winograd = false, dynweight_reorderd = false, group = 1 : i64, kernel_shape = [1, 1], kernel_zp = 0 : i64, multiplier = [1169432320, 1900435840, 1219581824, 1378481152, 1341209472, 1510931456, 1527251584, 2062208256, 1753011840, 1948107136, 1267245312, 1454251392, 2065579264, 1566778112, 1267925632, 1914896512, 1767497600, 1109971840, 1114691072, 2027072000, 1147312000, 1429854592, 1176643200, 1463818112, 1139081216, 1899704192, 1376172928, 1337175936, 1976222976, 1944308608, 1822722432, 1847876096, 1219609728, 1748725248, 1131060864, 2033987456, 1354973056, 1355418112, 1543153280, 1778096384, 1954171904, 1188256768, 1510940032, 1091949184, 1696180096, 1930667008, 1251100416, 1317761664, 1343022592, 1816870528, 2075702144, 1150189312, 1403542528, 1698432768, 1385426560, 1961030528, 1131153152, 1263977216, 1481554176, 1901114752, 1992067712, 1304745216, 1811000064, 1111583488, 1689695104, 1168809216, 1182255360, 1465136256, 1664246784, 2123684864, 1093046400, 1467438208, 1969667584, 2083148288, 1618767232, 1786386816, 2081808768, 1268313216, 2132391808, 1769752576, 1212654336, 1237681792, 1595769344, 1091444608, 1168840960, 1489375616, 1233573760, 2101478912, 1737382784, 1078306048, 1437881216, 1141306752, 2001439232, 2072090112, 1093247616, 1763330944, 1507436032, 1625848448, 1702787968, 1568394624, 1439448064, 1659319552, 1929137024, 2015919360, 1456645504, 1726445696, 1725648768, 1751484928, 1862421248, 1098095744, 1333916032, 1708976896, 1858216704, 1352215168, 1844309632, 1888447744, 1877895296, 1239777536, 1451744512, 1206280320, 1463128064, 1478541440, 1360237312, 1289002880, 1303365120, 1655555712, 1164407680, 2088348672, 1364297472, 1514438400, 1699274112, 1726484096, 1365124608, 1725429504, 1847850368, 1439449984, 1209905920, 1463445632, 1124089984, 2092796288, 1418649984, 1241862528, 1975219072, 1686922496, 1951141120, 1742681088, 1761650816, 1292113024, 1478772480, 1345711232, 1360502784, 1307336320, 1256240384, 1424409472, 1661570688, 1217321856, 1211064320, 1818918528, 1747519616, 1726141568, 1737913344, 2096717568, 1160396416, 1992495744, 1884622080, 1643343104, 1359879296, 1362816896, 1144791424, 1996656896, 1326292480, 1414960768, 1273227776, 1198210176, 1302658816, 1489691008, 1384124032, 1276062976, 1456292864, 1600430080, 1932466816, 1489420928, 1362216448, 1265710080, 2001463296, 1428266112, 1114619136, 1844626816, 1120772096, 1141086464, 1641204864, 1113076224, 1951327616, 1872873088, 1505649920, 1882745344, 1975340928, 1876802304, 1701770368, 1641530624, 1949293056, 1264721792, 1487985280, 1448601856, 1208025472, 1781365376, 2079271936, 1090804992, 1312587264, 1599671552, 1262345984, 1100445056, 1224871552, 1618383488, 1192275840, 1265943552, 1880155776, 1756710272, 1284486272, 1871363840, 1445756672, 1963733376, 2077766400, 2130175360, 1702906112, 1462299008, 1116457088, 1594116224, 1968507520, 1290640512, 1117032064, 1871822336, 1126671360, 1827393536, 1202216192, 1289458816, 1176635136, 1079693440, 1299861760, 1613775744, 1383477120, 1156557568, 1597252224, 1514060928, 1201228032, 1190699136, 1693698048, 1572669312, 1762150016, 1167414144, 1501149184, 1304099328, 1455381376, 1525463552, 1674464000, 1281272704, 1612555264, 1147004416, 1582154368, 1635745920, 1906894848, 1228201728, 1965321600, 1244937728, 1142868224, 2047605504, 1377030400, 1324598272, 1954113408, 1798020224, 1406244224, 1797681920, 1108219648, 1604001280, 1545092224, 1604553600, 1570547072, 2048552192, 1250498048, 1885086336, 2100626176, 1558879488, 1383834240, 1813255680, 2015555584, 1124807040, 2081879552, 2056463232, 1689225728, 1084424064, 1395654144, 1559651840, 1553954560, 1224145664, 1847823232, 1619222656, 1337049472, 1239020928, 1118245632, 1150570112, 1201353984, 1414483584, 1112571136, 1331769728, 1442609280, 1262210304, 1914007680, 2064382976, 1330135040, 2020898432, 1564269056, 1476252928, 1080230784, 1096474624, 1384298368, 1362462464, 1108126976, 1190099840, 1853587200, 1733022848, 2012397696, 1563952128, 1708783616, 2082124288, 1078202240, 1988739072, 1775028352, 1568373248, 1848577408, 1991229312, 1268259584, 1718312576, 1317174272, 1240530816, 1433891840, 1494015744, 1619170688, 1399063168, 1084140288, 1441350528, 1466269184, 1328591744, 1914463104, 2043454080, 1819425152, 1952589952, 1574228096, 1836233088, 1161131520, 1514977664, 1896159104, 2021353984, 1481603200, 1757976576, 1955401600, 1187363200, 1194967936, 1128297472, 1109075456, 2008073856, 1602105984, 1343166976, 1119942144, 1424288128, 2071157248, 1216782080, 1797815680, 1249700352, 1172972928, 1738002176, 1182428928, 2037940352, 1717810048, 1238522368, 1770487424, 1190478208, 1161909504, 1220178816, 1470115840, 1383599104, 1818452096, 1410304000, 1383755136, 1936117504, 1177578240, 1694925312, 1159015808, 1347631360, 1998470272, 1701980416, 2101935744, 2136462720, 1838289536, 1736680960, 1906081536, 1174279168, 2120519168, 1680756992, 1193830016, 1635685504, 1433621632, 1622556160, 1463619712, 1701239040, 1416669568, 1425473920, 1178248448, 1794901120, 1250108160, 1286265728, 1722076032, 2132309120, 1344640768, 1847494144, 1946978688, 1825556864, 1930496768, 1545913344, 1966070528, 1525522048, 1372293760, 1370855808, 2107776000, 1394671744, 1960381312, 1312229760, 1958834560, 1792231680, 1838395008, 1700329856, 1604534656, 2020677888, 1113674496, 2000803456, 2069266944, 1174680704, 1307994112, 1829187200, 1449173248, 1506043392, 1090845696, 1216697216, 1265912960, 1571039232, 1422538240, 1757423872, 1147737984, 1264373248, 2116554240, 2032059136, 2035119616, 1432023424, 1250151424, 1855583744, 1358029440, 1554056320, 1295307648, 1126857728, 1358505600, 2063689472, 1925346176, 1558353408, 1793571456, 1512029056, 1475508992, 2133270144, 1293280768, 1148607872, 1147027456, 1541403008, 1202160128, 1188422528, 2135926016, 1239248000, 1808763264, 2078758912, 2037611648, 1916065152, 1520036224, 1576413312, 1514026368, 1188638080, 1580658944, 1925294336, 1696278528, 1227918848, 1109017088, 1422757376, 2008712960, 2078477184, 1082878592, 1612007680, 1387045120, 1940877312, 1862399232, 2120068352, 2006899200, 1132545920, 1964055424, 2000973568, 1209954560, 1162996608, 1129823872, 1464225408, 1482118656, 1101865088, 1894466688, 1943961728, 1118083840, 1158581504, 1287952000, 1208553088], pads = [0, 0, 0, 0], quant_mode = #tpu<rq_mode QDM>, relu_limit = -1.000000e+00 : f64, rshift = [7, 9, 9, 8, 8, 9, 8, 10, 9, 10, 9, 8, 10, 10, 8, 10, 10, 8, 8, 9, 8, 8, 9, 9, 8, 9, 9, 8, 9, 9, 10, 10, 9, 9, 7, 9, 8, 8, 8, 9, 10, 7, 8, 8, 8, 10, 9, 8, 9, 10, 10, 9, 8, 10, 8, 9, 8, 9, 8, 9, 9, 8, 10, 7, 10, 8, 6, 8, 9, 9, 8, 7, 9, 10, 9, 9, 9, 9, 10, 9, 9, 9, 8, 8, 9, 9, 8, 10, 10, 7, 8, 8, 9, 9, 9, 9, 10, 9, 9, 10, 9, 7, 10, 10, 8, 8, 8, 9, 10, 9, 7, 9, 10, 8, 9, 9, 8, 9, 8, 9, 8, 9, 7, 7, 10, 10, 9, 8, 9, 8, 8, 8, 9, 10, 9, 8, 9, 9, 8, 10, 8, 9, 10, 8, 10, 8, 9, 8, 9, 9, 8, 9, 9, 8, 8, 9, 9, 10, 10, 10, 9, 7, 9, 9, 8, 10, 8, 9, 9, 9, 8, 9, 9, 8, 9, 9, 9, 8, 10, 9, 10, 9, 8, 8, 8, 8, 8, 9, 9, 9, 9, 8, 7, 10, 9, 9, 9, 10, 8, 8, 10, 8, 10, 8, 8, 10, 10, 7, 9, 8, 9, 8, 8, 8, 8, 8, 9, 9, 9, 10, 9, 9, 9, 9, 9, 9, 9, 8, 10, 9, 8, 8, 8, 9, 8, 9, 9, 8, 8, 8, 10, 9, 8, 9, 8, 8, 10, 8, 8, 9, 8, 9, 9, 10, 10, 9, 10, 8, 9, 9, 10, 8, 9, 8, 7, 8, 9, 8, 10, 9, 8, 10, 8, 8, 9, 8, 8, 8, 9, 8, 8, 8, 9, 9, 8, 9, 9, 10, 9, 9, 9, 9, 8, 9, 10, 8, 9, 8, 9, 8, 8, 9, 9, 9, 9, 8, 9, 9, 9, 9, 10, 9, 7, 8, 8, 10, 8, 9, 8, 9, 9, 8, 8, 10, 9, 9, 10, 10, 9, 8, 8, 9, 8, 7, 8, 7, 10, 6, 8, 8, 8, 8, 8, 10, 8, 10, 8, 8, 8, 8, 9, 8, 8, 8, 10, 9, 9, 8, 9, 10, 9, 8, 8, 9, 10, 9, 9, 7, 9, 9, 7, 10, 10, 9, 8, 8, 9, 9, 8, 9, 8, 9, 8, 10, 9, 9, 8, 9, 9, 8, 8, 9, 10, 10, 7, 9, 9, 8, 6, 10, 9, 8, 8, 9, 10, 10, 7, 8, 9, 8, 10, 9, 8, 8, 9, 10, 9, 8, 10, 10, 9, 9, 10, 8, 10, 7, 10, 10, 10, 9, 10, 10, 9, 10, 10, 9, 9, 9, 8, 9, 7, 8, 8, 9, 8, 9, 7, 9, 10, 10, 8, 8, 9, 10, 9, 9, 8, 7, 9, 9, 10, 8, 10, 9, 8, 9, 9, 8, 9, 10, 8, 7, 10, 9, 10, 9, 8, 10, 9, 8, 9, 9, 10, 10, 8, 8, 9, 8, 9, 10, 9, 8, 9, 9, 8, 9, 9, 8, 10, 9, 9, 8, 9, 8, 8, 9, 10, 8, 8, 9, 7, 10], strides = [1, 1], use_3ic_optimize = 0 : i64, weight_is_coeff = 1 : i64, with_bias = true} : (tensor<1x768x20x20x!quant.uniform<i8:f32, 0.2418954220472441>>, tensor<512x768x1x1xsi8>, tensor<1x512x1x1xi32>) -> tensor<1x512x20x20x!quant.uniform<i8:f32, 0.20640631574803148>> loc(#loc323)
    %324 = "top.Weight"() : () -> tensor<1x1x1x256xsi8> loc(#loc324)
    %325 = "tpu.Lut"(%323, %324) : (tensor<1x512x20x20x!quant.uniform<i8:f32, 0.20640631574803148>>, tensor<1x1x1x256xsi8>) -> tensor<1x512x20x20x!quant.uniform<i8:f32, 0.23920146614173229>> loc(#loc325)
    %326 = "top.Weight"() : () -> tensor<64x512x3x3xsi8> loc(#loc326)
    %327 = "top.Weight"() : () -> tensor<1x64x1x1xi32> loc(#loc327)
    %328 = "tpu.Conv2D"(%325, %326, %327) {coeff_merged = false, dilations = [1, 1], do_relu = false, do_winograd = false, dynweight_reorderd = false, group = 1 : i64, kernel_shape = [3, 3], kernel_zp = 0 : i64, multiplier = [1902057600, 1556780544, 1355394944, 1873353728, 1774299264, 1532854656, 2000180864, 1474492416, 1084299008, 1683487872, 1385059200, 1107973632, 2060727680, 1423850624, 2090628352, 1951951872, 1647305984, 1678827392, 1775014656, 1930322432, 1191517568, 1775142656, 1467405824, 1567496960, 1373628160, 1563278848, 1200924928, 2111799296, 1650464896, 1353891456, 1902105984, 1458954496, 1586923520, 1917863168, 1130245632, 1359077120, 1955127424, 1868388992, 1885757184, 1815072896, 1736055168, 1173224832, 1170139392, 1971299200, 1513103616, 1272105088, 2050280192, 1504413568, 1532424320, 1294641280, 1100677504, 1853148160, 1537000320, 1300033152, 1154353408, 1246998784, 1314506624, 1376481024, 1257178624, 1523222912, 1513684992, 1363149440, 1193068288, 1180299136], pads = [1, 1, 1, 1], quant_mode = #tpu<rq_mode QDM>, relu_limit = -1.000000e+00 : f64, rshift = [10, 9, 9, 10, 9, 9, 9, 9, 8, 9, 9, 9, 10, 9, 9, 9, 9, 10, 10, 9, 9, 9, 9, 9, 10, 9, 8, 9, 10, 9, 9, 9, 10, 10, 9, 10, 9, 10, 9, 10, 9, 9, 9, 10, 9, 9, 9, 9, 9, 9, 9, 9, 9, 9, 9, 9, 10, 9, 9, 9, 9, 9, 9, 9], strides = [1, 1], use_3ic_optimize = 0 : i64, weight_is_coeff = 1 : i64, with_bias = true} : (tensor<1x512x20x20x!quant.uniform<i8:f32, 0.23920146614173229>>, tensor<64x512x3x3xsi8>, tensor<1x64x1x1xi32>) -> tensor<1x64x20x20x!quant.uniform<i8:f32, 0.16071241496062993>> loc(#loc328)
    %329 = "top.Weight"() : () -> tensor<128x512x3x3xsi8> loc(#loc329)
    %330 = "top.Weight"() : () -> tensor<1x128x1x1xi32> loc(#loc330)
    %331 = "tpu.Conv2D"(%325, %329, %330) {coeff_merged = false, dilations = [1, 1], do_relu = false, do_winograd = false, dynweight_reorderd = false, group = 1 : i64, kernel_shape = [3, 3], kernel_zp = 0 : i64, multiplier = [2029841408, 1164209152, 1179286272, 1184355712, 1206958592, 1075851520, 1134846976, 2093904128, 1651931264, 1821727488, 1368441856, 1985482880, 1768182400, 1435321600, 1318995456, 1201269248, 1779180032, 1504163584, 1366536832, 1358121728, 1267325696, 1507626368, 1126688128, 1579142272, 1149681792, 1640940800, 1628474880, 1075609728, 1615337600, 1990849024, 1499901184, 1663351040, 1225958144, 1169883392, 1683754624, 1199741568, 1154017024, 1355402624, 1399599232, 1758355968, 2029081088, 1117810560, 1558432384, 1178278912, 2123097472, 1877953536, 2098795904, 2125474176, 1952832256, 1276489856, 2026394112, 1307332352, 1972352768, 2112358656, 1699854208, 1216414208, 1992696704, 1255838208, 2123031040, 1116720128, 1219533184, 1076070528, 1827220224, 1233275264, 1221895680, 1446707840, 1413038720, 1186481024, 1836873728, 1250845952, 1307130752, 1387812096, 1667164160, 1393158656, 1625143168, 1826986112, 1746382848, 1672973184, 1281864320, 1331486848, 1145793920, 1477861376, 2099752960, 1257353088, 1476680704, 1226302336, 1941163904, 1996103552, 1214974720, 1202665088, 1520915840, 1313047936, 2111362048, 1481809664, 1116489088, 1403330048, 1201755136, 1198175488, 1148591360, 1372493440, 1702465408, 1518312064, 1608686976, 1229837440, 1309527168, 1688702848, 1080224256, 1562075520, 1134704512, 1290365952, 1392297344, 1917180928, 1361625856, 1547157888, 1845176064, 1624233728, 1877317248, 1077101056, 1101779072, 2013715712, 1629274112, 1540769536, 1669672704, 1654124928, 1972436608, 1281212672, 1090459392, 1213487488], pads = [1, 1, 1, 1], quant_mode = #tpu<rq_mode QDM>, relu_limit = -1.000000e+00 : f64, rshift = [11, 8, 10, 10, 10, 10, 10, 11, 10, 11, 11, 11, 11, 11, 11, 11, 10, 10, 7, 10, 10, 11, 10, 10, 7, 10, 9, 10, 9, 10, 10, 9, 10, 10, 11, 10, 10, 10, 11, 10, 10, 10, 11, 9, 8, 11, 10, 11, 11, 10, 10, 10, 10, 10, 11, 10, 11, 10, 11, 7, 9, 8, 10, 10, 9, 10, 10, 10, 10, 8, 10, 9, 10, 10, 11, 11, 11, 11, 10, 11, 10, 10, 11, 10, 11, 9, 10, 11, 10, 10, 10, 7, 10, 11, 7, 8, 7, 11, 9, 10, 11, 11, 11, 10, 10, 10, 8, 10, 10, 11, 9, 11, 10, 11, 11, 11, 8, 8, 10, 11, 11, 11, 11, 11, 11, 10, 10, 11], strides = [1, 1], use_3ic_optimize = 0 : i64, weight_is_coeff = 1 : i64, with_bias = true} : (tensor<1x512x20x20x!quant.uniform<i8:f32, 0.23920146614173229>>, tensor<128x512x3x3xsi8>, tensor<1x128x1x1xi32>) -> tensor<1x128x20x20x!quant.uniform<i8:f32, 0.12548696692913386>> loc(#loc331)
    %332 = "top.Weight"() : () -> tensor<1x1x1x256xsi8> loc(#loc332)
    %333 = "tpu.Lut"(%328, %332) : (tensor<1x64x20x20x!quant.uniform<i8:f32, 0.16071241496062993>>, tensor<1x1x1x256xsi8>) -> tensor<1x64x20x20x!quant.uniform<i8:f32, 0.14739053070866143>> loc(#loc333)
    %334 = "top.Weight"() : () -> tensor<1x1x1x256xsi8> loc(#loc334)
    %335 = "tpu.Lut"(%331, %334) : (tensor<1x128x20x20x!quant.uniform<i8:f32, 0.12548696692913386>>, tensor<1x1x1x256xsi8>) -> tensor<1x128x20x20x!quant.uniform<i8:f32, 0.12755468503937009>> loc(#loc335)
    %336 = "top.Weight"() : () -> tensor<64x64x3x3xsi8> loc(#loc336)
    %337 = "top.Weight"() : () -> tensor<1x64x1x1xi32> loc(#loc337)
    %338 = "tpu.Conv2D"(%333, %336, %337) {coeff_merged = false, dilations = [1, 1], do_relu = false, do_winograd = false, dynweight_reorderd = false, group = 1 : i64, kernel_shape = [3, 3], kernel_zp = 0 : i64, multiplier = [2067036928, 1606727808, 1309555968, 1513808128, 1573128064, 1923800576, 1777396864, 1508185600, 1218421888, 1959837952, 1190221440, 1959731456, 1103753216, 1805333376, 2052435840, 1312948480, 1337449984, 1603895040, 1450847104, 1750602880, 2031703296, 1457124224, 1322242688, 1567623168, 1324718464, 1839306368, 1398473472, 1193021440, 1375759360, 1137331584, 1084693888, 1592188416, 2099282560, 1633675136, 1084382336, 1108485760, 1223912448, 1223748096, 1470056064, 1512142848, 1385129600, 2123520768, 2049781504, 1709096192, 2047805696, 1480634368, 2047446784, 1369125248, 1714856576, 1261839616, 2078225920, 1429068544, 1203352704, 1541149312, 1213736576, 1520956672, 2016985088, 1832169088, 1667734656, 2119425280, 1658742144, 1631307264, 1338632704, 1687431040], pads = [1, 1, 1, 1], quant_mode = #tpu<rq_mode QDM>, relu_limit = -1.000000e+00 : f64, rshift = [8, 9, 8, 7, 8, 8, 9, 8, 9, 8, 8, 8, 8, 8, 8, 8, 9, 9, 8, 8, 8, 8, 8, 8, 8, 8, 8, 8, 8, 9, 8, 8, 9, 9, 8, 7, 8, 8, 7, 8, 8, 9, 9, 8, 8, 8, 8, 8, 9, 8, 8, 9, 8, 8, 8, 9, 8, 8, 8, 9, 9, 8, 8, 8], strides = [1, 1], use_3ic_optimize = 0 : i64, weight_is_coeff = 1 : i64, with_bias = true} : (tensor<1x64x20x20x!quant.uniform<i8:f32, 0.14739053070866143>>, tensor<64x64x3x3xsi8>, tensor<1x64x1x1xi32>) -> tensor<1x64x20x20x!quant.uniform<i8:f32, 0.21239462440944881>> loc(#loc338)
    %339 = "top.Weight"() : () -> tensor<128x128x3x3xsi8> loc(#loc339)
    %340 = "top.Weight"() : () -> tensor<1x128x1x1xi32> loc(#loc340)
    %341 = "tpu.Conv2D"(%335, %339, %340) {coeff_merged = false, dilations = [1, 1], do_relu = false, do_winograd = false, dynweight_reorderd = false, group = 1 : i64, kernel_shape = [3, 3], kernel_zp = 0 : i64, multiplier = [1945093760, 1118699904, 1903245184, 1528038784, 1950875648, 1626099840, 1438940544, 1838281472, 1978192000, 1987800320, 1487048704, 1981621120, 1390635904, 1393538048, 1749955456, 1919877504, 1554968320, 1937515904, 1151304704, 1422229248, 1938166016, 1102165632, 1730973056, 2101655168, 1873618048, 1144819456, 1075946240, 1838686336, 1141321472, 1420410240, 1609222016, 1975123200, 1747588736, 1078575872, 1938637696, 1175923456, 1203820032, 1555707008, 1479843584, 1257276928, 1162055552, 1750429184, 1428241792, 1277842688, 1091320960, 1701021312, 2067436160, 1320491264, 1660168448, 1413760384, 1923769984, 1366233728, 2124541056, 1931850624, 1610165504, 1981515136, 1125683328, 1465521536, 1776796544, 1351031552, 1116988672, 2112585216, 1462136576, 1644963456, 1362693376, 1973943680, 1075296256, 1572171776, 2110363008, 1128619264, 1843778176, 1797906048, 1763168768, 1374038144, 1924026112, 1540614784, 1544980992, 1344532992, 1356513536, 1864146176, 1661416960, 1606592640, 2076286976, 2068941440, 1587590656, 1337467264, 2057774592, 1387816960, 1165101184, 1875512960, 2080153344, 1303739776, 1361970176, 1174982400, 1969504768, 1273731456, 1199985024, 1131211136, 1173173632, 1096126592, 1079557504, 1834180992, 1557177216, 1157662848, 1336961920, 1341381248, 1832511488, 1848761216, 1276947968, 1342448512, 1741833344, 1528932096, 1185438464, 1320393344, 1395350656, 1305653120, 1437467520, 1273584512, 1380438144, 1894978816, 1898042880, 1771792256, 1845389952, 1192572672, 1174406912, 1676902272, 1531756928, 1108885504], pads = [1, 1, 1, 1], quant_mode = #tpu<rq_mode QDM>, relu_limit = -1.000000e+00 : f64, rshift = [12, 9, 12, 12, 12, 11, 12, 13, 12, 12, 11, 11, 11, 12, 11, 12, 11, 12, 12, 10, 13, 11, 12, 11, 12, 11, 11, 12, 11, 10, 12, 11, 12, 7, 12, 11, 11, 11, 11, 12, 12, 11, 11, 11, 12, 11, 10, 12, 12, 11, 13, 11, 12, 12, 10, 11, 10, 12, 13, 11, 12, 12, 12, 12, 10, 12, 6, 11, 13, 11, 10, 11, 13, 11, 11, 12, 11, 11, 11, 13, 12, 10, 12, 12, 12, 10, 12, 9, 12, 13, 12, 11, 12, 9, 12, 11, 11, 11, 11, 11, 11, 12, 12, 7, 11, 10, 11, 10, 11, 11, 10, 11, 11, 9, 11, 12, 12, 11, 11, 10, 12, 10, 11, 12, 11, 11, 11, 9], strides = [1, 1], use_3ic_optimize = 0 : i64, weight_is_coeff = 1 : i64, with_bias = true} : (tensor<1x128x20x20x!quant.uniform<i8:f32, 0.12755468503937009>>, tensor<128x128x3x3xsi8>, tensor<1x128x1x1xi32>) -> tensor<1x128x20x20x!quant.uniform<i8:f32, 0.43941393700787407>> loc(#loc341)
    %342 = "top.Weight"() : () -> tensor<1x1x1x256xsi8> loc(#loc342)
    %343 = "tpu.Lut"(%338, %342) : (tensor<1x64x20x20x!quant.uniform<i8:f32, 0.21239462440944881>>, tensor<1x1x1x256xsi8>) -> tensor<1x64x20x20x!quant.uniform<i8:f32, 0.15625583700787402>> loc(#loc343)
    %344 = "top.Weight"() : () -> tensor<1x1x1x256xsi8> loc(#loc344)
    %345 = "tpu.Lut"(%341, %344) : (tensor<1x128x20x20x!quant.uniform<i8:f32, 0.43941393700787407>>, tensor<1x1x1x256xsi8>) -> tensor<1x128x20x20x!quant.uniform<i8:f32, 0.4202878811023622>> loc(#loc345)
    %346 = "top.Weight"() : () -> tensor<64x64x1x1xsi8> loc(#loc346)
    %347 = "top.Weight"() : () -> tensor<1x64x1x1xi32> loc(#loc347)
    %348 = "tpu.Conv2D"(%343, %346, %347) {coeff_merged = false, dilations = [1, 1], do_relu = false, do_winograd = false, dynweight_reorderd = false, group = 1 : i64, kernel_shape = [1, 1], kernel_zp = 0 : i64, multiplier = [2063263488, 1895399296, 1735683840, 1730794496, 1522186496, 1650121984, 1872582656, 1725905280, 1601229312, 1439069184, 1549892224, 1986665216, 1999703296, 1660715264, 1958959616, 2025779200, 1500184960, 1782946560, 1161196800, 1135935744, 1763389568, 1517297280, 1950810752, 1395880832, 1668049152, 1104155648, 1108230016, 2022519680, 1776427520, 1522186496, 1254092672, 1116378752, 1743832448, 1658270720, 1134306048, 1118008448, 1487147008, 1908437248, 1411363456, 1530335360, 1510778240, 1126157312, 1419512320, 2139861760, 1653381376, 1215793536, 1095192064, 1849766272, 1879101824, 1973627264, 2032298368, 1960589312, 1637083904, 1470849408, 1460256000, 1313578496, 1573523712, 1524631040, 1102525824, 1207644800, 1100896128, 2131713024, 1941032192, 1760129920], pads = [0, 0, 0, 0], quant_mode = #tpu<rq_mode QDM>, relu_limit = -1.000000e+00 : f64, rshift = [9, 9, 9, 9, 9, 9, 9, 9, 9, 9, 9, 10, 10, 10, 10, 10, 8, 9, 8, 8, 9, 9, 9, 9, 9, 9, 9, 10, 10, 10, 10, 10, 9, 9, 8, 8, 9, 9, 9, 9, 9, 9, 9, 10, 10, 9, 9, 10, 9, 9, 9, 9, 9, 9, 9, 9, 9, 9, 9, 9, 9, 10, 10, 10], strides = [1, 1], use_3ic_optimize = 0 : i64, weight_is_coeff = 1 : i64, with_bias = true} : (tensor<1x64x20x20x!quant.uniform<i8:f32, 0.15625583700787402>>, tensor<64x64x1x1xsi8>, tensor<1x64x1x1xi32>) -> tensor<1x64x20x20x!quant.uniform<i8:f32, 0.2026522503937008>> loc(#loc348)
    %349 = "top.Weight"() : () -> tensor<1x128x1x1xsi8> loc(#loc349)
    %350 = "top.Weight"() : () -> tensor<1x1x1x1xi32> loc(#loc350)
    %351 = "tpu.Conv2D"(%345, %349, %350) {coeff_merged = false, dilations = [1, 1], do_relu = false, do_winograd = false, dynweight_reorderd = false, group = 1 : i64, kernel_shape = [1, 1], kernel_zp = 0 : i64, multiplier = [1220834560], pads = [0, 0, 0, 0], quant_mode = #tpu<rq_mode QDM>, relu_limit = -1.000000e+00 : f64, rshift = [8], strides = [1, 1], use_3ic_optimize = 0 : i64, weight_is_coeff = 1 : i64, with_bias = true} : (tensor<1x128x20x20x!quant.uniform<i8:f32, 0.4202878811023622>>, tensor<1x128x1x1xsi8>, tensor<1x1x1x1xi32>) -> tensor<1x1x20x20x!quant.uniform<i8:f32, 0.2026522503937008>> loc(#loc351)
    %352 = "tpu.Concat"(%348, %351) {axis = 1 : si32, do_relu = false, multipliers = [1, 1], only_merge = true, relu_limit = -1.000000e+00 : f64, rshifts = [0, 0]} : (tensor<1x64x20x20x!quant.uniform<i8:f32, 0.2026522503937008>>, tensor<1x1x20x20x!quant.uniform<i8:f32, 0.2026522503937008>>) -> tensor<1x65x20x20x!quant.uniform<i8:f32, 0.2026522503937008>> loc(#loc352)
    %353 = "tpu.Reshape"(%352) : (tensor<1x65x20x20x!quant.uniform<i8:f32, 0.2026522503937008>>) -> tensor<1x65x400x!quant.uniform<i8:f32, 0.2026522503937008>> loc(#loc353)
    %354 = "tpu.Concat"(%255, %312, %353) {axis = 2 : si32, do_relu = false, multipliers = [1, 1, 1], only_merge = false, relu_limit = -1.000000e+00 : f64, rshifts = [0, 0, 0]} : (tensor<1x65x6400x!quant.uniform<i8:f32, 0.2026522503937008>>, tensor<1x65x1600x!quant.uniform<i8:f32, 0.2026522503937008>>, tensor<1x65x400x!quant.uniform<i8:f32, 0.2026522503937008>>) -> tensor<1x65x8400x!quant.uniform<i8:f32, 0.2026522503937008>> loc(#loc354)
    %355 = "tpu.Slice"(%354, %0, %0, %0, %0) {axes = [], ends = [-1, 64, -1], offset = [0, 0, 0], steps = [1, 1, 1]} : (tensor<1x65x8400x!quant.uniform<i8:f32, 0.2026522503937008>>, none, none, none, none) -> tensor<1x64x8400x!quant.uniform<i8:f32, 0.2026522503937008>> loc(#loc355)
    %356 = "tpu.Slice"(%354, %0, %0, %0, %0) {axes = [], ends = [-1, 65, -1], offset = [0, 64, 0], steps = [1, 1, 1]} : (tensor<1x65x8400x!quant.uniform<i8:f32, 0.2026522503937008>>, none, none, none, none) -> tensor<1x1x8400x!quant.uniform<i8:f32, 0.2026522503937008>> loc(#loc356)
    %357 = "tpu.Reshape"(%355) : (tensor<1x64x8400x!quant.uniform<i8:f32, 0.2026522503937008>>) -> tensor<1x4x16x8400x!quant.uniform<i8:f32, 0.2026522503937008>> loc(#loc357)
    %358 = "top.Weight"() : () -> tensor<1x1x1x256xsi8> loc(#loc358)
    %359 = "tpu.Lut"(%356, %358) : (tensor<1x1x8400x!quant.uniform<i8:f32, 0.2026522503937008>>, tensor<1x1x1x256xsi8>) -> tensor<1x1x8400x!quant.uniform<i8:f32, 0.0078740157480314959>> loc(#loc359)
    %360 = "tpu.Cast"(%359) {with_scale = true} : (tensor<1x1x8400x!quant.uniform<i8:f32, 0.0078740157480314959>>) -> tensor<1x1x8400xf32> loc(#loc360)
    %361 = "tpu.Permute"(%357, %0) {order = [0, 2, 1, 3]} : (tensor<1x4x16x8400x!quant.uniform<i8:f32, 0.2026522503937008>>, none) -> tensor<1x16x4x8400x!quant.uniform<i8:f32, 0.2026522503937008>> loc(#loc361)
    %362 = "tpu.Cast"(%361) {with_scale = true} : (tensor<1x16x4x8400x!quant.uniform<i8:f32, 0.2026522503937008>>) -> tensor<1x16x4x8400xbf16> loc(#loc362)
    %363 = "top.Weight"() : () -> tensor<1x1x32x8xbf16> loc(#loc363)
    %364 = "top.Weight"() : () -> tensor<1x1x32x8xbf16> loc(#loc364)
    %365 = "top.Weight"() : () -> tensor<1x1x32x8xbf16> loc(#loc365)
    %366 = "top.Weight"() : () -> tensor<1x1x32x8xbf16> loc(#loc366)
    %367 = "tpu.Softmax"(%362, %363, %364, %365, %366, %0) {axis = 1 : si32, beta = 1.000000e+00 : f64, log = false} : (tensor<1x16x4x8400xbf16>, tensor<1x1x32x8xbf16>, tensor<1x1x32x8xbf16>, tensor<1x1x32x8xbf16>, tensor<1x1x32x8xbf16>, none) -> tensor<1x16x4x8400x!quant.calibrated<bf16<-1.000000e+00:1.000000e+00>>> loc(#loc367)
    %368 = "tpu.Cast"(%367) {with_scale = true} : (tensor<1x16x4x8400x!quant.calibrated<bf16<-1.000000e+00:1.000000e+00>>>) -> tensor<1x16x4x8400x!quant.uniform<i8:bf16, 0.0078740157480314959>> loc(#loc368)
    %369 = "top.Weight"() : () -> tensor<1x16x1x1xsi8> loc(#loc369)
    %370 = "tpu.Conv2D"(%368, %369, %0) {coeff_merged = false, dilations = [1, 1], do_relu = false, do_winograd = false, dynweight_reorderd = false, group = 1 : i64, kernel_shape = [1, 1], kernel_zp = 0 : i64, multiplier = [1111313408], pads = [0, 0, 0, 0], quant_mode = #tpu<rq_mode QDM>, relu_limit = -1.000000e+00 : f64, rshift = [6], strides = [1, 1], use_3ic_optimize = 0 : i64, weight_is_coeff = 1 : i64, with_bias = false} : (tensor<1x16x4x8400x!quant.uniform<i8:bf16, 0.0078740157480314959>>, tensor<1x16x1x1xsi8>, none) -> tensor<1x1x4x8400x!quant.uniform<i8:f32, 0.11501569055118109>> loc(#loc370)
    %371 = "tpu.Cast"(%370) {with_scale = true} : (tensor<1x1x4x8400x!quant.uniform<i8:f32, 0.11501569055118109>>) -> tensor<1x1x4x8400xf32> loc(#loc371)
    return %360, %371 : tensor<1x1x8400xf32>, tensor<1x1x4x8400xf32> loc(#loc)
  } loc(#loc)
} loc(#loc)
#loc1 = loc("images")
#loc2 = loc("images/model.0/conv/Conv_output_0_Conv_si8")
#loc3 = loc("/model.0/conv/Conv_output_0_Conv_filter_i8")
#loc4 = loc("/model.0/conv/Conv_output_0_Conv_bias_int32")
#loc5 = loc("/model.0/conv/Conv_output_0_Conv")
#loc6 = loc("/model.0/act/Mul_output_0_Mul_table")
#loc7 = loc("/model.0/act/Mul_output_0_Mul")
#loc8 = loc("/model.1/conv/Conv_output_0_Conv_filter_i8")
#loc9 = loc("/model.1/conv/Conv_output_0_Conv_bias_int32")
#loc10 = loc("/model.1/conv/Conv_output_0_Conv")
#loc11 = loc("/model.1/act/Mul_output_0_Mul_table")
#loc12 = loc("/model.1/act/Mul_output_0_Mul")
#loc13 = loc("/model.2/cv1/conv/Conv_output_0_Conv_filter_i8")
#loc14 = loc("/model.2/cv1/conv/Conv_output_0_Conv_bias_int32")
#loc15 = loc("/model.2/cv1/conv/Conv_output_0_Conv")
#loc16 = loc("/model.2/cv1/act/Mul_output_0_Mul_table")
#loc17 = loc("/model.2/cv1/act/Mul_output_0_Mul")
#loc18 = loc("/model.2/Split_output_0_Split")
#loc19 = loc("/model.2/Split_output_1_Split")
#loc20 = loc("/model.2/m.0/cv1/conv/Conv_output_0_Conv_filter_i8")
#loc21 = loc("/model.2/m.0/cv1/conv/Conv_output_0_Conv_bias_int32")
#loc22 = loc("/model.2/m.0/cv1/conv/Conv_output_0_Conv")
#loc23 = loc("/model.2/m.0/cv1/act/Mul_output_0_Mul_table")
#loc24 = loc("/model.2/m.0/cv1/act/Mul_output_0_Mul")
#loc25 = loc("/model.2/m.0/cv2/conv/Conv_output_0_Conv_filter_i8")
#loc26 = loc("/model.2/m.0/cv2/conv/Conv_output_0_Conv_bias_int32")
#loc27 = loc("/model.2/m.0/cv2/conv/Conv_output_0_Conv")
#loc28 = loc("/model.2/m.0/cv2/act/Mul_output_0_Mul_table")
#loc29 = loc("/model.2/m.0/cv2/act/Mul_output_0_Mul")
#loc30 = loc("/model.2/m.0/Add_output_0_Add")
#loc31 = loc("/model.2/Concat_output_0_Concat")
#loc32 = loc("/model.2/cv2/conv/Conv_output_0_Conv_filter_i8")
#loc33 = loc("/model.2/cv2/conv/Conv_output_0_Conv_bias_int32")
#loc34 = loc("/model.2/cv2/conv/Conv_output_0_Conv")
#loc35 = loc("/model.2/cv2/act/Mul_output_0_Mul_table")
#loc36 = loc("/model.2/cv2/act/Mul_output_0_Mul")
#loc37 = loc("/model.3/conv/Conv_output_0_Conv_filter_i8")
#loc38 = loc("/model.3/conv/Conv_output_0_Conv_bias_int32")
#loc39 = loc("/model.3/conv/Conv_output_0_Conv")
#loc40 = loc("/model.3/act/Mul_output_0_Mul_table")
#loc41 = loc("/model.3/act/Mul_output_0_Mul")
#loc42 = loc("/model.4/cv1/conv/Conv_output_0_Conv_filter_i8")
#loc43 = loc("/model.4/cv1/conv/Conv_output_0_Conv_bias_int32")
#loc44 = loc("/model.4/cv1/conv/Conv_output_0_Conv")
#loc45 = loc("/model.4/cv1/act/Mul_output_0_Mul_table")
#loc46 = loc("/model.4/cv1/act/Mul_output_0_Mul")
#loc47 = loc("/model.4/Split_output_0_Split")
#loc48 = loc("/model.4/Split_output_1_Split")
#loc49 = loc("/model.4/m.0/cv1/conv/Conv_output_0_Conv_filter_i8")
#loc50 = loc("/model.4/m.0/cv1/conv/Conv_output_0_Conv_bias_int32")
#loc51 = loc("/model.4/m.0/cv1/conv/Conv_output_0_Conv")
#loc52 = loc("/model.4/m.0/cv1/act/Mul_output_0_Mul_table")
#loc53 = loc("/model.4/m.0/cv1/act/Mul_output_0_Mul")
#loc54 = loc("/model.4/m.0/cv2/conv/Conv_output_0_Conv_filter_i8")
#loc55 = loc("/model.4/m.0/cv2/conv/Conv_output_0_Conv_bias_int32")
#loc56 = loc("/model.4/m.0/cv2/conv/Conv_output_0_Conv")
#loc57 = loc("/model.4/m.0/cv2/act/Mul_output_0_Mul_table")
#loc58 = loc("/model.4/m.0/cv2/act/Mul_output_0_Mul")
#loc59 = loc("/model.4/m.0/Add_output_0_Add")
#loc60 = loc("/model.4/m.1/cv1/conv/Conv_output_0_Conv_filter_i8")
#loc61 = loc("/model.4/m.1/cv1/conv/Conv_output_0_Conv_bias_int32")
#loc62 = loc("/model.4/m.1/cv1/conv/Conv_output_0_Conv")
#loc63 = loc("/model.4/m.1/cv1/act/Mul_output_0_Mul_table")
#loc64 = loc("/model.4/m.1/cv1/act/Mul_output_0_Mul")
#loc65 = loc("/model.4/m.1/cv2/conv/Conv_output_0_Conv_filter_i8")
#loc66 = loc("/model.4/m.1/cv2/conv/Conv_output_0_Conv_bias_int32")
#loc67 = loc("/model.4/m.1/cv2/conv/Conv_output_0_Conv")
#loc68 = loc("/model.4/m.1/cv2/act/Mul_output_0_Mul_table")
#loc69 = loc("/model.4/m.1/cv2/act/Mul_output_0_Mul")
#loc70 = loc("/model.4/m.1/Add_output_0_Add")
#loc71 = loc("/model.4/Concat_output_0_Concat")
#loc72 = loc("/model.4/cv2/conv/Conv_output_0_Conv_filter_i8")
#loc73 = loc("/model.4/cv2/conv/Conv_output_0_Conv_bias_int32")
#loc74 = loc("/model.4/cv2/conv/Conv_output_0_Conv")
#loc75 = loc("/model.4/cv2/act/Mul_output_0_Mul_table")
#loc76 = loc("/model.4/cv2/act/Mul_output_0_Mul")
#loc77 = loc("/model.5/conv/Conv_output_0_Conv_filter_i8")
#loc78 = loc("/model.5/conv/Conv_output_0_Conv_bias_int32")
#loc79 = loc("/model.5/conv/Conv_output_0_Conv")
#loc80 = loc("/model.5/act/Mul_output_0_Mul_table")
#loc81 = loc("/model.5/act/Mul_output_0_Mul")
#loc82 = loc("/model.6/cv1/conv/Conv_output_0_Conv_filter_i8")
#loc83 = loc("/model.6/cv1/conv/Conv_output_0_Conv_bias_int32")
#loc84 = loc("/model.6/cv1/conv/Conv_output_0_Conv")
#loc85 = loc("/model.6/cv1/act/Mul_output_0_Mul_table")
#loc86 = loc("/model.6/cv1/act/Mul_output_0_Mul")
#loc87 = loc("/model.6/Split_output_0_Split")
#loc88 = loc("/model.6/Split_output_1_Split")
#loc89 = loc("/model.6/m.0/cv1/conv/Conv_output_0_Conv_filter_i8")
#loc90 = loc("/model.6/m.0/cv1/conv/Conv_output_0_Conv_bias_int32")
#loc91 = loc("/model.6/m.0/cv1/conv/Conv_output_0_Conv")
#loc92 = loc("/model.6/m.0/cv1/act/Mul_output_0_Mul_table")
#loc93 = loc("/model.6/m.0/cv1/act/Mul_output_0_Mul")
#loc94 = loc("/model.6/m.0/cv2/conv/Conv_output_0_Conv_filter_i8")
#loc95 = loc("/model.6/m.0/cv2/conv/Conv_output_0_Conv_bias_int32")
#loc96 = loc("/model.6/m.0/cv2/conv/Conv_output_0_Conv")
#loc97 = loc("/model.6/m.0/cv2/act/Mul_output_0_Mul_table")
#loc98 = loc("/model.6/m.0/cv2/act/Mul_output_0_Mul")
#loc99 = loc("/model.6/m.0/Add_output_0_Add")
#loc100 = loc("/model.6/m.1/cv1/conv/Conv_output_0_Conv_filter_i8")
#loc101 = loc("/model.6/m.1/cv1/conv/Conv_output_0_Conv_bias_int32")
#loc102 = loc("/model.6/m.1/cv1/conv/Conv_output_0_Conv")
#loc103 = loc("/model.6/m.1/cv1/act/Mul_output_0_Mul_table")
#loc104 = loc("/model.6/m.1/cv1/act/Mul_output_0_Mul")
#loc105 = loc("/model.6/m.1/cv2/conv/Conv_output_0_Conv_filter_i8")
#loc106 = loc("/model.6/m.1/cv2/conv/Conv_output_0_Conv_bias_int32")
#loc107 = loc("/model.6/m.1/cv2/conv/Conv_output_0_Conv")
#loc108 = loc("/model.6/m.1/cv2/act/Mul_output_0_Mul_table")
#loc109 = loc("/model.6/m.1/cv2/act/Mul_output_0_Mul")
#loc110 = loc("/model.6/m.1/Add_output_0_Add")
#loc111 = loc("/model.6/Concat_output_0_Concat")
#loc112 = loc("/model.6/cv2/conv/Conv_output_0_Conv_filter_i8")
#loc113 = loc("/model.6/cv2/conv/Conv_output_0_Conv_bias_int32")
#loc114 = loc("/model.6/cv2/conv/Conv_output_0_Conv")
#loc115 = loc("/model.6/cv2/act/Mul_output_0_Mul_table")
#loc116 = loc("/model.6/cv2/act/Mul_output_0_Mul")
#loc117 = loc("/model.7/conv/Conv_output_0_Conv_filter_i8")
#loc118 = loc("/model.7/conv/Conv_output_0_Conv_bias_int32")
#loc119 = loc("/model.7/conv/Conv_output_0_Conv")
#loc120 = loc("/model.7/act/Mul_output_0_Mul_table")
#loc121 = loc("/model.7/act/Mul_output_0_Mul")
#loc122 = loc("/model.8/cv1/conv/Conv_output_0_Conv_filter_i8")
#loc123 = loc("/model.8/cv1/conv/Conv_output_0_Conv_bias_int32")
#loc124 = loc("/model.8/cv1/conv/Conv_output_0_Conv")
#loc125 = loc("/model.8/cv1/act/Mul_output_0_Mul_table")
#loc126 = loc("/model.8/cv1/act/Mul_output_0_Mul")
#loc127 = loc("/model.8/Split_output_0_Split")
#loc128 = loc("/model.8/Split_output_1_Split")
#loc129 = loc("/model.8/m.0/cv1/conv/Conv_output_0_Conv_filter_i8")
#loc130 = loc("/model.8/m.0/cv1/conv/Conv_output_0_Conv_bias_int32")
#loc131 = loc("/model.8/m.0/cv1/conv/Conv_output_0_Conv")
#loc132 = loc("/model.8/m.0/cv1/act/Mul_output_0_Mul_table")
#loc133 = loc("/model.8/m.0/cv1/act/Mul_output_0_Mul")
#loc134 = loc("/model.8/m.0/cv2/conv/Conv_output_0_Conv_filter_i8")
#loc135 = loc("/model.8/m.0/cv2/conv/Conv_output_0_Conv_bias_int32")
#loc136 = loc("/model.8/m.0/cv2/conv/Conv_output_0_Conv")
#loc137 = loc("/model.8/m.0/cv2/act/Mul_output_0_Mul_table")
#loc138 = loc("/model.8/m.0/cv2/act/Mul_output_0_Mul")
#loc139 = loc("/model.8/m.0/Add_output_0_Add")
#loc140 = loc("/model.8/Concat_output_0_Concat")
#loc141 = loc("/model.8/cv2/conv/Conv_output_0_Conv_filter_i8")
#loc142 = loc("/model.8/cv2/conv/Conv_output_0_Conv_bias_int32")
#loc143 = loc("/model.8/cv2/conv/Conv_output_0_Conv")
#loc144 = loc("/model.8/cv2/act/Mul_output_0_Mul_table")
#loc145 = loc("/model.8/cv2/act/Mul_output_0_Mul")
#loc146 = loc("/model.9/cv1/conv/Conv_output_0_Conv_filter_i8")
#loc147 = loc("/model.9/cv1/conv/Conv_output_0_Conv_bias_int32")
#loc148 = loc("/model.9/cv1/conv/Conv_output_0_Conv")
#loc149 = loc("/model.9/cv1/act/Mul_output_0_Mul_table")
#loc150 = loc("/model.9/cv1/act/Mul_output_0_Mul")
#loc151 = loc("/model.9/m/MaxPool_output_0_MaxPool")
#loc152 = loc("/model.9/m_1/MaxPool_output_0_MaxPool")
#loc153 = loc("/model.9/m_2/MaxPool_output_0_MaxPool")
#loc154 = loc("/model.9/Concat_output_0_Concat")
#loc155 = loc("/model.9/cv2/conv/Conv_output_0_Conv_filter_i8")
#loc156 = loc("/model.9/cv2/conv/Conv_output_0_Conv_bias_int32")
#loc157 = loc("/model.9/cv2/conv/Conv_output_0_Conv")
#loc158 = loc("/model.9/cv2/act/Mul_output_0_Mul_table")
#loc159 = loc("/model.9/cv2/act/Mul_output_0_Mul")
#loc160 = loc("/model.10/Resize_output_0_Resize_filter_i8")
#loc161 = loc("/model.10/Resize_output_0_Resize")
#loc162 = loc("/model.11/Concat_output_0_Concat")
#loc163 = loc("/model.12/cv1/conv/Conv_output_0_Conv_filter_i8")
#loc164 = loc("/model.12/cv1/conv/Conv_output_0_Conv_bias_int32")
#loc165 = loc("/model.12/cv1/conv/Conv_output_0_Conv")
#loc166 = loc("/model.12/cv1/act/Mul_output_0_Mul_table")
#loc167 = loc("/model.12/cv1/act/Mul_output_0_Mul")
#loc168 = loc("/model.12/Split_output_0_Split")
#loc169 = loc("/model.12/Split_output_1_Split")
#loc170 = loc("/model.12/m.0/cv1/conv/Conv_output_0_Conv_filter_i8")
#loc171 = loc("/model.12/m.0/cv1/conv/Conv_output_0_Conv_bias_int32")
#loc172 = loc("/model.12/m.0/cv1/conv/Conv_output_0_Conv")
#loc173 = loc("/model.12/m.0/cv1/act/Mul_output_0_Mul_table")
#loc174 = loc("/model.12/m.0/cv1/act/Mul_output_0_Mul")
#loc175 = loc("/model.12/m.0/cv2/conv/Conv_output_0_Conv_filter_i8")
#loc176 = loc("/model.12/m.0/cv2/conv/Conv_output_0_Conv_bias_int32")
#loc177 = loc("/model.12/m.0/cv2/conv/Conv_output_0_Conv")
#loc178 = loc("/model.12/m.0/cv2/act/Mul_output_0_Mul_table")
#loc179 = loc("/model.12/m.0/cv2/act/Mul_output_0_Mul")
#loc180 = loc("/model.12/Concat_output_0_Concat")
#loc181 = loc("/model.12/cv2/conv/Conv_output_0_Conv_filter_i8")
#loc182 = loc("/model.12/cv2/conv/Conv_output_0_Conv_bias_int32")
#loc183 = loc("/model.12/cv2/conv/Conv_output_0_Conv")
#loc184 = loc("/model.12/cv2/act/Mul_output_0_Mul_table")
#loc185 = loc("/model.12/cv2/act/Mul_output_0_Mul")
#loc186 = loc("/model.13/Resize_output_0_Resize_filter_i8")
#loc187 = loc("/model.13/Resize_output_0_Resize")
#loc188 = loc("/model.14/Concat_output_0_Concat")
#loc189 = loc("/model.15/cv1/conv/Conv_output_0_Conv_filter_i8")
#loc190 = loc("/model.15/cv1/conv/Conv_output_0_Conv_bias_int32")
#loc191 = loc("/model.15/cv1/conv/Conv_output_0_Conv")
#loc192 = loc("/model.15/cv1/act/Mul_output_0_Mul_table")
#loc193 = loc("/model.15/cv1/act/Mul_output_0_Mul")
#loc194 = loc("/model.15/Split_output_0_Split")
#loc195 = loc("/model.15/Split_output_1_Split")
#loc196 = loc("/model.15/m.0/cv1/conv/Conv_output_0_Conv_filter_i8")
#loc197 = loc("/model.15/m.0/cv1/conv/Conv_output_0_Conv_bias_int32")
#loc198 = loc("/model.15/m.0/cv1/conv/Conv_output_0_Conv")
#loc199 = loc("/model.15/m.0/cv1/act/Mul_output_0_Mul_table")
#loc200 = loc("/model.15/m.0/cv1/act/Mul_output_0_Mul")
#loc201 = loc("/model.15/m.0/cv2/conv/Conv_output_0_Conv_filter_i8")
#loc202 = loc("/model.15/m.0/cv2/conv/Conv_output_0_Conv_bias_int32")
#loc203 = loc("/model.15/m.0/cv2/conv/Conv_output_0_Conv")
#loc204 = loc("/model.15/m.0/cv2/act/Mul_output_0_Mul_table")
#loc205 = loc("/model.15/m.0/cv2/act/Mul_output_0_Mul")
#loc206 = loc("/model.15/Concat_output_0_Concat")
#loc207 = loc("/model.15/cv2/conv/Conv_output_0_Conv_filter_i8")
#loc208 = loc("/model.15/cv2/conv/Conv_output_0_Conv_bias_int32")
#loc209 = loc("/model.15/cv2/conv/Conv_output_0_Conv")
#loc210 = loc("/model.15/cv2/act/Mul_output_0_Mul_table")
#loc211 = loc("/model.15/cv2/act/Mul_output_0_Mul")
#loc212 = loc("/model.16/conv/Conv_output_0_Conv_filter_i8")
#loc213 = loc("/model.16/conv/Conv_output_0_Conv_bias_int32")
#loc214 = loc("/model.16/conv/Conv_output_0_Conv")
#loc215 = loc("/model.22/cv2.0/cv2.0.0/conv/Conv_output_0_Conv_filter_i8")
#loc216 = loc("/model.22/cv2.0/cv2.0.0/conv/Conv_output_0_Conv_bias_int32")
#loc217 = loc("/model.22/cv2.0/cv2.0.0/conv/Conv_output_0_Conv")
#loc218 = loc("/model.22/cv3.0/cv3.0.0/conv/Conv_output_0_Conv_filter_i8")
#loc219 = loc("/model.22/cv3.0/cv3.0.0/conv/Conv_output_0_Conv_bias_int32")
#loc220 = loc("/model.22/cv3.0/cv3.0.0/conv/Conv_output_0_Conv")
#loc221 = loc("/model.16/act/Mul_output_0_Mul_table")
#loc222 = loc("/model.16/act/Mul_output_0_Mul")
#loc223 = loc("/model.22/cv2.0/cv2.0.0/act/Mul_output_0_Mul_table")
#loc224 = loc("/model.22/cv2.0/cv2.0.0/act/Mul_output_0_Mul")
#loc225 = loc("/model.22/cv3.0/cv3.0.0/act/Mul_output_0_Mul_table")
#loc226 = loc("/model.22/cv3.0/cv3.0.0/act/Mul_output_0_Mul")
#loc227 = loc("/model.17/Concat_output_0_Concat")
#loc228 = loc("/model.22/cv2.0/cv2.0.1/conv/Conv_output_0_Conv_filter_i8")
#loc229 = loc("/model.22/cv2.0/cv2.0.1/conv/Conv_output_0_Conv_bias_int32")
#loc230 = loc("/model.22/cv2.0/cv2.0.1/conv/Conv_output_0_Conv")
#loc231 = loc("/model.22/cv3.0/cv3.0.1/conv/Conv_output_0_Conv_filter_i8")
#loc232 = loc("/model.22/cv3.0/cv3.0.1/conv/Conv_output_0_Conv_bias_int32")
#loc233 = loc("/model.22/cv3.0/cv3.0.1/conv/Conv_output_0_Conv")
#loc234 = loc("/model.18/cv1/conv/Conv_output_0_Conv_filter_i8")
#loc235 = loc("/model.18/cv1/conv/Conv_output_0_Conv_bias_int32")
#loc236 = loc("/model.18/cv1/conv/Conv_output_0_Conv")
#loc237 = loc("/model.22/cv2.0/cv2.0.1/act/Mul_output_0_Mul_table")
#loc238 = loc("/model.22/cv2.0/cv2.0.1/act/Mul_output_0_Mul")
#loc239 = loc("/model.22/cv3.0/cv3.0.1/act/Mul_output_0_Mul_table")
#loc240 = loc("/model.22/cv3.0/cv3.0.1/act/Mul_output_0_Mul")
#loc241 = loc("/model.18/cv1/act/Mul_output_0_Mul_table")
#loc242 = loc("/model.18/cv1/act/Mul_output_0_Mul")
#loc243 = loc("/model.22/cv2.0/cv2.0.2/Conv_output_0_Conv_filter_i8")
#loc244 = loc("/model.22/cv2.0/cv2.0.2/Conv_output_0_Conv_bias_int32")
#loc245 = loc("/model.22/cv2.0/cv2.0.2/Conv_output_0_Conv")
#loc246 = loc("/model.22/cv3.0/cv3.0.2/Conv_output_0_Conv_filter_i8")
#loc247 = loc("/model.22/cv3.0/cv3.0.2/Conv_output_0_Conv_bias_int32")
#loc248 = loc("/model.22/cv3.0/cv3.0.2/Conv_output_0_Conv")
#loc249 = loc("/model.18/Split_output_0_Split")
#loc250 = loc("/model.18/Split_output_1_Split")
#loc251 = loc("/model.22/Concat_output_0_Concat")
#loc252 = loc("/model.18/m.0/cv1/conv/Conv_output_0_Conv_filter_i8")
#loc253 = loc("/model.18/m.0/cv1/conv/Conv_output_0_Conv_bias_int32")
#loc254 = loc("/model.18/m.0/cv1/conv/Conv_output_0_Conv")
#loc255 = loc("/model.22/Reshape_output_0_Reshape")
#loc256 = loc("/model.18/m.0/cv1/act/Mul_output_0_Mul_table")
#loc257 = loc("/model.18/m.0/cv1/act/Mul_output_0_Mul")
#loc258 = loc("/model.18/m.0/cv2/conv/Conv_output_0_Conv_filter_i8")
#loc259 = loc("/model.18/m.0/cv2/conv/Conv_output_0_Conv_bias_int32")
#loc260 = loc("/model.18/m.0/cv2/conv/Conv_output_0_Conv")
#loc261 = loc("/model.18/m.0/cv2/act/Mul_output_0_Mul_table")
#loc262 = loc("/model.18/m.0/cv2/act/Mul_output_0_Mul")
#loc263 = loc("/model.18/Concat_output_0_Concat")
#loc264 = loc("/model.18/cv2/conv/Conv_output_0_Conv_filter_i8")
#loc265 = loc("/model.18/cv2/conv/Conv_output_0_Conv_bias_int32")
#loc266 = loc("/model.18/cv2/conv/Conv_output_0_Conv")
#loc267 = loc("/model.18/cv2/act/Mul_output_0_Mul_table")
#loc268 = loc("/model.18/cv2/act/Mul_output_0_Mul")
#loc269 = loc("/model.19/conv/Conv_output_0_Conv_filter_i8")
#loc270 = loc("/model.19/conv/Conv_output_0_Conv_bias_int32")
#loc271 = loc("/model.19/conv/Conv_output_0_Conv")
#loc272 = loc("/model.22/cv2.1/cv2.1.0/conv/Conv_output_0_Conv_filter_i8")
#loc273 = loc("/model.22/cv2.1/cv2.1.0/conv/Conv_output_0_Conv_bias_int32")
#loc274 = loc("/model.22/cv2.1/cv2.1.0/conv/Conv_output_0_Conv")
#loc275 = loc("/model.22/cv3.1/cv3.1.0/conv/Conv_output_0_Conv_filter_i8")
#loc276 = loc("/model.22/cv3.1/cv3.1.0/conv/Conv_output_0_Conv_bias_int32")
#loc277 = loc("/model.22/cv3.1/cv3.1.0/conv/Conv_output_0_Conv")
#loc278 = loc("/model.19/act/Mul_output_0_Mul_table")
#loc279 = loc("/model.19/act/Mul_output_0_Mul")
#loc280 = loc("/model.22/cv2.1/cv2.1.0/act/Mul_output_0_Mul_table")
#loc281 = loc("/model.22/cv2.1/cv2.1.0/act/Mul_output_0_Mul")
#loc282 = loc("/model.22/cv3.1/cv3.1.0/act/Mul_output_0_Mul_table")
#loc283 = loc("/model.22/cv3.1/cv3.1.0/act/Mul_output_0_Mul")
#loc284 = loc("/model.20/Concat_output_0_Concat")
#loc285 = loc("/model.22/cv2.1/cv2.1.1/conv/Conv_output_0_Conv_filter_i8")
#loc286 = loc("/model.22/cv2.1/cv2.1.1/conv/Conv_output_0_Conv_bias_int32")
#loc287 = loc("/model.22/cv2.1/cv2.1.1/conv/Conv_output_0_Conv")
#loc288 = loc("/model.22/cv3.1/cv3.1.1/conv/Conv_output_0_Conv_filter_i8")
#loc289 = loc("/model.22/cv3.1/cv3.1.1/conv/Conv_output_0_Conv_bias_int32")
#loc290 = loc("/model.22/cv3.1/cv3.1.1/conv/Conv_output_0_Conv")
#loc291 = loc("/model.21/cv1/conv/Conv_output_0_Conv_filter_i8")
#loc292 = loc("/model.21/cv1/conv/Conv_output_0_Conv_bias_int32")
#loc293 = loc("/model.21/cv1/conv/Conv_output_0_Conv")
#loc294 = loc("/model.22/cv2.1/cv2.1.1/act/Mul_output_0_Mul_table")
#loc295 = loc("/model.22/cv2.1/cv2.1.1/act/Mul_output_0_Mul")
#loc296 = loc("/model.22/cv3.1/cv3.1.1/act/Mul_output_0_Mul_table")
#loc297 = loc("/model.22/cv3.1/cv3.1.1/act/Mul_output_0_Mul")
#loc298 = loc("/model.21/cv1/act/Mul_output_0_Mul_table")
#loc299 = loc("/model.21/cv1/act/Mul_output_0_Mul")
#loc300 = loc("/model.22/cv2.1/cv2.1.2/Conv_output_0_Conv_filter_i8")
#loc301 = loc("/model.22/cv2.1/cv2.1.2/Conv_output_0_Conv_bias_int32")
#loc302 = loc("/model.22/cv2.1/cv2.1.2/Conv_output_0_Conv")
#loc303 = loc("/model.22/cv3.1/cv3.1.2/Conv_output_0_Conv_filter_i8")
#loc304 = loc("/model.22/cv3.1/cv3.1.2/Conv_output_0_Conv_bias_int32")
#loc305 = loc("/model.22/cv3.1/cv3.1.2/Conv_output_0_Conv")
#loc306 = loc("/model.21/Split_output_0_Split")
#loc307 = loc("/model.21/Split_output_1_Split")
#loc308 = loc("/model.22/Concat_1_output_0_Concat")
#loc309 = loc("/model.21/m.0/cv1/conv/Conv_output_0_Conv_filter_i8")
#loc310 = loc("/model.21/m.0/cv1/conv/Conv_output_0_Conv_bias_int32")
#loc311 = loc("/model.21/m.0/cv1/conv/Conv_output_0_Conv")
#loc312 = loc("/model.22/Reshape_1_output_0_Reshape")
#loc313 = loc("/model.21/m.0/cv1/act/Mul_output_0_Mul_table")
#loc314 = loc("/model.21/m.0/cv1/act/Mul_output_0_Mul")
#loc315 = loc("/model.21/m.0/cv2/conv/Conv_output_0_Conv_filter_i8")
#loc316 = loc("/model.21/m.0/cv2/conv/Conv_output_0_Conv_bias_int32")
#loc317 = loc("/model.21/m.0/cv2/conv/Conv_output_0_Conv")
#loc318 = loc("/model.21/m.0/cv2/act/Mul_output_0_Mul_table")
#loc319 = loc("/model.21/m.0/cv2/act/Mul_output_0_Mul")
#loc320 = loc("/model.21/Concat_output_0_Concat")
#loc321 = loc("/model.21/cv2/conv/Conv_output_0_Conv_filter_i8")
#loc322 = loc("/model.21/cv2/conv/Conv_output_0_Conv_bias_int32")
#loc323 = loc("/model.21/cv2/conv/Conv_output_0_Conv")
#loc324 = loc("/model.21/cv2/act/Mul_output_0_Mul_table")
#loc325 = loc("/model.21/cv2/act/Mul_output_0_Mul")
#loc326 = loc("/model.22/cv2.2/cv2.2.0/conv/Conv_output_0_Conv_filter_i8")
#loc327 = loc("/model.22/cv2.2/cv2.2.0/conv/Conv_output_0_Conv_bias_int32")
#loc328 = loc("/model.22/cv2.2/cv2.2.0/conv/Conv_output_0_Conv")
#loc329 = loc("/model.22/cv3.2/cv3.2.0/conv/Conv_output_0_Conv_filter_i8")
#loc330 = loc("/model.22/cv3.2/cv3.2.0/conv/Conv_output_0_Conv_bias_int32")
#loc331 = loc("/model.22/cv3.2/cv3.2.0/conv/Conv_output_0_Conv")
#loc332 = loc("/model.22/cv2.2/cv2.2.0/act/Mul_output_0_Mul_table")
#loc333 = loc("/model.22/cv2.2/cv2.2.0/act/Mul_output_0_Mul")
#loc334 = loc("/model.22/cv3.2/cv3.2.0/act/Mul_output_0_Mul_table")
#loc335 = loc("/model.22/cv3.2/cv3.2.0/act/Mul_output_0_Mul")
#loc336 = loc("/model.22/cv2.2/cv2.2.1/conv/Conv_output_0_Conv_filter_i8")
#loc337 = loc("/model.22/cv2.2/cv2.2.1/conv/Conv_output_0_Conv_bias_int32")
#loc338 = loc("/model.22/cv2.2/cv2.2.1/conv/Conv_output_0_Conv")
#loc339 = loc("/model.22/cv3.2/cv3.2.1/conv/Conv_output_0_Conv_filter_i8")
#loc340 = loc("/model.22/cv3.2/cv3.2.1/conv/Conv_output_0_Conv_bias_int32")
#loc341 = loc("/model.22/cv3.2/cv3.2.1/conv/Conv_output_0_Conv")
#loc342 = loc("/model.22/cv2.2/cv2.2.1/act/Mul_output_0_Mul_table")
#loc343 = loc("/model.22/cv2.2/cv2.2.1/act/Mul_output_0_Mul")
#loc344 = loc("/model.22/cv3.2/cv3.2.1/act/Mul_output_0_Mul_table")
#loc345 = loc("/model.22/cv3.2/cv3.2.1/act/Mul_output_0_Mul")
#loc346 = loc("/model.22/cv2.2/cv2.2.2/Conv_output_0_Conv_filter_i8")
#loc347 = loc("/model.22/cv2.2/cv2.2.2/Conv_output_0_Conv_bias_int32")
#loc348 = loc("/model.22/cv2.2/cv2.2.2/Conv_output_0_Conv")
#loc349 = loc("/model.22/cv3.2/cv3.2.2/Conv_output_0_Conv_filter_i8")
#loc350 = loc("/model.22/cv3.2/cv3.2.2/Conv_output_0_Conv_bias_int32")
#loc351 = loc("/model.22/cv3.2/cv3.2.2/Conv_output_0_Conv")
#loc352 = loc("/model.22/Concat_2_output_0_Concat")
#loc353 = loc("/model.22/Reshape_2_output_0_Reshape")
#loc354 = loc("/model.22/Concat_3_output_0_Concat")
#loc355 = loc("/model.22/Split_output_0_Split")
#loc356 = loc("/model.22/Split_output_1_Split")
#loc357 = loc("/model.22/dfl/Reshape_output_0_Reshape")
#loc358 = loc("/model.22/Sigmoid_output_0_Sigmoid_table")
#loc359 = loc("/model.22/Sigmoid_output_0_Sigmoid")
#loc360 = loc("/model.22/Sigmoid_output_0_Sigmoid_f32")
#loc361 = loc("/model.22/dfl/Transpose_output_0_Transpose")
#loc362 = loc("/model.22/dfl/Transpose_output_0_Transpose/model.22/dfl/Softmax_output_0_Softmax_bf16")
#loc363 = loc("/model.22/dfl/Softmax_output_0_Softmax/model.22/dfl/Softmax_output_0_Softmax_slope_table_bf16")
#loc364 = loc("/model.22/dfl/Softmax_output_0_Softmax/model.22/dfl/Softmax_output_0_Softmax_slope_slope_table_bf16")
#loc365 = loc("/model.22/dfl/Softmax_output_0_Softmax/model.22/dfl/Softmax_output_0_Softmax_pow_table_bf16")
#loc366 = loc("/model.22/dfl/Softmax_output_0_Softmax/model.22/dfl/Softmax_output_0_Softmax_pow_mantissa_table_bf16")
#loc367 = loc("/model.22/dfl/Softmax_output_0_Softmax")
#loc368 = loc("/model.22/dfl/Softmax_output_0_Softmax/model.22/dfl/conv/Conv_output_0_Conv_si8")
#loc369 = loc("/model.22/dfl/conv/Conv_output_0_Conv_filter_i8")
#loc370 = loc("/model.22/dfl/conv/Conv_output_0_Conv")
#loc371 = loc("/model.22/dfl/conv/Conv_output_0_Conv_f32")

